data/augmented/timegan_class_1.pt (torch, 239069 bytes, 65 tensors)

embedder.rnn.weight_ih_l0 f4 [72, 43]
-0.031539585 -0.091887936 0.05878071 -0.05985748 -0.14151102 0.0253044 -0.09464057 0.1650969
0.12054023 -0.06592158 0.19616142 0.080311656 0.072756454 -0.19176069 -0.16891597 -0.009214644
0.20267911 -0.13322352 0.09364162 0.14601438 0.053743444 -0.10689881 -0.113782026 0.029409671
-0.02086328 0.1169692 0.0154859405 0.043846946 -0.19598104 -0.062210422 0.04460456 0.12202827
0.1682772 -0.16502541 -0.2028389 0.0055959015 0.06472625 0.11287009 0.003030784 0.16409698
0.0007996915 0.05857551 0.018585142 0.037456453 -0.13176855 0.12330828 0.16310221 -0.11899937
-0.045754246 -0.16894622 -0.07154314 -0.08798815 0.0030162784 -0.15163626 0.20506117 0.036672987
0.12816238 0.037368786 0.13371527 -0.18941678 -0.06450009 0.01606894 0.098189116 0.1728287
0.12151169 -0.01709519 -0.021013383 0.13495107 0.13825421 -0.046683032 0.0012148662 0.06251481
0.016800867 -0.19959219 0.11406175 -0.17325576 -0.1580025 0.061420523 -0.19058542 0.121889964
-0.14918344 -0.16635622 -0.0057368325 -0.07312282 0.14135331 -0.12792031 0.16314264 0.15394495
0.050549578 -0.11297387 0.2018485 -0.12518418 -0.17766549 0.034042988 0.048474677 0.17111126
0.08149802 0.19094792 0.0048347414 -0.19177751 -0.05689369 -0.102071665 0.0026156984 -0.15614131
0.20174137 0.052126773 0.17614184 -0.13803488 -0.118899874 -0.08169428 0.04146167 0.010632482
-0.10539342 0.008357533 -0.13798173 -0.002323459 0.100179814 -0.13149545 0.13522245 0.019973572
0.03177268 0.20000607 -0.041474428 -0.01733955 -0.028935526 -0.16905928 -0.022615973 -0.06771415
0.08613211 -0.055819526 0.13339478 0.01979173 -0.05884199 0.0665571 -0.18755467 -0.13957815
0.085666314 -0.06703482 -0.030733895 -0.07916595 -0.18970709 -0.020696187 -0.08972256 -0.072927825
0.055072296 0.1336043 0.067540914 -0.113428906 -0.19550818 0.18228158 0.21800648 0.17036901
0.20043957 0.027160905 0.12346002 0.18158862 -0.098739535 -0.1696547 -0.08158495 0.12711665
0.069858514 0.14264148 -0.11132658 0.0405577 -0.09218866 0.13566044 -0.08526895 -0.048045874
-0.1244147 0.1281998 0.05445781 -0.07284995 0.0021899317 0.17019579 0.2022861 -0.088634156
-0.09644493 -0.103444226 0.026637653 -0.06435255 -0.20354721 -0.032224357 0.07496476 0.059335776
-0.0010502613 -0.003506714 -0.011497194 -0.097561225 0.12012416 -0.013012098 0.084237404 -0.023811981
-0.16341145 0.008669162 0.0020355068 -0.23253651 -0.07229605 0.08779946 0.1641418 -0.09494498
-0.17476255 -0.007286356 -0.08424758 0.02568115 0.16395314 0.07588581 -0.091538526 -0.055154428
0.07104049 -0.16719219 0.18450162 0.003911913 0.069542386 0.0049330746 0.13020496 0.10900816
0.13292919 0.09655773 0.19392057 -0.009657443 0.1500478 -0.038509637 0.037247397 -0.13400161
-0.085307695 -0.15105551 -0.124187395 0.021947917 -0.058544107 0.07640509 -0.14274323 0.09220767
-0.056467533 0.0888213 0.035846632 -0.034380756 -0.11710234 0.09628725 0.09831047 0.0714028
-0.04658162 -0.046595618 0.038239915 -0.18489271 -0.008937436 0.027587185 -0.14442194 0.052734915
-0.12909675 0.032817792 -0.053724088 -0.18957265 -0.03917298 0.0995014 -0.013381474 -0.16241433
00000000: a72f 01bd be2f bcbd 0bc4 703d 1e2d 75bd
00000010: 44e8 10be 2c4b cf3c ead2 c1bd 290f 293e
00000020: ccdd f63d e501 87bd 8ade 483e 707a a43d
00000030: 5601 953d ea5c 44be 4ff8 2cbe 05f9 16bc
00000040: 1d8b 4f3e bf6b 08be 2dc7 bf3d cb84 153e
00000050: 1622 5c3d c3ed dabd 8d06 e9bd 8dec f03c
00000060: 78e9 aabc 8c8d ef3d beb8 7d3c db98 333d
00000070: 41af 48be 5bd0 7ebd 45b3 363d f5e9 f93d
00000080: dc50 2c3e 6cfc 28be 00b5 4fbe d35d b73b
00000090: 328f 843d 6f28 e73d 1ea0 463b 0a09 283e
000000a0: 63a2 513a e0ec 6f3d de3f 983c f06b 193d
000000b0: 56ee 06be 0d89 fc3d 4404 273e f1b5 f3bd
000000c0: ce68 3bbd 3d00 2dbe 3685 92bd 2233 b4bd
000000d0: c1ac 453b 8946 1bbe 8efb 513e 6a36 163d
000000e0: 003d 033e 0310 193d a8ec 083e 79f6 41be
000000f0: a018 84bd 02a3 833c 6017 c93d 02fa 303e
00000100: 1fdb f83d 360b 8cbc 4224 acbc 9d30 0a3e
00000110: 8392 0d3e b536 3fbd 253c 9f3a c407 803d
00000120: f9a1 893c e561 4cbe 3599 e93d f569 31be
00000130: 68cb 21be 1694 7b3d d328 43be 72a1 f93d
00000140: 8bc3 18be 4959 2abe 0afc bbbb 6bc1 95bd
00000150: ecbe 103e 8bfd 02be dd0e 273e bfa3 1d3e
00000160: 130d 4f3d d85e e7bd 60b1 4e3e 4830 00be
00000170: f1ed 35be a970 0b3d 628d 463d ca37 2f3e
00000180: 6fe8 a63d da87 433e c06c 9e3b 5361 44be
00000190: 5c09 69bd f30a d1bd 236c 2b3b 82e3 1fbe
000001a0: 4a95 4e3e e282 553d 875e 343e 0459 0dbe
000001b0: c781 f3bd 554f a7bd b6d3 293d dd33 2e3c
000001c0: 81d8 d7bd 09ee 083c 154b 0dbe 2c45 18bb
000001d0: 132b cd3d bea6 06be c177 0a3e 9e9f a33c
000001e0: 1224 023d 64ce 4c3e 17e1 29bd ac0b 8ebc
000001f0: 320a edbc e01d 2dbe 2245 b9bc b7ad 8abd
00000200: 0866 b03d 04a3 64bd a498 083e 4422 a23c
00000210: 4c04 71bd 174f 883d 550e 40be 93ed 0ebe
00000220: d271 af3d 8d49 89bd a6c5 fbbc c221 a2bd
00000230: 9342 42be 0d8b a9bc 76c0 b7bd 2f5b 95bd
00000240: 7d93 613d 91cf 083e e452 8a3d 6a4d e8bd
00000250: 4c33 48be 06a8 3a3e 173d 5f3e 3775 2e3e
00000260: 0840 4d3e 8c80 de3c 9bd8 fc3d 5ef2 393e
00000270: f437 cabd f6b9 2dbe 0316 a7bd de2a 023e
00000280: fb11 8f3d 9c10 123e 31ff e3bd d51f 263d
00000290: 68cd bcbd 92ea 0a3e 7da1 aebd c0cb 44bd
000002a0: 22cd febd cf46 033e 270f 5f3d 5b32 95bd
000002b0: f584 0f3b ce47 2e3e 1624 4f3e d385 b5bd
000002c0: eb84 c5bd 91da d3bd 3537 da3c 45cb 83bd
000002d0: ae6e 50be b0fd 03bd 2087 993d 120a 733d
000002e0: eca8 89ba e6d0 65bb ba5e 3cbc 2ece c7bd
000002f0: a803 f63d b230 55bc a984 ac3d 5811 c3bc
00000300: 5555 27be 1a09 0e3c 2366 053b 0d1e 6ebe
00000310: f40f 94bd 34d0 b33d ca14 283e 8472 c2bd
00000320: f4f4 32be 62c2 eebb ff89 acbd 4661 d23c
00000330: 55e3 273e 056a 9b3d 8d78 bbbd 9ce9 61bd
00000340: ad7d 913d 6e34 2bbe feed 3c3e 812f 803b
00000350: 3d6c 8e3d a1a5 a13b 7354 053e ac3f df3d
00000360: 971e 083e 0fc0 c53d 1d93 463e 403a 1ebc
00000370: 21a6 193e 48bc 1dbd ba90 183d b837 09be
00000380: cdb5 aebd 4cae 1abe f655 febd 1ecc b33c
00000390: f2cb 6fbd 467a 9c3d 482b 12be 60d7 bc3d
000003a0: 804a 67bd f1e7 b53d ebd3 123d d6d2 0cbd
000003b0: 5ad3 efbd 4032 c53d 0057 c93d a23b 923d
000003c0: 5ecc 3ebd 0cdb 3ebd 75a1 1c3d 8454 3dbe
000003d0: 536e 12bc 85fe e13c 58e3 13be 9100 583d
000003e0: f031 04be f36b 063d ca0d 5cbd 551f 42be
000003f0: d973 20bd 64c7 cb3d f83d 5bbc f14f 26be

embedder.rnn.weight_hh_l0 f4 [72, 24]
-0.16501787 0.03963773 -0.042523056 0.15563844 0.11779857 -0.0019490011 0.07957691 -0.19435278
-0.09225407 -0.15827136 -0.19866827 0.05605356 -0.066432945 0.015501527 0.04455503 0.03151576
-0.2035666 0.041570947 0.08834087 -0.094892494 0.1262836 0.002474665 -0.013514332 0.048424944
-0.13940582 -0.037386965 -0.049500026 0.07582862 0.15760607 -0.067763954 0.021361353 -0.17534381
0.055564377 -0.16724697 -0.16365461 -0.034578618 0.19914506 -0.14995387 -0.005465607 0.15858316
-0.09670484 0.11340665 -0.0072956025 0.13701455 0.06201834 -0.06921883 0.0941442 -0.07458325
-0.01170182 0.16713 -0.09763074 -0.19761091 -0.07801135 0.075885475 0.19638252 -0.09162019
-0.024727939 -0.113229886 -0.03892613 -0.09118876 -0.16117068 -0.15419795 0.09711713 -0.06666492
-0.1347889 0.0026106513 -0.074105285 -0.1699318 -0.1481689 0.09207925 -0.15249023 -0.013753004
-0.023997152 -0.10494587 0.17277996 0.052589968 0.17059909 -0.18561023 0.07751288 0.13222007
0.05846451 0.037253737 0.09760088 0.059057355 -0.16899364 -0.07476754 -0.12115546 0.11005609
-0.13433155 0.062395424 0.054006495 0.07776623 -0.123403594 0.037433736 -0.008030798 0.09223463
-0.066570476 -0.08584631 0.13201666 0.11466949 -0.102515444 -0.23092493 -0.07852045 0.14312026
0.14449403 0.046488162 -0.08903077 -0.0983005 -0.08699825 0.10546616 0.07681677 -0.065954335
0.034647584 0.12233617 0.0008405024 0.17621277 -0.07231426 -0.15108496 -0.10858215 -0.20203902
0.04168444 -0.1871531 0.17426585 0.19622816 -0.1277925 0.19709738 -0.10276187 -0.17954533
-0.059977453 -0.06597608 0.14429927 0.11104264 -0.1031561 0.13087563 0.029643685 -0.20411193
0.09874899 0.15536462 -0.12450773 0.19079106 -0.14091145 0.18954156 -0.07718596 -0.1386759
-0.1598112 0.07029655 0.024984725 0.15571654 -0.06335076 0.15680364 0.1277436 -0.09299283
0.03340867 0.20146559 -0.052328035 -0.06628262 0.18121533 0.16878763 0.16381788 -0.10865903
-0.034979004 0.07415296 -0.033243414 -0.18515497 0.04589711 0.118951805 -0.05204504 -0.09715643
0.16421494 0.1615472 0.04756826 -0.06644036 0.13908657 -0.081253625 -0.1897914 -0.0617602
-0.17880638 0.13715383 0.16350617 -0.036728833 0.014844181 -0.1640801 0.09106071 -0.15502599
-0.10049248 -0.03571004 0.1471077 0.19924663 -0.09750954 0.07677062 -0.12342847 -0.11992447
0.16254681 -0.07740404 -0.11529894 0.07785458 -0.04187423 -0.07576376 0.0614119 0.1723085
-0.017417297 -0.148464 -0.0665584 -0.12432301 0.13825263 -0.1839523 0.06566632 -0.12258571
-0.11144555 -0.110726744 0.14145434 -0.052221756 0.16039474 -0.15638809 -0.004260825 -0.08281812
6.6454624e-05 0.14125402 0.03533302 -0.1726747 -0.19442974 0.12033345 0.13253254 -0.14091003
0.1700057 -0.038140845 -0.009972196 -0.1101845 0.019455975 -0.14178327 -0.01829779 0.112399444
-0.06735181 -0.1828251 -0.17232466 0.13734142 -0.07154524 0.16030745 0.18795379 -0.007754618
0.17818858 -0.14924297 0.19163205 -0.03243475 0.11582703 -0.0060700243 0.060412664 -0.108355075
0.14462517 0.05648993 0.1085322 0.04812884 0.119764075 -0.051446006 0.1958939 -0.10498941
00000000: 72fa 28be 2c5b 223d a82c 2ebd af5f 1f3e
00000010: 6040 f13d a075 ffba 38f9 a23d 6a04 47be
00000020: b4ef bcbd e311 22be b26f 4bbe 6b98 653d
00000030: ff0d 88bd 1efa 7d3c 567f 363d ab16 013d
00000040: c373 50be 4c46 2a3d 0fec b43d ff56 c2bd
00000050: 7d50 013e fd2d 223b 376b 5dbc 3c59 463d
00000060: 66c0 0ebe 1323 19bd 8ac0 4abd 094c 9b3d
00000070: 7c63 213e d4c7 8abd 01fe ae3c 548d 33be
00000080: 7997 633d ca42 2bbe 1395 27be 4fa2 0dbd
00000090: afec 4b3e 828d 19be d618 b3bb a063 223e
000000a0: 300d c6bd bf41 e83d f30f efbb 8b4d 0c3e
000000b0: f106 7e3d 9ac2 8dbd adce c03d 1abf 98bd
000000c0: feb8 3fbc 2024 2b3e a0f2 c7bd 845a 4abe
000000d0: 6ac4 9fbd d869 9b3d 8018 493e 5ea3 bbbd
000000e0: 3f92 cabc 12e5 e7bd 0171 1fbd 2cc1 babd
000000f0: ed09 25be 11e6 1dbe 59e5 c63d 9e87 88bd
00000100: 1a06 0abe 7617 2b3b 83c4 97bd 9a02 2ebe
00000110: 97b9 17be 0c94 bc3d 6626 1cbe 4854 61bc
00000120: ad95 c4bc dced d6bd 3bed 303e 9468 573d
00000130: 87b1 2e3e 9c10 3ebe 13bf 9e3d b364 073e
00000140: 7b78 6f3d 6097 183d f8e2 c73d 20e6 713d
00000150: ab0c 2dbe b91f 99bd 5b20 f8bd 1665 e13d
00000160: 368e 09be 5892 7f3d ea35 5d3d e743 9f3d
00000170: 06bb fcbd 1e54 193d 9c93 03bc 82e5 bc3d
00000180: 1a56 88bd 31d0 afbd 602f 073e d6d7 ea3d
00000190: 9ef3 d1bd 9677 6cbe 54cf a0bd 1e8e 123e
000001a0: 3ef6 133e 5f6a 3e3d c455 b6bd c651 c9bd
000001b0: 232c b2bd a4fe d73d 1c52 9d3d 1113 87bd
000001c0: a0ea 0d3d 638b fa3d 2955 5c3a 1f71 343e
000001d0: 8019 94bd 04b6 1abe 5160 debd 51e3 4ebe
000001e0: 4ebd 2a3d 10a5 3fbe bf72 323e 09f0 483e
000001f0: 0adc 02be e5d3 493e d174 d2bd bbda 37be
00000200: ebaa 75bd 781e 87bd 30c3 133e 536a e33d
00000210: 8143 d3bd 4304 063e 50d7 f23c b802 51be
00000220: e93c ca3d e717 1f3e e9fd febd bb5e 433e
00000230: 174b 10be 2f17 423e ac13 9ebd 0e01 0ebe
00000240: 8ca5 23be a3f7 8f3d c4ac cc3c 2874 1f3e
00000250: 0bbe 81bd 2291 203e 38cf 023e 0673 bebd
00000260: 88d7 083d ff4c 4e3e ec55 56bd 2fbf 87bd
00000270: 8390 393e aad6 2c3e e0bf 273e a088 debd
00000280: 2546 0fbd 82dd 973d 3f2a 08bd 4499 3dbe
00000290: 9cfe 3b3d 019d f33d 2e2d 55bd f3f9 c6bd
000002a0: f627 283e a16c 253e f0d6 423d e211 88bd
000002b0: b66c 0e3e 4d68 a6bd ad58 42be 43f8 7cbd
000002c0: 0519 37be 0e72 0c3e 296e 273e f970 16bd
000002d0: 0235 733c 9d04 28be 0a7e ba3d 22bf 1ebe
000002e0: 00cf cdbd b144 12bd 67a3 163e 4f07 4c3e
000002f0: 15b3 c7bd ea39 9d3d 11c8 fcbd f69a f5bd
00000300: ac72 263e 0286 9ebd da21 ecbd 3972 9f3d
00000310: 5084 2bbd 082a 9bbd 0b8b 7b3d a471 303e
00000320: b8ae 8ebc f206 18be c54f 88bd 109d febd
00000330: 1992 0d3e fe5d 3cbe 107c 863d 370e fbbd
00000340: 913d e4bd b4c4 e2bd 68d9 103e 7be6 55bd
00000350: 853e 243e 3324 20be 649e 8bbb 8c9c a9bd
00000360: 8e5d 8b38 e5a4 103e 5bb9 103d a3d1 30be
00000370: 9718 47be 6271 f63d 9cb6 073e b84a 10be
00000380: f915 2e3e 9339 1cbd 6c62 23bc 69a8 e1bd
00000390: 2362 9f3c a22f 11be 3fe5 95bc ae31 e63d
000003a0: bfef 89bd 8136 3bbe e075 30be 3ba3 0c3e
000003b0: 5086 92bd a327 243e f576 403e 731a febb
000003c0: 1177 363e 26d3 18be 313b 443e 4dda 04bd
000003d0: b936 ed3d 0ee7 c6bb 4573 773d 44e9 ddbd
000003e0: 9f18 143e fc61 673d 2146 de3d bf22 453d
000003f0: de46 f53d 0cb9 52bd 6998 483e b004 d7bd

embedder.rnn.bias_ih_l0 f4 [72]
0.0042787343 -0.1292572 0.03938517 0.20006564 0.040218372 0.14057377 0.059597716 -0.15530437
-0.040757768 0.00088056887 0.09875484 0.03976761 0.08388784 0.13203421 0.091917075 -0.0737765
0.12581769 -0.110612154 0.18913393 0.0569282 0.1713774 0.12392744 -0.14377792 0.1309078
0.07756291 0.068646714 0.1113436 -0.03482696 0.23098792 -0.0031815656 -0.14282076 -0.18600346
-0.1559179 0.045092992 0.27165204 0.0076309894 -0.05701112 0.093067385 -0.19512288 0.05223227
0.09225514 -0.18393572 -0.16913682 -0.09628964 0.06325799 0.03004083 0.16051224 -0.05487921
-0.09687062 0.17458689 -0.15635908 -0.15327126 0.13562365 0.011201999 -0.16046865 -0.025012085
0.10787211 -0.19283564 -0.1217044 0.04493106 -0.1246686 0.055401403 0.10238666 -0.17369047
-0.11664478 -0.12194036 0.1174059 -0.057358813 -0.102169566 0.061796084 0.045555506 -0.0096589355
00000000: a034 8c3b 005c 04be 5852 213d 02de 4c3e
00000010: 05bc 243d 92f2 0f3e bc1c 743d 1c08 1fbe
00000020: 9ef1 26bd fad5 663a fa3f ca3d 5de3 223d
00000030: 63cd ab3d fa33 073e 053f bc3d 2218 97bd
00000040: 5ad6 003e a088 e2bd 53ac 413e 8b2d 693d
00000050: 8f7d 2f3e abcd fd3d 853a 13be b20c 063e
00000060: 4ed9 9e3d a696 8c3d 1d08 e43d b7a6 0ebd
00000070: 1988 6c3e d081 50bb 9b3f 12be b177 3ebe
00000080: f1a8 1fbe 6eb3 383d fa15 8b3e 610d fa3b
00000090: 7e84 69bd 1d9a be3d 4bce 47be 81f1 553d
000000a0: 43f0 bc3d a559 3cbe 3432 2dbe 8133 c5bd
000000b0: 688d 813d 3018 f63c 525d 243e 06c9 60bd
000000c0: 1b64 c6bd e8c6 323e 981c 20be 24f3 1cbe
000000d0: ede0 0a3e 9788 373c e551 24be 25e6 ccbc
000000e0: 0eec dc3d b576 45be 2840 f9bd a209 383d
000000f0: 4052 ffbd 95ec 623d 19b0 d13d eadb 31be
00000100: 75e3 eebd debb f9bd 8172 f03d 13f1 6abd
00000110: 473e d1bd e41d 7d3d 6998 3a3d 8340 1ebc

embedder.rnn.bias_hh_l0 f4 [72]
-0.027691538 -0.032579996 0.052372225 0.18245389 -0.102043785 0.07829631 -0.060548805 -0.044804346
-0.12638293 -0.11124687 -0.16565655 0.15177932 0.15820317 -0.20073797 -0.021634623 -0.18353838
0.027962338 0.11884477 -0.21207121 0.1798901 -0.095878795 -0.17814735 0.13801517 -0.21438946
-0.041625127 0.012267733 0.11037671 -0.088537976 0.08920917 -0.14454393 0.046560954 -0.10864413
-0.17708135 0.16523515 0.09069612 0.1020547 -0.230521 -0.12774162 -0.061319977 0.03760597
0.021634968 0.122897975 -0.07092659 0.03919414 0.030761024 0.10669129 -0.030399805 -0.14697845
-0.031487968 -0.07433819 -0.09866302 0.20654777 0.1543187 -0.1819709 -0.0048568603 0.17368828
-0.10821642 -0.18092078 0.15570827 0.11335694 0.17332733 0.18592964 -0.17430632 -0.13545798
-0.20493962 -0.089325905 0.0931733 0.010851266 -0.02676083 -0.21249034 0.029134601 -0.079465576
00000000: 5dd9 e2bc 9a72 05bd 4284 563d 31d5 3a3e
00000010: 55fc d0bd d159 a03d 0602 78bd c384 37bd
00000020: 876a 01be 66d5 e3bd dfa1 29be 0a6c 1b3e
00000030: 0300 223e 418e 4dbe 183b b1bc 7cf1 3bbe
00000040: 4611 e53c e364 f33d 3229 59be 1c35 383e
00000050: 1a5c c4bd 426c 36be d953 0d3e e988 5bbe
00000060: 1c7f 2abd 9afe 483c 2f0d e23d 6653 b5bd
00000070: 4cb3 b63d 5303 14be b3b6 3e3d d080 debd
00000080: d054 35be 6733 293e e3be b93d 0e02 d13d
00000090: b20d 6cbe b3ce 02be a82a 7bbd b808 1a3d
000000a0: d13b b13c efb1 fb3d f641 91bd 098a 203d
000000b0: 8bfe fb3c f780 da3d 0309 f9bc 8581 16be
000000c0: 87f9 00bd 9f3e 98bd d60f cabd 4281 533e
000000d0: b905 1e3e 9456 3abe 4c26 9fbb 57db 313e
000000e0: 92a0 ddbd 4c43 39be fd71 1f3e af27 e83d
000000f0: b87c 313e 5764 3e3e 5b7d 32be 7fb5 0abe
00000100: b1db 51be 80f0 b6bd a5d1 be3d 82c9 313c
00000110: 8739 dbbc 1197 59be b0ab ee3c d9be a2bd

embedder.rnn.weight_ih_l1 f4 [72, 24]
0.03830965 0.18103088 -0.20768717 -0.081453465 -0.0141578885 0.0011227272 -0.12687203 -0.0039857193
0.10754805 0.21520616 -0.06264975 -0.16996053 0.052300956 0.10357485 -0.15416487 0.23144025
0.18034416 0.10379321 0.041291066 -0.07196798 -0.031625494 -0.009546771 -0.020372303 0.16078456
0.011956528 -0.13935032 -0.12179939 -0.16047603 -0.3676021 0.15772264 0.3778645 0.009555052
0.03934143 -0.17772202 -0.026477555 -0.02986775 0.010782056 -0.06231467 0.057500497 -0.19934492
0.11850949 0.09315886 0.07474637 -0.03656619 -0.018052857 -0.08234262 -0.12299249 -0.17930555
0.11614909 -0.018305449 0.03764321 0.15881214 -0.03016242 -0.004217781 0.08690566 0.12935856
-0.086782776 -0.13237527 -0.088759184 -0.052078657 -0.14253932 0.09694315 -0.07846666 -0.18510024
-0.20999965 0.18107514 -0.036679238 -0.11434357 0.12257856 0.01017426 -0.10268059 0.22349858
-0.018568208 0.19699307 0.110609956 -0.20537746 -0.21564303 0.034216315 0.1317509 0.18957502
0.20671612 0.034925107 -0.059819408 0.12921031 0.20372169 -0.16347961 -0.012082015 -0.022051048
-0.1844233 0.052024018 0.015143348 0.103618585 0.04451369 -0.016272204 0.21352793 0.15329117
0.025896812 -0.13574626 -0.18714821 0.025879977 0.09263729 0.050594363 0.12929343 -0.10959924
0.16537516 -0.097724184 0.09424025 0.037619233 0.019328944 -0.002250904 -0.092631325 -0.24571817
-0.19292185 -0.14315067 -0.16781051 -0.16380383 0.17324556 0.19422525 -0.0055158176 -0.06714982
-0.12590241 0.09676083 -0.1020637 0.1842237 0.34030706 0.2200657 -0.2361679 -0.17159136
0.106637076 0.07191214 -0.028155833 0.11650799 -0.053603597 -0.24987319 0.069609 0.14468613
-0.09096795 -0.06651809 0.020014346 -0.17264687 0.07680823 -0.1016474 0.052705478 0.12776911
-0.21485963 -0.14610514 -0.010512862 0.07440734 -0.013520466 -0.15083726 0.023867449 0.11008381
-0.033821333 -0.07828616 -0.038419813 -0.121114194 -0.07457993 0.030722395 -0.056863293 0.13883853
0.16323557 0.2252869 0.030105326 -0.14558911 0.15307757 -0.17326374 0.08604297 0.21056163
0.04025554 0.043467354 -0.08441102 0.08947797 -0.034715366 0.10539399 -0.21332711 0.12915666
-0.061248407 -0.08817911 0.034666084 0.15503217 0.049991347 -0.07267467 -0.07973572 0.24372551
0.24376531 -0.04938504 -0.019833373 -0.057738945 0.19469178 0.0985518 -0.07935559 0.0957068
-0.038595483 -0.14838853 0.21246043 0.21663015 0.13145772 -0.078487165 0.011747325 0.066424735
0.033216827 -0.14346862 0.10718585 -0.021222303 -0.11744803 0.01726116 0.014370784 0.016966721
0.050654896 -0.13256875 0.09417617 0.12074482 0.09541377 -0.13789235 -0.042510964 -0.07593041
-0.15744275 0.15865245 0.07116197 0.13923448 -0.07012588 -0.020417415 -0.10578087 -0.23059855
0.039765988 0.09864532 -0.20888646 -0.006234115 -0.13217202 0.04146338 -0.044954285 -0.22488655
0.11185827 0.08873839 0.04024646 -0.18520522 -0.14171742 -0.16334762 0.01088656 0.21598004
-0.119786635 0.037827 0.008608947 0.1265763 0.21424644 0.17970227 -0.14359352 -0.22588716
0.039338984 -0.2125769 -0.077857405 0.13946287 -0.20486277 -0.070128374 -0.1468714 -0.19616312
00000000: 94ea 1c3d 2960 393e f2ab 54be 13d1 a6bd
00000010: 7df6 67bc 7928 933a beea 01be a39a 82bb
00000020: 2742 dc3d 015f 5c3e 834e 80bd 220a 2ebe
00000030: 8739 563d 0d1f d43d 65dd 1dbe acfe 6c3e
00000040: 24ac 383e 8991 d43d d220 293d f363 93bd
00000050: bc89 01bd 0f6a 1cbc d1e3 a6bc b5a4 243e
00000060: 50e5 433c dab1 0ebe f571 f9bd d453 24be
00000070: 5836 bcbe 0b82 213e 7577 c13e cb8c 1c3c
00000080: 7b24 213d c3fc 35be 75e7 d8bc 36ad f4bc
00000090: 38a7 303c ab3d 7fbd a485 6b3d 1321 4cbe
000000a0: 1ab5 f23d 13ca be3d a014 993d 6ec6 15bd
000000b0: 96e3 93bc 3fa3 a8bd 7de3 fbbd e09b 37be
000000c0: 93df ed3d 4ff5 95bc c42f 1a3d a69f 223e
000000d0: 2e17 f7bc 5035 8abb 98fb b13d 9276 043e
000000e0: 2bbb b1bd 628d 07be 60c7 b5bd 6e50 55bd
000000f0: d4f5 11be 218a c63d 21b3 a0bd eb8a 3dbe
00000100: 260a 57be c36b 393e f83c 16bd f62c eabd
00000110: 780a fb3d f0b1 263c 334a d2bd d0dc 643e
00000120: 5b1c 98bc 8db8 493e 7987 e23d 784e 52be
00000130: 87d1 5cbe 6826 0c3d b5e9 063e f41f 423e
00000140: 64ad 533e a10d 0f3d 3205 75bd b54f 043e
00000150: 6b9c 503e 3367 27be a5f3 45bc 66a4 b4bc
00000160: 76d9 3cbe 2317 553d ce1b 783c fb35 d43d
00000170: fd53 363d 494d 85bc 11a7 5a3e 5cf8 1c3e
00000180: 8d25 d43c 1101 0bbe c8a3 3fbe 3f02 d43c
00000190: 9fb8 bd3d 093c 4f3d 7f65 043e 9175 e0bd
000001a0: 1b58 293e 9e23 c8bd 0801 c13d a016 1a3d
000001b0: bc57 9e3c e783 13bb 7eb5 bdbd 8b9d 7bbe
000001c0: 4e8d 45be 1796 12be 85d6 2bbe 31bc 27be
000001d0: 4967 313e fce2 463e 08be b4bb d885 89bd
000001e0: 90ec 00be 8b2a c63d c606 d1bd 23a5 3c3e
000001f0: ba3c ae3e e758 613e ffd5 71be a5b5 2fbe
00000200: 8a64 da3d ac46 933d 10a7 e6bc be9b ee3d
00000210: 728f 5bbd c2de 7fbe 2a8f 8e3d 9a28 143e
00000220: 684d babd a33a 88bd 20f5 a33c 57ca 30be
00000230: a24d 9d3d 832c d0bd b3e1 573d e8d5 023e
00000240: 2a04 5cbe 969c 15be 243e 2cbc e062 983d
00000250: f284 5dbc 1575 1abe ab85 c33c 9f73 e13d
00000260: 3d88 0abd 7f54 a0bd 185e 1dbd b80a f8bd
00000270: 5dbd 98bd 88ad fb3c 7ce9 68bd b02b 0e3e
00000280: 3a27 273e 9cb1 663e 729f f63c 5015 15be
00000290: 5ec0 1c3e 0d6c 31be 4c37 b03d 789d 573e
000002a0: fee2 243d d30a 323d afdf acbd 3a40 b73d
000002b0: b331 0ebd ced8 d73d 6c72 5abe a541 043e
000002c0: 9cdf 7abd 4097 b4bd 06fe 0d3d c1c0 1e3e
000002d0: bac3 4c3d 75d6 94bd 7b4c a3bd 2e93 793e
000002e0: 9d9d 793e f847 4abd 9979 a2bc ac7f 6cbd
000002f0: 485d 473e 87d5 c93d 2f85 a2bd ed01 c43d
00000300: 4c16 1ebd 2af3 17be 3a8f 593e 4bd4 5d3e
00000310: da9c 063e e1bd a0bd da77 403c b109 883d
00000320: 5e0e 083d 70e9 12be 4184 db3d 65da adbc
00000330: 9888 f0bd 4767 8d3c 7073 6b3c cbfd 8a3c
00000340: 827b 4f3d 1ac0 07be 70df c03d 0f49 f73d
00000350: 4b68 c33d a733 0dbe fa1f 2ebd 6781 9bbd
00000360: ac38 21be ca75 223e 5ebd 913d 7c93 0e3e
00000370: 289e 8fbd 6c42 a7bc a4a3 d8bd 0722 6cbe
00000380: a9e1 223d 8f06 ca3d 55e6 55be 8c47 ccbb
00000390: 1a58 07be 81d5 293d fc21 38bd a948 66be
000003a0: f315 e53d 79bc b53d 79d9 243d 70a6 3dbe
000003b0: 5f1e 11be 9944 27be 8b5d 323c df29 5d3e
000003c0: b252 f5bd 7cf0 1a3d 8a0c 0d3c 389d 013e
000003d0: 6b63 5b3e df03 383e 2e0a 13be f74e 67be
000003e0: ea21 213d c2ad 59be b473 9fbd 5bcf 0e3e
000003f0: 8cc7 51be 779f 8fbd 7565 16be fcde 48be

embedder.rnn.weight_hh_l1 f4 [72, 24]
-0.17882343 0.15936586 -0.0828522 -0.00747123 -0.055150542 0.013344314 -0.027533373 0.24594188
0.040657185 0.12902181 -0.0051652864 -0.14338428 -0.043854732 -0.15367614 0.14718078 0.10035638
0.13783422 0.11324184 0.035540074 0.16342753 0.016916206 0.0070470246 0.20636515 -0.04918625
0.025611712 0.07010557 -0.087552816 -0.16235523 -0.20438139 -0.08445067 0.11109254 -0.11565322
-0.13074212 0.01748535 0.035986017 -0.16964947 0.04937552 0.16628607 0.0021220658 -0.09653841
-0.022340419 0.1572073 0.068644635 0.10496289 -0.016102133 -0.25160646 -0.0490731 -0.052592408
-0.08413754 0.049115613 -0.16751227 0.17076282 0.031973366 -0.13260013 0.023913475 -0.21056977
-0.0070426166 0.028416835 0.0638679 0.066242784 0.0038436237 0.15034862 -0.005898294 -0.21930313
0.11838244 0.16250774 0.022043657 0.18920358 0.16843794 -0.09478329 0.13240169 -0.18055119
0.09364477 -0.14835407 0.1535626 -0.1843174 -0.10648991 0.03420301 -0.09417306 -0.0045129918
-0.18474805 -0.10367589 0.13086002 -0.15499425 -0.20119298 0.053412903 0.09807482 0.18484692
0.10302442 -0.13356248 0.16801287 -0.06019402 -0.13724914 0.19894141 0.13093475 -0.03056868
0.09924633 -0.16207372 -0.053101722 0.106581956 -0.13485648 0.17427008 -0.15458971 0.16201621
-0.16119717 -0.12696509 0.038373385 -0.100985005 0.18330956 0.15633777 -0.018078664 -0.13415386
-0.06306992 0.13993818 -0.08673175 0.01051627 0.117660925 -0.19654247 0.020072205 0.048103385
-0.07652268 -0.10440798 -0.22463709 -0.12265639 -0.014702863 -0.04465008 -0.17589904 -0.22849135
0.101871826 0.09784671 0.16753215 -0.11479105 -0.1807127 0.13707893 0.00093417004 0.17020555
0.11609622 0.14011279 0.32448256 -0.12927687 -0.15929519 0.1665588 0.26037517 -0.008457127
-0.11086406 0.12627353 -0.094867714 0.020849941 -0.08814751 -0.19713165 -0.12972513 -0.08487424
-0.06589315 0.14464135 0.046207458 -0.035010394 -0.07416207 0.009329683 0.20888026 0.11229374
0.1531686 0.1055324 -0.1547276 -0.010197711 -0.22262624 0.19836646 -0.049438354 0.08693092
0.05501346 -0.12697011 -0.11398707 0.010045228 -0.2029709 -0.086985305 -0.06425659 0.18484998
-0.019317081 -0.068318926 -0.0021776152 0.20687701 0.10577509 -0.20284218 -0.11643074 0.17223051
0.17211011 0.09121942 0.052000295 -0.03903655 -0.16528277 0.013334037 -0.21551313 -0.05238067
-0.13207544 -0.04036361 0.06839805 -0.06962787 0.0577386 -0.19943587 0.02931293 0.044137176
0.15150127 -0.0032827652 0.11785153 0.2244644 -0.07023143 0.01649926 0.17169091 -0.19579364
-0.066816546 0.13745558 0.074345425 0.11126037 -0.068797275 -0.110071056 0.123824716 -0.045347158
-0.068277694 -0.16417144 0.115371116 -0.058599398 -0.120527916 -0.19372426 -0.08446642 0.05256884
-0.16004477 0.066357225 0.04648658 -0.077780366 -0.100652285 -0.1198455 0.096435145 0.060472433
0.029742654 0.012511471 0.13263513 0.013744971 -0.029871128 -0.10036936 0.061735123 -0.0660432
-0.009592911 -0.00083397917 0.023323039 0.042597946 0.21791558 0.00988075 0.105385974 -0.038591523
-0.1731013 -0.106959976 0.230881 -0.08957161 0.13141559 0.14451137 -0.03695967 0.036479097
00000000: 7d1d 37be ce30 233e 6aae a9bd 38d1 f4bb
00000010: 89e5 61bd 1ca2 5a3c ab8d e1bc 30d8 7b3e
00000020: 2688 263d 4b1e 043e 9041 a9bb 54d3 12be
00000030: 05a1 33bd 475d 1dbe 8fb6 163e a587 cd3d
00000040: 6a24 0d3e 56eb e73d 7892 113d 8c59 273e
00000050: db93 8a3c baea e63b 6351 533e 8577 49bd
00000060: a7cf d13c 8293 8f3d e44e b3bd 7340 26be
00000070: 5b49 51be 79f4 acbd 7c84 e33d 98db ecbd
00000080: 43e1 05be 703d 8f3c 1366 133d 97b8 2dbe
00000090: fc3d 4a3d e546 2a3e 5b12 0b3b eeb5 c5bd
000000a0: 4103 b7bc f3fa 203e 8f95 8c3d c9f6 d63d
000000b0: 9fe8 83bc 90d2 80be e000 49bd 236b 57bd
000000c0: 4d50 acbd 742d 493d 5688 2bbe 73dc 2e3e
000000d0: 81f6 023d 54c8 07be 31e6 c33c 9a9f 57be
000000e0: c0c5 e6bb 6cca e83c 2ccd 823d 4caa 873d
000000f0: 4ee5 7b3b fdf4 193e 7a46 c1bb 0091 60be
00000100: 7e72 f23d 6e68 263e e694 b43c 95be 413e
00000110: ff7a 2c3e be1d c2bd 4f94 073e 69e2 38be
00000120: d4c8 bf3d 21ea 17be 843f 1d3e b3bd 3cbe
00000130: 6217 dabd 7518 0c3d cedd c0bd b8e1 93bb
00000140: 982e 3dbe 0654 d4bd 2b00 063e d0b6 1ebe
00000150: 8805 4ebe 7dc7 5a3d 74db c83d 8348 3d3e
00000160: 78fe d23d 9ac4 08be 910b 2c3e 018e 76bd
00000170: 0a8b 0cbe 4cb7 4b3e c213 063e 2b6b fabc
00000180: a941 cb3d a7f6 25be 3181 59bd a447 da3d
00000190: d117 0abe db73 323e c44c 1ebe 94e7 253e
000001a0: df10 25be 2303 02be 692d 1d3d 3ad1 cebd
000001b0: 80b5 3b3e 0217 203e b519 94bc a15f 09be
000001c0: cd2a 81bd f44b 0f3e 6aa0 b1bd 6f4c 2c3c
000001d0: 36f8 f03d 6e42 49be 776e a43c 0e08 453d
000001e0: ecb7 9cbd dad3 d5bd 4407 66be 4633 fbbd
000001f0: 47e4 70bc 01e3 36bd e11e 34be a3f9 69be
00000200: 2da2 d03d db63 c83d 8c8d 2b3e 9217 ebbd
00000210: c00c 39be 6b5e 0c3e 17e3 743a 5d4a 2e3e
00000220: dbc3 ed3d ba79 0f3e 9422 a63e 2861 04be
00000230: 471e 23be 648e 2a3e e54f 853e c38f 0abc
00000240: b20c e3bd d94d 013e 014a c2bd 7fcd aa3c
00000250: af86 b4bd e1dc 49be aad6 04be 8cd2 adbd
00000260: fdf2 86bd dd1c 143e 0844 3d3d 0f67 0fbd
00000270: 49e2 97bd 87db 183c b5e4 553e 43fa e53d
00000280: 3bd8 1c3e 5f21 d83d e970 1ebe 4d14 27bc
00000290: 22f8 63be 9420 4b3e df7f 4abd d708 b23d
000002a0: cb55 613d 7404 02be 0e72 e9bd bd94 243c
000002b0: 9bd7 4fbe 5a25 b2bd f698 83bd 5049 3d3e
000002c0: db3e 9ebc cbea 8bbd 52b6 0ebb 91d7 533e
000002d0: 9ca0 d83d dcb5 4fbe 3d73 eebd 325d 303e
000002e0: a23d 303e 3fd1 ba3d 43fe 543d cae4 1fbd
000002f0: e33f 29be 0177 5a3c 79af 5cbe 1d8d 56bd
00000300: c93e 07be 5054 25bd 4714 8c3d 0f99 8ebd
00000310: 4f7f 6c3d eb38 4cbe ab21 f03c 2fc9 343d
00000320: 2623 1b3e a923 57bb 255c f13d ffd9 653e
00000330: 7fd5 8fbd 7529 873c becf 2f3e 217e 48be
00000340: 1dd7 88bd 28c1 0c3e 6a42 983d 7adc e33d
00000350: 96e5 8cbd ef6c e1bd d097 fd3d f1bd 39bd
00000360: 2dd5 8bbd 8f1c 28be b147 ec3d ec05 70bd
00000370: 57d7 f6bd a75f 46be bbfc acbd 6d52 573d
00000380: c7e2 23be 4ce6 873d b668 3e3d 504b 9fbd
00000390: c922 cebd 8f71 f5bd ca7f c53d f1b1 773d
000003a0: dea6 f33c eafc 4c3c 81d1 073e 9632 613c
000003b0: 4cb4 f4bc 738e cdbd f8dd 7c3d a841 87bd
000003c0: 962b 1dbc 659f 5aba f50f bf3c 2f7b 2e3d
000003d0: 4325 5f3e dfe2 213c 9ad4 d73d 2512 1ebd
000003e0: 7841 31be d50d dbbd 126c 6c3e 5271 b7bd
000003f0: cf91 063e cafa 133e 0663 17bd 1b6b 153d

embedder.rnn.bias_ih_l1 f4 [72]
-0.1434133 -0.15338098 -0.15168338 -0.12455848 -0.09310666 0.21011272 -0.04217789 0.16418082
0.026557337 -0.10857662 0.22748505 0.09422691 -0.01991026 -0.16955833 0.14080323 -0.1508566
0.13834922 0.003013253 0.10579293 -0.16222754 0.24600284 -0.14971371 -0.009548029 0.24234669
-0.206577 -0.09488801 -0.17429604 0.041170236 -0.25799546 -0.29937047 -0.13865319 -0.12073605
-0.1324633 -0.08859821 -0.29879418 -0.19386002 -0.2452185 -0.2306133 -0.03382531 -0.1352473
-0.1826975 -0.037595186 -0.26745537 -0.20767695 -0.32206336 -0.18481737 -0.22682245 -0.23817179
-0.023375731 -0.19971436 0.007882904 0.023455199 0.2697753 -0.15305568 -0.19943462 0.0496506
-0.030675063 -0.16595331 -0.038682815 0.09776514 0.07443192 -0.03190503 0.05225715 -0.21775043
-0.045720562 -0.009236373 0.11139651 0.050202377 -0.23987289 0.018243654 -0.06251478 -0.2388369
00000000: f0da 12be e70f 1dbe e352 1bbe 8418 ffbd
00000010: b4ae bebd ca27 573e b9c2 2cbd 041f 283e
00000020: c68e d93c 6b5d debd d7f1 683e 0afa c03d
00000030: d71a a3bc b3a0 2dbe b92e 103e 277a 1abe
00000040: 6bab 0d3e ff79 453b f7a9 d83d fa1e 26be
00000050: 2be8 7b3e 8d4e 19be 566f 1cbc bb29 783e
00000060: ec88 53be a554 c2bd a97a 32be 1fa2 283d
00000070: fb17 84be 1647 99be 1afb 0dbe 7644 f7bd
00000080: 76a4 07be fa72 b5bd 8dfb 98be 3e83 46be
00000090: 8f1a 7bbe e525 6cbe 698c 0abd 457e 0abe
000000a0: 0e15 3bbe 69fd 19bd e9ef 88be 44a9 54be
000000b0: 7de5 a4be c440 3dbe 2544 68be 4ee3 73be
000000c0: 767e bfbc ec81 4cbe 4c27 013c 1e25 c03c
000000d0: fd1f 8a3e a1ba 1cbe 9738 4cbe 6d5e 4b3d
000000e0: 454a fbbc aaef 29be df71 1ebd 1739 c83d
000000f0: c36f 983d d9ae 02bd 980b 563d f8f9 5ebe
00000100: 7c45 3bbd 2854 17bc da23 e43d 02a1 4d3d
00000110: 3da1 75be b773 953c c007 80bd a991 74be

embedder.rnn.bias_hh_l1 f4 [72]
0.11373412 -0.01016874 0.029281216 0.17907427 -0.07674307 -0.030272096 0.03104741 -0.06448251
0.17172717 0.13593668 0.10332739 0.039615877 -0.16472632 0.13140121 0.14118429 -0.15673223
-0.1991339 0.105914526 0.13300261 -0.13040498 0.073213466 -0.04323778 0.09316317 0.10364494
-0.12821968 -0.056719966 0.018812168 -0.3160434 -0.22772595 0.050043624 -0.25812224 -0.19826294
-0.13788395 -0.06709871 0.03408573 -0.19033523 0.013124376 -0.22425319 -0.18384711 -0.27935815
-0.28208384 -0.049803045 0.106685564 -0.07540569 -0.3438002 -0.114664145 -0.3477596 -0.09382653
0.10653284 -0.08515998 -0.25893638 0.0675755 -0.008762375 -0.12315771 0.0019057454 -0.0970084
0.20333844 -0.11060584 0.12810153 0.223898 -0.026239049 -0.1165875 -0.18290764 -0.12647536
-0.23238742 0.15659769 0.1481623 0.22810458 0.11015086 -0.10986864 -0.107253514 -0.2141038
00000000: 6fed e83d c99a 26bc 29df ef3c 3f5f 373e
00000010: 782b 9dbd 30fd f7bc 2357 fe3c 680f 84bd
00000020: 3fd9 2f3e fc32 0b3e 509d d33d 4244 223d
00000030: 04ae 28be 0a8e 063e 9d92 103e 6a7e 20be
00000040: c2e9 4bbe b7e9 d83d d631 083e e288 05be
00000050: f1f0 953d 191a 31bd 55cc be3d cc43 d43d
00000060: 054c 03be 3253 68bd fa1b 9a3c 71d0 a1be
00000070: fe30 69be 8bfa 4c3d 9928 84be 7105 4bbe
00000080: 7331 0dbe 0c6b 89bd 7a9d 0b3d 3de7 42be
00000090: 9f07 573c a1a2 65be 6b42 3cbe 0808 8fbe
000000a0: 4b6d 90be 47fe 4bbd f67d da3d 4c6e 9abd
000000b0: 9406 b0be 09d5 eabd 8c0d b2be 2028 c0bd
000000c0: e42d da3d 5b68 aebd 4f93 84be 0665 8a3d
000000d0: 1190 0fbc 1c3a fcbd 34ca f93a 57ac c6bd
000000e0: f437 503e 5185 e2bd 0c2d 033e 8445 653e
000000f0: 46f3 d6bc 6dc5 eebd 244c 3bbe c282 01be
00000100: f8f6 6dbe 255b 203e dcb7 173e 3f94 693e
00000110: c696 e13d cf02 e1bd bba7 dbbd 073e 5bbe

embedder.rnn.weight_ih_l2 f4 [72, 24]
-0.014768137 0.12670432 0.17547005 0.14895765 0.055283938 0.12683518 -0.021919344 -0.07701378
-0.07004284 -0.039588664 -0.16760674 0.009542171 0.07025559 -0.08348772 0.06175483 -0.035109136
0.13930185 -0.13852991 0.056060128 -0.14137171 0.015379607 -0.024737516 -0.13894533 -0.027745238
0.108760886 -0.09971639 0.20406388 -0.16511206 -0.18264143 0.04619784 0.060281623 -0.1752996
-0.028734112 -0.020745842 -0.053287905 -0.013050498 -0.085079916 -0.21553276 -0.14222099 0.113669015
-0.014213281 0.006742669 -0.1200719 -0.15979588 0.078061745 0.21318328 0.15462804 -0.050370764
0.08150968 0.26382306 0.16353244 0.026623776 -0.047545962 -0.25837177 0.2712463 0.075816214
0.022226578 -0.11710135 0.04759542 0.068744995 0.25496113 -0.24595062 0.09998428 0.41642714
-0.1069946 0.03402455 0.019238707 0.13777077 0.27615765 -0.05257145 -0.14316402 -0.06833399
0.05807926 0.14155379 0.10426924 0.025154235 0.15139668 -0.11902756 0.13600855 0.04120718
0.07165243 -0.05467502 -0.18046667 -0.15489654 -0.03771974 -0.08945492 0.16613463 0.19552298
-0.080737874 -0.13811898 -0.11560933 -0.082621366 -0.16983475 0.09447056 0.005644849 -0.18168892
-0.11512499 0.0058658496 -0.22178093 0.065316044 -0.038319845 -0.23053959 -0.15019122 -0.044182643
0.14902098 -0.10577339 0.08016716 0.033927232 0.055340383 0.076867305 -0.046991613 0.13152538
-0.11167015 -0.20708762 -0.044632338 0.16300023 0.012340133 0.14589044 0.002362943 0.097416244
-0.07770268 -0.26183277 0.0903757 -0.103054665 0.048272453 0.025762277 0.00091347465 -0.13603958
-0.020722033 -0.07691897 0.0691895 0.17521973 0.13662824 0.20736861 -0.14342858 0.006214839
0.022927457 -0.23634034 -0.09865644 -0.1549428 -0.14798374 0.14547792 -0.05661963 0.15326841
0.10031933 0.13853024 0.026375825 -0.07868567 -0.24152084 -0.060304046 0.07174465 0.06418357
-0.039544724 0.069136985 0.17345819 0.062703274 -0.14242612 -0.20016183 0.12958 0.20293067
0.23794015 0.077881254 0.10568636 -0.13148572 -0.13459872 -0.1870519 -0.16805872 0.21925873
-0.25808182 -0.2487514 -0.31917095 -0.2985061 0.29766142 0.15631324 0.06958307 -0.16402492
0.13885453 0.046256337 -0.09839056 0.15251654 -0.15426406 0.034544617 -0.041594688 -0.19841254
-0.1687168 -0.105943985 0.25003454 0.23312345 -0.22101982 0.2110491 0.25322348 0.0020028134
0.015671762 0.058412857 0.13488348 0.22931765 -0.00019321706 0.016203754 0.10030726 0.07308225
0.09859272 -0.13688044 -0.0037813454 0.01868083 -0.17276809 0.021900227 -0.054770943 0.10648823
-0.09644359 0.21073928 -0.14894025 0.17775135 0.13216673 -0.010794124 -0.09836924 0.058715835
0.05041564 -0.114546135 0.16334653 0.041080557 0.14069465 0.023751957 0.033085894 0.16213444
0.015927015 -0.14234851 -0.21114421 -0.14960133 -0.1307049 -0.050281443 -0.06450199 0.09326441
-0.07552601 0.10499662 0.1010379 -0.04595555 -0.1014561 -0.12521386 -0.090031505 0.025872104
0.14359172 0.06277314 -0.1597832 0.0031948413 -0.187383 -0.15211284 -0.20007117 0.14243786
0.05579984 -0.04753427 0.11810954 -0.082499705 -0.21073464 -0.11577969 0.17564002 0.16151233
00000000: 0ef6 71bc c7be 013e 6cae 333e 5b88 183e
00000010: 6971 623d 15e1 013e 3290 b3bc 67b9 9dbd
00000020: 9f72 8fbd b927 22bd 1aa1 2bbe c456 1c3c
00000030: 2ae2 8f3d 9cfb aabd a2f2 7c3d 99ce 0fbd
00000040: 25a5 0e3e c9da 0dbe 4e9f 653d bfc3 10be
00000050: bffa 7b3c 55a6 cabc af47 0ebe fb49 e3bc
00000060: 07be de3d 1b38 ccbd 1ff6 503e 2313 29be
00000070: 5b06 3bbe f239 3d3d dde9 763d bd81 33be
00000080: cd63 ebbc 2ff3 a9bc 6b44 5abd c2d1 55bc
00000090: 613e aebd 9fb4 5cbe 61a2 11be 4dcb e83d
000000a0: d2de 68bc 9bf1 dc3b 42e8 f5bd 88a1 23be
000000b0: d6de 9f3d b84c 5a3e d056 1e3e 9351 4ebd
000000c0: 8cee a63d d113 873e 0c75 273e 1b1a da3c
000000d0: 8ebf 42bd 4e49 84be cce0 8a3e 8845 9b3d
000000e0: 8314 b63c d5d2 efbd 6af3 423d 2dca 8c3d
000000f0: 448a 823e 7bda 7bbe 8fc4 cc3d f035 d53e
00000100: fc1f dbbd 545d 0b3d 7e9a 9d3c c813 0d3e
00000110: 8964 8d3e 2955 57bd 9799 12be b1f2 8bbd
00000120: 85e4 6d3d 7af3 103e 1c8b d53d 4110 ce3c
00000130: bb07 1b3e b9c4 f3bd d345 0b3e dcc8 283d
00000140: 82be 923d eaf2 5fbd 41cc 38be 339d 1ebe
00000150: 0480 1abd 2434 b7bd 321f 2a3e 2d37 483e
00000160: e659 a5bd 106f 0dbe 96c4 ecbd 6435 a9bd
00000170: 29e9 2dbe c879 c13d 6df8 b83b a90c 3abe
00000180: a7c6 ebbd 5036 c03b 8a1a 63be 6bc4 853d
00000190: 45f5 1cbd 9212 6cbe bacb 19be dcf8 34bd
000001a0: f598 183e b89f d8bd ae2e a43d 48f7 0a3d
000001b0: 99ac 623d 9b6c 9d3d 477a 40bd 97ae 063e
000001c0: 52b3 e4bd c70e 54be 66d0 36bd 88e9 263e
000001d0: 452e 4a3c 4e64 153e 9bdb 1a3b 2b82 c73d
000001e0: 9522 9fbd f20e 86be e516 b93d 530e d3bd
000001f0: 56b9 453d 690b d33c 3f76 6f3a f64d 0bbe
00000200: 41c1 a9bc b187 9dbd 39b3 8d3d cd6c 333e
00000210: 46e8 0b3e 7058 543e f1de 12be d9a5 cb3b
00000220: 5dd2 bb3c 3403 72be 630c cabd 53a9 1ebe
00000230: 0d89 17be 2af8 143e fce9 67bd 65f2 1c3e
00000240: 3974 cd3d dfda 0d3e 1d12 d83c f425 a1bd
00000250: 3d51 77be 6001 77bd dcee 923d ad72 833d
00000260: a6f9 21bd b197 8d3d 069f 313e 936a 803d
00000270: 27d8 11be 39f7 4cbe 9fb0 043e 0fcd 4f3e
00000280: 95a6 733e 3580 9f3d 1772 d83d 31a4 06be
00000290: 3fd4 09be 898a 3fbe 9617 2cbe 5c85 603e
000002a0: 4d23 84be b0b8 7ebe 606a a3be cbd5 98be
000002b0: 1467 983e 9410 203e 9281 8e3d 26f6 27be
000002c0: e22f 0e3e 4977 3d3d fd80 c9bd 4c2d 1c3e
000002d0: 66f7 1dbe a87e 0d3d 315f 2abd a82c 4bbe
000002e0: 19c4 2cbe 29f9 d8bd 8704 803e eab7 6e3e
000002f0: 0553 62be 411d 583e 82a6 813e a241 033b
00000300: 1162 803c 5242 6f3d e51e 0a3e 3fd2 6a3e
00000310: 4f9a 4ab9 bcbd 843c e56d cd3d 26ac 953d
00000320: fbea c93d 632a 0cbe 73d0 77bb 8a08 993c
00000330: 1eea 30be 1b68 b33c 7f57 60bd 8016 da3d
00000340: 3884 c5bd 0acc 573e cb83 18be 7304 363e
00000350: b756 073e d6d9 30bc d075 c9bd 0480 703d
00000360: a180 4e3d 2a97 eabd 5044 273e 1644 283d
00000370: 4212 103e 7793 c23c 1385 073d 9206 263e
00000380: 5f79 823c cfc3 11be 3036 58be 1731 19be
00000390: 81d7 05be eaf3 4dbd 9f19 84bd 6901 bf3d
000003a0: 61ad 9abd 7808 d73d f5ec ce3d e33b 3cbd
000003b0: 37c8 cfbd 1038 00be 7062 b8bd bcf1 d33c
000003c0: b509 133e 348f 803d 359e 23be 8b60 513b
000003d0: 54e1 3fbe 78c3 1bbe 75df 4cbe 3bdb 113e
000003e0: 5f8e 643d 4bb3 42bd 6ae3 f13d 9bf5 a8bd
000003f0: d2ca 57be e71d edbd fada 333e 7d63 253e

embedder.rnn.weight_hh_l2 f4 [72, 24]
0.089224875 -0.11709041 -0.07248961 -0.098964244 -0.18647388 -0.038536243 -0.09617058 0.0054107294
-0.14069195 0.14216153 0.17476365 0.021551527 0.10731522 0.010026433 0.009886758 0.1159435
-0.0069205365 0.104660936 0.060613174 0.092758365 0.06675097 0.16035572 -0.18184523 -0.19136071
0.17115459 0.091644354 0.12362183 0.033580862 -0.1599837 0.16490276 -0.14516166 -0.06990337
-0.054846913 -0.033423834 -0.18524598 0.05759191 0.17087507 -0.13614434 -0.00933444 0.17576773
0.102173544 0.0006326824 0.10474884 0.15636458 -0.1892813 -0.049810454 0.08661147 -0.15587069
-0.0071928464 0.067481406 0.105457686 -0.061761305 0.010816961 0.15683556 0.06386712 -0.18088248
0.14719138 -0.13159744 0.051838662 0.13790375 -0.3439213 -0.02529099 0.36862487 -0.16971998
0.0971932 0.08420309 -0.18024182 -0.21018036 0.002232024 0.18086168 -0.0021432927 0.03452045
-0.03316836 0.052738644 -0.024675474 0.11511489 -0.017265562 -0.13736138 -0.14381252 -0.050767787
0.048651632 0.15740888 -0.029610397 -0.04105634 -0.120461956 -0.17745836 -0.18283829 0.14751443
0.039691795 -0.014366625 0.14770798 0.17568956 0.13444431 -0.12651409 0.07589271 -0.073175654
-0.025513632 -0.15261741 0.08211368 0.12175088 -0.16342033 -0.04374928 -0.13442118 0.17722116
-0.042016536 -0.108213626 -0.1480872 -0.0056619514 0.19890326 0.059176486 -0.2039243 0.08655837
0.048009276 0.097951114 -0.14173828 0.0405021 0.065803155 -0.17141859 -0.12599282 0.10421681
-0.20243385 -0.022058837 0.110081755 0.03872256 0.13416027 -0.16156048 0.1055387 0.041118704
-0.17909707 0.024735605 0.1067308 -0.08410495 -0.106152125 0.20341344 -0.05777732 -0.1753881
-0.1053227 -0.15014595 0.0014760547 -0.042439226 0.14930993 0.05740954 0.12327326 -0.14269277
-0.09048637 0.10766147 0.19225214 -0.012181033 -0.06250468 -0.07234556 0.18173036 -0.05451961
-0.17796305 -0.13664614 -0.019603005 0.022645755 -0.18159825 -0.12906785 0.08850516 -0.097508684
0.1408643 0.08551621 -0.19623584 -0.031623613 -0.07237817 0.04342303 0.15347469 0.16710892
-0.23712587 0.008778889 -0.1809063 0.06810314 -0.06375622 -0.07402063 0.011554679 -0.05091486
-0.011774333 0.13159792 0.060279634 -0.1548821 -0.23455253 -0.13401508 -0.079169 0.12881386
-0.24762769 0.12390057 0.109114446 0.08532523 0.029438157 0.012992653 0.14134572 -0.08179001
0.19796738 0.14929296 0.1572206 0.089043126 0.03149681 -0.18512253 -0.19662568 -0.17553733
0.03154396 -0.03600983 -0.00062407815 -0.058522232 -0.2191785 -0.16251086 0.18154706 -0.16113769
0.2047789 -0.17895669 0.19146588 -0.12121777 0.13070476 0.09073178 -0.0221077 0.16813082
-0.19330873 0.061410677 0.04229845 -0.20456637 0.059781406 0.100470714 -0.03466725 -0.073402494
0.014156965 0.16666548 0.099466406 -0.16671635 -0.032144807 -0.1969506 -0.07209929 0.022724366
-0.13933441 0.03349934 -0.07650186 0.029436346 0.113523565 -0.12530307 0.1869966 -0.09812661
0.034811843 0.20381749 -0.13439614 0.1806494 0.053754464 -0.19060597 0.15668435 -0.059325047
0.17202589 -0.02091164 -0.08005129 -0.016648754 -0.08690429 0.2263035 0.15186287 0.031143563
00000000: 88bb b63d 19cd efbd 6f75 94bd c4ad cabd
00000010: 02f3 3ebe 2ed8 1dbd 15f5 c4bd 7d4c b13b
00000020: 8d11 10be cb92 113e 3ef5 323e d48c b03c
00000030: 15c8 db3d e845 243c 12fc 213c c973 ed3d
00000040: abc5 e2bb 7958 d63d 8545 783d 19f8 bd3d
00000050: bcb4 883d 4a34 243e a335 3abe 10f4 43be
00000060: 2643 2f3e 09b0 bb3d 712d fd3d 168c 093d
00000070: c4d2 23be 45dc 283e 42a5 14be 8029 8fbd
00000080: 28a7 60bd 6ee7 08bd 1fb1 3dbe 7fe5 6b3d
00000090: e0f9 2e3e 6c69 0bbe 7bef 18bc 75fc 333e
000000a0: 5d40 d13d 99da 253a 8f86 d63d 091e 203e
000000b0: f5d2 41be 0c06 4cbd 5b61 b13d 919c 1fbe
000000c0: f8b1 ebbb b133 8a3d 33fa d73d 6cf9 7cbd
000000d0: 9f39 313c 8099 203e c4cc 823d 4239 39be
000000e0: 56b9 163e 7bc1 06be c754 543d a436 0d3e
000000f0: 7416 b0be 0d2f cfbc 66bc bc3e 13cb 2dbe
00000100: 3a0d c73d ab72 ac3d 5091 38be 8539 57be
00000110: 2647 123b ce33 393e 7c76 0cbb 5165 0d3d
00000120: 8cdb 07bd 7a04 583d 3824 cabc 5bc1 eb3d
00000130: 8270 8dbc 76a8 0cbe 9743 13be e2f1 4fbd
00000140: ef46 473d cb2f 213e 8191 f2bc b12a 28bd
00000150: c2b4 f6bd a5b7 35be f639 3bbe 060e 173e
00000160: dd93 223d fe61 6bbc c340 173e f7e7 333e
00000170: c5ab 093e e98c 01be a36d 9b3d 1edd 95bd
00000180: f701 d1bc bd47 1cbe 382b a83d 8658 f93d
00000190: a957 27be 7232 33bd b5a5 09be 7779 353e
000001a0: 8819 2cbd 1b9f ddbd 2ca4 17be e487 b9bb
000001b0: 4cad 4b3e 0b63 723d 88d1 50be 8445 b13d
000001c0: 60a5 443d 989a c83d d723 11be 88e5 253d
000001d0: cec3 863d 5b88 2fbe 4304 01be 9f6f d53d
000001e0: d24a 4fbe bcb4 b4bc 8b72 e13d 8c9b 1e3d
000001f0: 4f61 093e 1c70 25be ad24 d83d 166c 283d
00000200: 3965 37be 53a2 ca3c ad95 da3d 373f acbd
00000210: 4966 d9bd 9d4b 503e e9a7 6cbd f098 33be
00000220: 6eb3 d7bd dcbf 19be 2d78 c13a c1d4 2dbd
00000230: b4e4 183e 4426 6b3d b176 fc3d 0e1e 12be
00000240: eb50 b9bd 9e7d dc3d bfdd 443e f592 47bc
00000250: 7402 80bd e929 94bd 8617 3a3e f44f 5fbd
00000260: f23b 36be f7ec 0bbe 7b96 a0bc 9783 b93c
00000270: e4f4 39be 5d2a 04be 3142 b53d a2b2 c7bd
00000280: bb3e 103e 1f23 af3d 0cf2 48be c387 01bd
00000290: 023b 94bd 59dc 313d 7828 1d3e 9a1e 2b3e
000002a0: 20d1 72be 54d5 0f3c 803f 39be a979 8b3d
000002b0: 9f92 82bd 2198 97bd d64f 3d3c 1a8c 50bd
000002c0: 22e9 40bc 9bc1 063e c7e7 763d 6a99 1ebe
000002d0: 8a2e 70be 403b 09be 5b23 a2bd c8e7 033e
000002e0: 1d92 7dbe 95bf fd3d 6577 df3d ffbe ae3d
000002f0: 4a28 f13c 23df 543c efbc 103e 8581 a7bd
00000300: f6b7 4a3e 41e0 183e 70fe 203e 3e5c b63d
00000310: cd02 013d c390 3dbe 3e58 49be 0fc0 33be
00000320: 3d34 013d 0b7f 13bd 2d99 23ba 02b5 6fbd
00000330: 5470 60be 3f69 26be 79e7 393e 4701 25be
00000340: 8fb1 513e 6c40 37be a20f 443e 0641 f8bd
00000350: 78d7 053e 95d1 b93d 351b b5bc 7c2a 2c3e
00000360: b9f2 45be c389 7b3d 2441 2d3d d979 51be
00000370: 59dd 743d 97c3 cd3d 3fff 0dbd 0c54 96bd
00000380: 9df2 673c 5baa 2a3e 0bb5 cb3d b1b7 2abe
00000390: 46aa 03bd 6bad 49be cba8 93bd 7328 ba3c
000003a0: aead 0ebe 9b36 093d 02ad 9cbd 7e24 f13c
000003b0: 0b7f e83d 734f 00be 097c 3f3e 9bf6 c8bd
000003c0: dd96 0e3d 88b5 503e 249f 09be 28fc 383e
000003d0: a42d 5c3d 362e 43be dd71 203e d2fe 72bd
000003e0: 8e27 303e e34e abbc eef1 a3bd f862 88bc
000003f0: e0fa b1bd 1bbc 673e f181 1b3e c920 ff3c

embedder.rnn.bias_ih_l2 f4 [72]
-0.16795368 -0.006332732 0.021727882 0.07445669 -0.032111846 0.071265854 -0.0018313861 0.107340746
-0.15421195 -0.16070919 -0.16468701 0.062178068 -0.075311705 -0.13303962 0.34468186 -0.08825404
-0.12928057 -0.21246828 0.1283721 0.15349203 -0.094967164 -0.10106083 0.026944015 0.15895486
-0.05331414 -0.27096376 -0.13058499 -0.12194802 0.0028903598 -0.33276522 -0.01463479 -0.17171907
-0.03615803 -0.37804443 -0.028782984 0.008616094 -0.19419634 0.17007527 -0.28280613 -0.07967826
-0.34742543 -0.2252983 -0.172163 -0.22526933 -0.17946008 -0.14567436 0.0052449703 -0.20994115
0.07732598 0.047457337 -0.12495389 0.06705814 -0.075454086 0.11336562 0.22569375 0.13970968
-0.20908432 -0.08644612 0.13856886 -0.13122572 0.23536524 0.13305017 -0.100330085 0.0611285
-0.16941963 -0.18193468 -0.1218822 -0.21918403 0.031706467 -0.19740723 0.16479959 0.05959028
00000000: 0dfc 2bbe ce82 cfbb acfe b13c c07c 983d
00000010: b687 03bd d5f3 913d 1f0b f0ba 77d5 db3d
00000020: bde9 1dbe f390 24be b6a3 28be 6eae 7e3d
00000030: 063d 9abd 8a3b 08be 247a b03e 89be b4bd
00000040: 2062 04be 4991 59be fa73 033e 042d 1d3e
00000050: 257e c2bd fbf8 cebd b2b9 dc3c 10c5 223e
00000060: ed5f 5abd c3bb 8abe 12b8 05be e2bf f9bd
00000070: 316c 3d3b 3460 aabe c2c6 6fbc 20d7 2fbe
00000080: 711a 14bd 0a8f c1be 4bca ebbc 842a 0d3c
00000090: 68db 46be 3628 2e3e f7cb 90be 5b2e a3bd
000000a0: bfe1 b1be 99b4 66be 7f4b 30be 01ad 66be
000000b0: 62c4 37be a92b 15be 00de ab3b d0fa 56be
000000c0: 155d 9e3d a062 423d d3e7 ffbd c755 893d
000000d0: ac87 9abd 3c2c e83d 431c 673e 0e10 0f3e
000000e0: 331a 56be aa0a b1bd ffe4 0d3e 0960 06be
000000f0: 9603 713e 4e3e 083e dc79 cdbd e161 7a3d
00000100: 577c 2dbe 164d 3abe 609d f9bd c771 60be
00000110: a4de 013d 1f25 4abe 39c1 283e f014 743d

embedder.rnn.bias_hh_l2 f4 [72]
-0.0195052 0.12332586 0.050481457 0.039719615 0.21551894 0.083931565 -0.099310115 0.291883
-0.21383858 -0.14524987 0.04736645 0.17187099 0.09307119 -0.1519429 0.16967668 -0.13136578
0.14307866 0.13989894 -0.0719293 0.022825854 -0.031192165 -0.19187935 0.06463928 0.03167617
-0.3467599 -0.11617423 -0.06639906 -0.20459844 -0.2991423 -0.066356026 -0.17677976 -0.20847474
-0.3864915 -0.05402652 -0.17318809 -0.25052363 -0.25006458 0.13962728 -0.10705984 -0.27682558
-0.01572817 -0.25475636 -0.133161 -0.18485758 -0.21710216 -0.31218272 -0.32807815 -0.014909785
-0.10255609 0.08148322 -0.03798819 0.09931784 -0.23784347 0.13720492 -0.109861016 0.13996045
0.06960415 0.12009988 -0.04150407 -0.18043354 0.2311261 -0.1839206 -0.3029387 0.016791346
0.03908419 0.017696297 0.010008674 0.079502806 0.09236845 -0.07350764 -0.030755486 0.06827635
00000000: 5fc9 9fbc 4592 fc3d a5c5 4e3d 09b1 223d
00000010: ffb0 5c3e 50e4 ab3d 1a63 cbbd b071 953e
00000020: 80f8 5abe 62bc 14be 5303 423d f3fe 2f3e
00000030: 1c9c be3d eb96 1bbe b9bf 2d3e c084 06be
00000040: 3683 123e ab41 0f3e ab4f 93bd 49fd ba3c
00000050: b686 ffbc 057c 44be 9961 843d dfbe 013d
00000060: 838a b1be c1ec edbd 3bfc 87bd 4182 51be
00000070: 2e29 99be abe5 87bd c105 35be 677a 55be
00000080: 37e2 c5be ea4a 5dbd 3858 31be a244 80be
00000090: 7708 80be 74fa 0e3e 3042 dbbd 15bc 8dbe
000000a0: 5dd8 80bc 6d6f 82be 5b5b 08be 4e4b 3dbe
000000b0: 0750 5ebe 6ad6 9fbe dcf9 a7be 2c48 74bc
000000c0: ed08 d2bd ade0 a63d 8199 1bbd 2767 cb3d
000000d0: 3d8d 73be 727f 0c3e d0fe e0bd cb51 0f3e
000000e0: 9f8c 8e3d edf6 f53d 2c00 2abd 92c3 38be
000000f0: 52ac 6c3e af55 3cbe c81a 9bbe 018e 893c
00000100: be16 203d d3f7 903c 6cfb 233c 5ed2 a23d
00000110: ab2b bd3d 2c8b 96bd eef2 fbbc 79d4 8b3d
