data/augmented/timegan_class_0.pt (torch, 239069 bytes, 65 tensors)

embedder.rnn.weight_ih_l0 f4 [72, 43]
00000000: 7b2b f53d 1fb9 c5bd d07d cbbd 76e1 3c3e
00000010: 521d 32be 6bd6 183e c17b 5dbd 4d66 94bd
00000020: 5fb6 893d c730 003d 80ab 2a3e 55c6 353d
00000030: 8642 d13d b561 123e fc5f 28be 7427 bebd
00000040: 6d6d ec3d 8473 c43d b5d7 e93d 043a 7e3d
00000050: 5c63 6fbc a455 f238 597a 143e 6a86 573d
00000060: f85d 153e 97f0 52bd 1607 d2bc 7a4e 5ab6
00000070: 1cb5 57bd e4ef 0ebe f796 fb3d 53b7 523c
00000080: cf8d 143e 7e0d 1b3e b555 2d3e 427d 39be
00000090: 099b a33d c833 283e c4f1 1abe 189c 233c
000000a0: 33e4 15be dce3 97bd abc4 9cbd 44ac ab3a
000000b0: 5c49 32be 2a69 03bd 67f8 94bc c14e 1abd
000000c0: ed87 3bbe b18c 8a3d 4690 72bd a3ae bf3d
000000d0: ff8c 26be 6a5a 17be 8c83 143e 1c32 063d
000000e0: 9b25 78bd 7c71 44be bb9c 113e a7cc a53c
000000f0: 9159 05bc 0281 36bd e0ee 993c c1f0 dabd
00000100: 3acf eabc 2b5c 113e 05bb 083e 45cd b33c
00000110: f439 233e c49a be3c 6a75 cf39 ce07 b0bd
00000120: b094 ff3d ad4d e7bd b26c 9a3b 0d22 d43d
00000130: 51c9 7b3d b130 18be eccd a63d 3e38 14bd
00000140: c8f4 79bd 11be 96bd 3053 27bd 8ae8 d9bc
00000150: 5f1a b33d 88cb 7abb 5010 263e 3ce5 0bbe
00000160: a398 543e 8811 303e 3b3f f4bd 238e a63d
00000170: 4370 5abc ec99 863d 307f 3abe 77af 733d
00000180: 7425 8dbd 3d9c e5bd 6665 f03d 47be efbd
00000190: 438e c3bc 79bf 04be b86e 0f3e 00af 1e3d
000001a0: e166 373e 38f1 78bc 98a3 c13d 0091 f3bd
000001b0: f85b 08be 1421 b13c fea5 4ebe 9383 303e
000001c0: b92f 843d 62e7 fd3d aed9 363c 902a e83d
000001d0: 2f7f 01bd 025b f2bd 3162 1cbe 768c e43d
000001e0: 7e58 da3d b658 0ebd fde1 fdbb a4f9 34be
000001f0: cf25 97bc 3e6a fbbd 0f4d 453e 0149 903c
00000200: 55e7 37be 32c6 a63d fde3 c4bd 1142 253e
00000210: 5d11 86bd 3d21 f83d f004 673d 81c6 013d
00000220: 4807 03bc 9c54 45be 2f16 e23d 3724 0fbe
00000230: 01aa e6bd db3f e8bd 8426 33bd 6f76 ab3d
00000240: e74d 04be 9d31 16be 8e57 a4bc 26a7 a53d
00000250: 879c 5dbe 79d0 133e efe7 7cbd d8e7 d83d
00000260: 83f1 d43c ee11 343d a105 afbd 8720 ffbc
00000270: db05 c43d dbfc 0a3d 2aa5 b23d 9457 df3c
00000280: f746 0a3e bf41 8a3d e5d0 e9bd 34c2 3b3d
00000290: eef7 f9bc aead 303e b6be a8bc 138a 2d3e
000002a0: f2ef 4dbb 3a32 1e3e 81f1 5cbc d69e 0ebe
000002b0: a0b1 ebbd 4f6d 4a3d a0a8 a4bd 8581 863d
000002c0: e073 55bd 0de6 e33d 2d86 1f3e af72 2fbe
000002d0: 82a5 723c bd09 b13d 103a 1bbe 2f13 103e
000002e0: bdb0 37be 7645 29be 689d 143e 2ab7 cb3d
000002f0: 8aa0 9dbd 8160 f0bd 6a0e 4a3d 6098 29be
00000300: 4f86 11be d76a a6bd b92e cabd a9b4 b63d
00000310: e07f 243e 59e1 44be 646f 63ba 708b 3fbe
00000320: 2e54 3e3e 3f09 3839 8177 c9bc 081f 5a3b
00000330: 039e 35be b920 c93d 5cbe 143e aebf 81bd
00000340: 385f ef3c a0b6 3b3e c81d c2bd d59b 86bd
00000350: 7f0d 28bd 46cf 263e ba65 5abe 70f4 dc3d
00000360: bbac 313d bb1c 42bd c247 3d3d c3a2 bb3d
00000370: 09c3 3f3e ac92 d2bc c4eb eebb a168 543e
00000380: 1f07 f4bd 73c7 49be 1d73 89bd 513e e5bd
00000390: 8fbb 0a3d 884b 21be c7ca edbd d518 5ebd
000003a0: 58c2 5f3e 2486 143e 9161 14be e31a 483e
000003b0: 977a c4bd 28f1 6d3e b6cd db3c 23d9 ef3d
000003c0: 01e9 7abd b66a 5d3e 0442 2ebe cca3 05be
000003d0: 5a3b c83c b758 4abe 2e2f 083e 5c03 133e
000003e0: 42d0 703d 71ad b73c ac27 49be 60b9 103e
000003f0: 4cc7 5bbe 429c 88bd c905 213e 7e15 9fbb
0.11971184 -0.0965445 -0.09936106 0.18445382 -0.17393997 0.14925544 -0.0540731 -0.07246075
0.06724238 0.031296518 0.16666985 0.044378597 0.102177665 0.14295085 -0.16442865 -0.09284869
0.11544309 0.09592345 0.11418096 0.062067047 -0.014611091 0.00011555411 0.14499797 0.05261842
0.14586627 -0.051498976 -0.025638144 -3.253021e-06 -0.052662954 -0.13958699 0.12284654 0.012861091
0.1450722 0.15141866 0.16927226 -0.18114188 0.07988555 0.16426003 -0.15131289 0.009985946
-0.14637832 -0.074165076 -0.07654699 0.0013097604 -0.17410797 -0.032082714 -0.018184854 -0.03767276
-0.1831357 0.06765116 -0.05921962 0.09359481 -0.16264723 -0.14780584 0.14503306 0.03276263
-0.06058274 -0.19183916 0.14219944 0.020239187 -0.00813903 -0.044556625 0.018790662 -0.106904514
-0.028663266 0.14195316 0.13352592 0.021948466 0.15940076 0.023267157 0.00039569597 -0.085952386
0.12479532 -0.11294112 0.0047126645 0.10358057 0.061471287 -0.14862324 0.08144745 -0.03618645
-0.061024457 -0.07360471 -0.04085082 -0.026600141 0.08745264 -0.0038268287 0.1621716 -0.13661665
0.20761351 0.17194188 -0.11926123 0.08132579 -0.013332429 0.06572327 -0.1821258 0.05949351
-0.06891909 -0.11211441 0.1173809 -0.117062144 -0.023871547 -0.12963666 0.1400708 0.03874111
0.17910339 -0.01519423 0.09455031 -0.11892891 -0.13316333 0.021622218 -0.20180508 0.17237692
0.06454415 0.123976484 0.011160297 0.11336243 -0.031615432 -0.118337646 -0.15271832 0.11159603
0.1066141 -0.03475257 -0.007747887 -0.17673355 -0.018450646 -0.122761235 0.19267677 0.017612936
-0.1795934 0.081432715 -0.09613798 0.16138484 -0.065462805 0.12115715 0.056401193 0.03168345
-0.007997341 -0.19270557 0.110393874 -0.13978659 -0.112628944 -0.113403045 -0.043737903 0.08372199
-0.12920342 -0.14667363 -0.02006128 0.08088522 -0.21641742 0.14434995 -0.061744627 0.10591096
0.025994068 0.04396241 -0.085459955 -0.03114344 0.09571429 0.033932548 0.08722909 0.02726344
0.13503633 0.06750821 -0.114167966 0.045839503 -0.03051373 0.17253754 -0.02059875 0.16947202
-0.0031423536 0.15448847 -0.013485313 -0.13927779 -0.11508489 0.04942065 -0.08039975 0.06567673
-0.05211246 0.11127863 0.15578528 -0.17133592 0.014809968 0.086444356 -0.15158868 0.14069818
-0.17938514 -0.16530403 0.1451317 0.09947045 -0.07696636 -0.11737157 0.049330153 -0.16562033
-0.14211391 -0.08125847 -0.09872193 0.08921177 0.16064405 -0.19226588 -0.0008675961 -0.18705535
0.185868 0.00017551052 -0.024593117 0.0033282656 -0.17736058 0.098206945 0.14525741 -0.06335388
0.029220209 0.18331385 -0.094783366 -0.06572691 -0.041028496 0.16290006 -0.21327868 0.1078881
0.04337762 -0.04739068 0.04621101 0.09161904 0.18726744 -0.025704704 -0.007291289 0.20743038
-0.11915421 -0.1970499 -0.06711409 -0.111935265 0.033870276 -0.15751469 -0.11610942 -0.0542229
0.2185148 0.14504296 -0.14490344 0.19541506 -0.09593695 0.23236525 0.026831489 0.117113374
-0.061257366 0.21622738 -0.1701737 -0.13050765 0.024442364 -0.19760405 0.13299248 0.1435675
0.05879236 0.02242157 -0.1964404 0.14133215 -0.21462744 -0.06670429 0.15724863 -0.004854857

embedder.rnn.weight_hh_l0 f4 [72, 24]
00000000: 186c 2dbe 58f3 d43d 04a3 c8bc 3b65 8cbd
00000010: 323f 033d 048d debc 5f1e 693e 64b2 073e
00000020: 8116 9dbc 74ae 3f3e 5302 be3d 2ed9 353e
00000030: 5c19 e23d 5c6f 783d c672 f63c 4c04 e8bd
00000040: 090b a83d 2c43 38be f9a6 38be cb29 53bd
00000050: 6dc8 83bd 1741 28be 570c 28bd aade 9fbc
00000060: fbb5 cc3b 0c1b 89bd 3402 83bd e96d cabd
00000070: acf4 eabd d6f2 593c 9d6a 2abe e2b8 143e
00000080: 3d5b 4fbe 157d e53d 761a 8e3c b172 36bd
00000090: cfc5 003e b38e 393e 4097 8d3d c8b1 bcbd
000000a0: 1f4d 903c 5d7c 3a3e 8981 e63d 75d4 243e
000000b0: deb4 99bd 4623 2abe e70a 943d 55c8 283e
000000c0: efe0 28be f287 013e 0e9e 643d d7ea 943c
000000d0: 9e71 4e3d bbb9 f63d 32be f73d 8081 7ebe
000000e0: 5fc2 d2bd 9bda 563e d405 013e 027e 293e
000000f0: 449e 0fbe 9305 5d3d 2f03 193e 7201 26be
00000100: 9fa6 b63d 304f 9ebd 7b1e 1bbd cfb1 3f3e
00000110: 866d b03d 4656 4fbe 43de fe3d e325 4abe
00000120: 71f5 b1bb 4e38 71bd 2312 9e3d 358f 113e
00000130: af24 6bbd 0b17 0dbe 6c5c ed3d 07db acbc
00000140: 5800 fa3d a95d c33c bb1f d8bd b28d 83bd
00000150: a579 073e ed32 e83d 3ed9 10be fecb c4bd
00000160: 9b0c c93d 93fb e5bd 0105 a3bc 1a08 8b3c
00000170: 6327 d6bd d3fc d2bd a6e7 c13c 6e09 a8bd
00000180: ceac 71bc a5cf 67be 0ef7 2abe 5900 3b3d
00000190: aeed f2bd 0d64 e73d cb96 43be 9547 60bd
000001a0: 06ef 1ebd 4361 973d 3aaa 183e 3382 35be
000001b0: 05ef 8d3c 7770 d3bd 8400 adbd b89e 55bd
000001c0: cb14 08be bb96 c93d 1afa 0dbd bfc3 b23d
000001d0: 660a 34be f849 23bd 0d8a 0cbe 97c8 cebd
000001e0: 3fe0 573e f7bf 4c3e 69e3 c9bc 105f 31be
000001f0: 5827 373e fb80 e63d 3072 dc3d 77e1 4fbb
00000200: c848 2c3e 2768 363e d543 90bd 2dc8 ba3d
00000210: 585a 7ebe c3f6 393e a608 e2bd 6946 27be
00000220: 2e3c 11be 82f7 4fbe d673 5a3b dc55 17bd
00000230: 3d7b d1bd c52e d8bd 2f10 f8bd 4fa7 cf3d
00000240: 2a03 723d 5eac 39be d454 ba3d 15ab 89bd
00000250: f6d2 07be 3ae2 7a3c e404 dabd 92c7 263d
00000260: ca8e 43be 19f6 463e 43a2 cabd 1c10 c03d
00000270: 742b 0d3d be94 9abd bd31 17bd acab 41bd
00000280: efb0 143e 7a88 f8bc ff88 123e fa73 003e
00000290: 2381 aa3d 2f4e 0bbe f174 39be 2038 883d
000002a0: c383 343e 75a8 94bd a5e1 93bd 38a8 97bc
000002b0: 8577 31bd d70e 35be 630b bf3d 1cba 593e
000002c0: cd25 aebd e9fb 513e f252 87bd d264 ef3d
000002d0: 9afb 36be a0fb 84be 46b7 843d 359b 193e
000002e0: 2a31 febc 060e 643d 7eb0 023d 1746 103d
000002f0: 02de 43bc 6c90 38bd 791f 40be 820d 4c3b
00000300: 5d68 46be 9377 a2bd 199e 323d 0352 2cbe
00000310: 8c33 923c fd4e 88bd 6166 7abe f4ee 2dbe
00000320: f10a 0ebd 4e1a 303e 0372 55bd 17a5 5a3d
00000330: 7a2d 74be 4b9e 21be 9a97 613b 1c86 75bd
00000340: 8303 2fbe 01e1 263e a029 0a3e 10c5 2ebe
00000350: a361 1c3e e2f2 12be cc5d 1d3e e683 8fbd
00000360: d85a ce3d 139f e93d 78d6 523e 1b86 37be
00000370: 93f8 94bb 2c6d 48bc a5ae 88bd 863e a73d
00000380: a927 e13d 8a07 7cbd 3728 94bd 987c 25be
00000390: 3506 5bbe 9eee 26bd dd9f d23b 01a6 d7bd
000003a0: f0d4 fe3d 3426 83bd c8ac d53c e413 eebd
000003b0: 45ce a6bd 81d9 4dbe 9653 d9bc 3573 253e
000003c0: 4cbc 903b fa21 03bd 8d3a 99bd b961 11be
000003d0: b8d4 24be 089b d1bd 7e02 153e 3873 efbc
000003e0: e470 1fbe 6270 15be 2155 afbd eba7 3f3e
000003f0: d2d0 a1bd 8705 183d bd23 293e 8eec 8e3d
-0.16935766 0.10397977 -0.024491794 -0.06855246 0.03204269 -0.02716685 0.22765492 0.13251644
-0.01917577 0.18718892 0.09277787 0.17758629 0.11039993 0.060653076 0.030084025 -0.113289446
0.0820523 -0.17994374 -0.18032445 -0.05155353 -0.064347126 -0.1643108 -0.041027393 -0.019515354
0.0062472797 -0.06694612 -0.063969046 -0.09884245 -0.11472449 0.0133025255 -0.16642232 0.14523652
-0.20249648 0.11205498 0.017346602 -0.044542972 0.12575458 0.18120842 0.06913614 -0.092135966
0.0176149 0.18211503 0.112551756 0.16096671 -0.07505201 -0.16615018 0.07228642 0.1648267
-0.16492055 0.12649515 0.055814795 0.018178387 0.050401323 0.12047144 0.12096824 -0.24854088
-0.102909796 0.20981829 0.1259988 0.16551974 -0.14025217 0.053960394 0.1494262 -0.16211489
0.08918499 -0.077299476 -0.037870865 0.18720172 0.0861464 -0.20247754 0.12444737 -0.19741015
-0.00543087 -0.058891587 0.07718303 0.14214785 -0.05740803 -0.13778321 0.11589894 -0.021100534
0.12207097 0.023848372 -0.10552927 -0.064235106 0.13229997 0.11337838 -0.14145371 -0.09609221
0.098168574 -0.112296246 -0.019899847 0.016971637 -0.10456731 -0.10302129 0.023670029 -0.082049236
-0.0147506725 -0.22637804 -0.16695806 0.04565463 -0.1186174 0.1129838 -0.19100492 -0.054755766
-0.03880217 0.07391598 0.14908686 -0.17725448 0.017325887 -0.10324185 -0.08447364 -0.05215332
-0.13289182 0.09843203 -0.034662344 0.08728742 -0.17582092 -0.039865464 -0.13724537 -0.10096853
0.21081637 0.19995104 -0.02464457 -0.1732142 0.17886102 0.1125507 0.10763967 -0.003172008
0.16824639 0.17813168 -0.07044188 0.09120212 -0.24839151 0.18160538 -0.11036806 -0.16335453
-0.14183113 -0.2030926 0.0033333204 -0.036947116 -0.10228584 -0.105557956 -0.12112462 0.101393335
0.05908505 -0.18132159 0.09098211 -0.067220844 -0.13264069 0.015312726 -0.10645464 0.04071767
-0.19097438 0.19429816 -0.0989423 0.093780726 0.03446527 -0.075479016 -0.03691267 -0.04728286
0.1452062 -0.030338515 0.14310072 0.12544242 0.08325412 -0.13604043 -0.18111016 0.0665133
0.17628388 -0.07258693 -0.07220773 -0.01851283 -0.043326873 -0.17681442 0.09328344 0.21262401
-0.08503304 0.20506252 -0.066076174 0.11689152 -0.17869416 -0.25973225 0.06480269 0.15000613
-0.031029303 0.055677436 0.031906597 0.035223093 -0.011954786 -0.045059606 -0.18762006 0.003113598
-0.19375749 -0.07932963 0.043607805 -0.1682816 0.017846845 -0.06655691 -0.24453117 -0.16985685
-0.034678403 0.17197534 -0.052110683 0.0533801 -0.23845473 -0.1578304 0.0034422637 -0.05994235
-0.17091183 0.1629677 0.13492441 -0.17067361 0.1527162 -0.14350465 0.15367812 -0.070075795
0.10075921 0.11407294 0.20589626 -0.17922251 -0.004546234 -0.01223306 -0.06673936 0.08166222
0.10993893 -0.061530627 -0.07234233 -0.1616081 -0.21389087 -0.040754907 0.0064277486 -0.105297096
0.12442958 -0.06403771 0.026083365 -0.116248876 -0.081448115 -0.20102502 -0.026529115 0.16157229
0.004416978 -0.032014824 -0.07481871 -0.14197434 -0.16096771 -0.10234648 0.14551732 -0.029229745
-0.15570408 -0.14593652 -0.08561159 0.187164 -0.079011574 0.037114646 0.1651754 0.06978713

embedder.rnn.bias_ih_l0 f4 [72]
00000000: f2d2 4fbd d525 27bd 2d23 69bd 23c1 4bbc
00000010: 2d7a b3bd 809f acbc dffa 64bd d84e c6bc
00000020: eded 0e3e 3f6f d53c 9bbc 343e b33e 0ebe
00000030: 6266 64ba 1816 d73c f58f 16bd 4d40 38bd
00000040: 83f5 d13d ffda fdbc e151 af3c 19ec 19be
00000050: c80b f9bd b806 82bd 3dc0 383d 1866 d3bd
00000060: d45e 153e 50ac acbd 575f 103d 1618 85be
00000070: 07eb 68be 0070 bfbe 6dbd ef3d 44f1 09be
00000080: 83cb 443d d84a 42bd 6f82 97be 6299 103e
00000090: 7ebf 5dbe e972 07be 1bb1 15be f140 a539
000000a0: 8131 90be 1d90 44bc 013c 1d3e 1b4b c0be
000000b0: 229f 09be ddf3 4abd a385 cb3d f11e 143e
000000c0: 34dc 333e 7f78 2b3e 2e89 1abe 12c7 1ebe
000000d0: eaf3 98bb e0c2 80bd 3d45 723b b0c5 323d
000000e0: 7574 613e 07e9 683d c880 1f3e f110 29be
000000f0: d4d1 0d3e 7321 7dbd 16d6 35be 4990 8c3d
00000100: 439a 9bbd 35f5 c03c 580a d13d 87cf cf3d
00000110: a737 99bc a4ba bcbb e320 33be 2294 50be
-0.050738283 -0.040807564 -0.056918312 -0.012436184 -0.087635376 -0.02107215 -0.05590331 -0.024207518
0.13957949 0.026054023 0.17650072 -0.13891105 -0.0008712766 0.026255652 -0.036758382 -0.044983197
0.10251906 -0.030988215 0.021401348 -0.1503147 -0.1216045 -0.06348938 0.045105208 -0.10322207
0.14586955 -0.084313035 0.035247173 -0.2599494 -0.22745906 -0.37390137 0.11706052 -0.13470942
0.048045646 -0.047434658 -0.295917 0.14121011 -0.2165508 -0.13227428 -0.14618342 0.00031519638
-0.28162768 -0.01199725 0.15354921 -0.375573 -0.1343961 -0.049548972 0.099375986 0.14464928
0.1756447 0.16745184 -0.15091392 -0.15505627 -0.0046677487 -0.062871695 0.0036967539 0.04364556
0.22017081 0.056862857 0.1557647 -0.16510369 0.13849574 -0.061799478 -0.17757449 0.06863458
-0.075977825 0.023554424 0.10207051 0.101470046 -0.018703295 -0.005759554 -0.17493014 -0.20369008

embedder.rnn.bias_hh_l0 f4 [72]
00000000: 79e6 adbd 8d70 2dbe 6c27 5abe a5d3 e0bd
00000010: 5a1d 59bd 9de8 d53d 60ae 13be 98b7 313d
00000020: a1f6 4c3e 6adb a3bc 6313 2fbc 9490 2cbe
00000030: c772 873e d196 4dbd 3448 22be 6275 c23d
00000040: fde7 7f3d 9ce4 a93d 7ae7 10bd 4414 283e
00000050: 9687 85bd 7adb 1abd 7acb 88bd c359 89bc
00000060: 4763 993e 3045 5fbe c54f c53c 0f47 03be
00000070: d3ca b5be ce3e 20bd 0b39 8dbe 3141 23be
00000080: c8e0 753d 77b0 4bbd 7327 0bbe 3e7d 1f3d
00000090: 3e66 2dbe 22d1 be3d 0d09 433e 1c3e 08be
000000a0: d154 ecbd 6b10 43be 329d 0c3e 7cc8 c3be
000000b0: 20ef 87be beb1 67be 0323 093e 84b4 01be
000000c0: 0c20 22be 6479 a4bb e359 14be c793 cdbd
000000d0: df79 393e 29ec a0bc 2a4f c33d d04d 4e3e
000000e0: 5101 ff3d f60b 043e df60 0dbe 8c50 26be
000000f0: d405 cfba 122a abbd 8053 13be d6c0 4f3e
00000100: 66ac e93c 29b0 47be 6698 ebbd b3ed c33d
00000110: 22a9 18be b9e4 0d3e cda4 2a3d 2743 71bd
-0.08491225 -0.16937466 -0.21304101 -0.10977868 -0.053006507 0.10444758 -0.14421988 0.04338798
0.20015956 -0.020002086 -0.0106857745 -0.16852027 0.26454756 -0.050192658 -0.15847856 0.09495045
0.0624771 0.08295557 -0.035377003 0.1641398 -0.065200016 -0.037806965 -0.06679435 -0.016766435
0.29958555 -0.21803737 0.024085889 -0.12820075 -0.35506305 -0.039122395 -0.27582583 -0.15942837
0.06002882 -0.049728837 -0.13589267 0.0389378 -0.16933534 0.09317233 0.19046421 -0.13304943
-0.11539615 -0.19049232 0.1373184 -0.38238895 -0.26549625 -0.22626397 0.13392262 -0.12666517
-0.15832537 -0.0050193537 -0.14487414 -0.10037952 0.18112896 -0.01964386 0.09536584 0.2014687
0.12451423 0.12895188 -0.13806485 -0.16241664 -0.0015794584 -0.08357634 -0.14387321 0.20288405
0.028524589 -0.19500794 -0.11503677 0.09566822 -0.14908269 0.13856782 0.041661073 -0.058901932

embedder.rnn.weight_ih_l1 f4 [72, 24]
00000000: 955e 07be d212 61be 108e 55be e8ad c2bd
00000010: 6059 773e 1cc8 3dbe 0af1 e8bc 9870 57be
00000020: 00a6 ef3c 6781 66bd 5f74 f2bd bd9c 4e3d
00000030: e6f7 0cbd 4c32 d3bd 2d33 2e3e b44a 9a3c
00000040: 7813 cd3d 7ed6 6a3e 1a4e 813d 99af a33c
00000050: 8b52 6f3d c67a 31bd 6543 1f3d 146e 5e3e
00000060: 3a21 e83d baeb c73d abad 23bd c283 ee3d
00000070: af4d 12be f0a7 f43d 2aa4 e6bd cc54 45be
00000080: 6428 5c3e cd6e 65be e052 973d 77d8 1bbd
00000090: 59cf 2abd e0e5 113e 2f67 d1bd b8be 7e3e
000000a0: a26c 44be c1b1 8cbe 173e ac3d f489 11bd
000000b0: 7179 efbd b071 d73d 2e43 04be f40b 70bd
000000c0: 13f1 82bd 2ea1 d03d e2a1 36bd b184 09be
000000d0: 736c 29bc e98a 523e 776a 483d 225e 3fbd
000000e0: 70d5 6dbc e2a2 aa3d a927 5ebd 01c5 22bd
000000f0: 9019 82bd 6c06 58be 57c0 0ebd ff0b a4bd
00000100: 7a59 363e ce0b 60be 92db 7dbe c3c4 003d
00000110: 61f7 f5bd 80ca 0a3e 76dc c73d e84b 053e
00000120: 74b5 3b3e 3bfc e53d b615 9c3d 8406 d23d
00000130: dc0d 52be 5e15 97bd 1635 2abe 050f 6a3e
00000140: a1b2 f1ba e4d7 2bbe 45b4 d6bc c727 eabd
00000150: dd23 1abe 19f3 3f3e bc2a 153d 254a 33bd
00000160: 8f54 afbd 51cf a1be 2007 7dbe c3e1 333e
00000170: 46f6 a23d 9904 0cbd fdf1 f8bd 2640 0e3b
00000180: 34b8 bc3d 654e 273e 0d27 3abe 15e7 1abb
00000190: b057 97bd b600 02bd 3770 bf3d b292 d0bd
000001a0: 7a07 453e fcd0 1b3d e022 30be fbc8 583d
000001b0: 6a95 3a3e 8578 d23d a8e4 3d3d 40b9 833d
000001c0: cd3c 283e 23c1 93bc f5a6 073e 1820 713c
000001d0: d2c6 bdbc c2f0 09be 0228 43be 70a6 ac3d
000001e0: c0ee 213c 2455 093e d9e1 05be 3a69 c4bd
000001f0: c852 0bbe a996 24be 051a 53bd dd68 643e
00000200: 7d40 c23d 8df5 1f3e 647d a8bd 5593 1f3e
00000210: b0da 67bc 9102 d2bd e0dc 213d 5828 7c3e
00000220: 47a0 1dbd 98fb 493d 5bb7 52be 921a 8e3c
00000230: 440b 143e 4341 32be 6708 45bd fa28 af3d
00000240: d975 73bd d978 95bd 7658 e03d 62f2 4ebe
00000250: 3dfd 983c 812a 21be ca24 983d b97c 00be
00000260: 6e45 0bbe e745 89bd a3c8 c2bd d92a fcbd
00000270: 22e8 df3d 0080 e7bd 4aed 973d 2342 66bd
00000280: 03d5 263c 565a 8b3d 1420 c83d 4ca2 033e
00000290: 2e6b bebd 15e7 aabc 2ff3 863c 3dda bc3d
000002a0: 87ef b3bb 6ccd e6bd 4db0 713e f964 423d
000002b0: 8366 13bc fa80 323e 22b8 893d 0299 0f3e
000002c0: d7ac 473e 1968 0b3e 2f8f 6bbd 8dfb e4bd
000002d0: ad37 5abe 5d2e 9bbc 6940 893d 518e 17bd
000002e0: 1d47 2ebc 18ec 51bd 93b3 173d 8ed7 f7bd
000002f0: 1305 cfbd 68ca 15be 335d 873d a939 e2bd
00000300: 5fc3 713d db69 a1bc 6350 173d 00aa 27be
00000310: 8aa8 04be 7e16 e6bd 2cd2 92bd 489a cbbd
00000320: 7a34 f43c ded1 fb3d cac0 423e b751 24be
00000330: 350f fb3d ef4a f73b 267f 45be 0602 883c
00000340: e6d1 6b3b acf1 90be 11c3 70be c4ad 293d
00000350: 1a5b b1bd bb78 ea3d 1b73 59bd 7da5 13be
00000360: 58a8 3a3d f92b f63b 8030 003e b672 47be
00000370: 8b67 0cbe 0943 d13d de15 03be 237b c53d
00000380: f97b bd3d 9d8e 5c3a 593f c13d 89a3 eabd
00000390: c5af 273e 8338 1ebc d3c0 f13d ac1a 553e
000003a0: fd53 323b 87fd 0cbe 7976 22bd 953d 463e
000003b0: e6ff a83c 37f0 ae3d 18e9 183d 15d0 08be
000003c0: 5661 39be 2a82 0fbd 2958 72bd fc55 233d
000003d0: 8908 803d 6504 16be 4dd5 4a3e e37b e8bd
000003e0: f242 773e 6a34 833d 9bf5 4cbd ac01 063e
000003f0: 661f bc3d 7f23 ab3d 511a e73d 3926 373e
-0.13219674 -0.21979836 -0.20854974 -0.09505826 0.24155188 -0.18533367 -0.028435249 -0.21039045
0.02925396 -0.05627575 -0.11838602 0.050442446 -0.034416102 -0.10312328 0.1701171 0.01883445
0.10013479 0.22933385 0.06313725 0.019981192 0.05842833 -0.043329976 0.03888263 0.21721679
0.113344625 0.09761758 -0.039960545 0.116462246 -0.14287446 0.11946094 -0.112617806 -0.19270629
0.21499783 -0.22405548 0.07388854 -0.038048234 -0.04170165 0.14247847 -0.10224759 0.24877441
-0.19182065 -0.27479365 0.0841028 -0.035531953 -0.11693085 0.10519731 -0.12916252 -0.05860515
-0.063936375 0.101869926 -0.044587977 -0.13429524 -0.010340798 0.20560803 0.048929658 -0.04672063
-0.0145162195 0.08331849 -0.05423704 -0.03973866 -0.06352532 -0.210962 -0.0348514 -0.080101006
0.1780757 -0.21879503 -0.2479079 0.031437647 -0.120100744 0.1355381 0.097588465 0.13017237
0.18330938 0.1122975 0.076213285 0.10255149 -0.205131 -0.07377122 -0.16621813 0.22857292
-0.0018440076 -0.16781574 -0.026209006 -0.11433368 -0.15052743 0.18745078 0.036417708 -0.04377188
-0.0856105 -0.31603482 -0.24709749 0.1756659 0.07957129 -0.034184072 -0.121555306 0.0021705716
0.092148215 0.16338499 -0.18178959 -0.002363627 -0.07389772 -0.03173896 0.09347575 -0.1018423
0.19241133 0.0380411 -0.17200804 0.052926045 0.1822106 0.102768935 0.04636064 0.06431818
0.16429444 -0.01803643 0.13247283 0.014717124 -0.023166094 -0.13470748 -0.1905823 0.08430183
0.009883583 0.13411385 -0.13074435 -0.09590383 -0.13605797 -0.16073097 -0.051538486 0.22305627
0.094849564 0.15621014 -0.08227041 0.15583546 -0.01415126 -0.10254396 0.039517283 0.24624765
-0.03848293 0.049312204 -0.20577757 0.017346654 0.14457422 -0.17407708 -0.048103716 0.085527375
-0.05943856 -0.072984405 0.109543726 -0.20209649 0.01867544 -0.1573887 0.07428892 -0.12547578
-0.13600704 -0.06702786 -0.09510925 -0.1231286 0.10932948 -0.11303711 0.07418306 -0.056215417
0.010182622 0.068043396 0.097717434 0.1285488 -0.09297787 -0.020862142 0.01647338 0.09221313
-0.0054912004 -0.1126965 0.2360241 0.047459576 -0.008996609 0.17432013 0.06724574 0.14023212
0.19499527 0.13613929 -0.057509597 -0.11180792 -0.21310301 -0.018943006 0.067017384 -0.037000958
-0.010637072 -0.051250547 0.03703649 -0.12101661 -0.1010839 -0.14627993 0.06609573 -0.11046154
0.05902421 -0.019703796 0.036941897 -0.16373444 -0.12954918 -0.11234759 -0.07168993 -0.09941536
0.029810179 0.12295888 0.19018856 -0.16046797 0.1225876 0.0075467746 -0.19286785 0.016602527
0.0035983264 -0.2830938 -0.23511912 0.04142548 -0.08659954 0.11448809 -0.05308829 -0.14418598
0.0455707 0.007512566 0.12518501 -0.19477352 -0.13711374 0.10217864 -0.1280131 0.09642627
0.092521615 0.0008413585 0.09435911 -0.11456973 0.16375645 -0.009657028 0.118043564 0.20810956
0.0027210705 -0.13768588 -0.039663766 0.19359429 0.020629834 0.08541911 0.03733167 -0.13360627
-0.18103537 -0.035036243 -0.059166107 0.039876923 0.06251628 -0.14650114 0.1980793 -0.113517545
0.24146631 0.064064816 -0.050038915 0.13086575 0.09185676 0.0835638 0.11284316 0.17885675

embedder.rnn.weight_hh_l1 f4 [72, 24]
00000000: 301d 4cbe 3ce1 cebc 3318 81be f6cb 3bbd
00000010: bc93 5b3d 4fdc 093d 2d33 a5bd 6cfe 163e
00000020: aa24 97bd e1ca c43c ec16 61bc 5951 59bc
00000030: b50a a3bd 812b 033d fbcc 8dbc ae88 523d
00000040: cffc abbd 5b5c 153e 85c6 58be cce4 06be
00000050: 4841 983d 6a92 7a3d 0670 2ebe 140b 02be
00000060: bde8 e8bd 6be6 2e3e 1596 173e 2f56 e83c
00000070: 3f22 093e 0e0b 76bd 91d4 8a3e faeb 3e3e
00000080: 54be f4bd 0e04 cabb bc7d 4f3c 9a89 e7bd
00000090: d707 d13c 3dc0 32bd caad 243d ea06 a1bc
000000a0: 6da0 38bd 6f1e a0bb 2ddf 7f3e dc8a f73d
000000b0: f150 bbbd cd43 10bd efed 293d ad78 55bd
000000c0: 8f0c 3abb 2b42 0c3e fc07 3c3e 315c 033e
000000d0: fed1 d9bd 5f1a 8fbd f9d5 1c3e 2dd6 343e
000000e0: cad1 293e 2b55 f6bd a0d3 003c 83dd 653e
000000f0: 96c3 1cbe 8341 3dbe a3be acbc b354 413e
00000100: 90ba 623d a25e e2bc 1cf4 b6bd 9f51 f13d
00000110: c59b eb3d 8446 8dbd c6ca 16be b6e0 5ebd
00000120: e654 143e a19a 963d ecb0 6bbd 472e 1abd
00000130: 6e31 5cbe 2856 d7bd 6236 89bd b14a f23d
00000140: 3e37 5bbd 4182 b7bd f62e ddba 5ef5 bcbd
00000150: 71f8 95bd 74d6 823d f598 c43d e2e4 8e3d
00000160: 393f 0ebe f66b 423e 372c 3c3e edc4 c63c
00000170: 99aa 97bd 29e1 0fbe c1a8 523e 6173 313c
00000180: 063c 353d f206 0a3e 4c2c 8dbd 3b07 c63d
00000190: 5013 3dbe 41fc d13c 8ab6 e03d a336 f93b
000001a0: 1c37 b63d db3e 79bc ddfa edbd 3824 6fbe
000001b0: bf6c 543e dce7 ecbd bd69 143e b850 50bd
000001c0: 4388 253e fb9d 15bd febe 033e 9de5 d03d
000001d0: 9212 003e b140 463d a7ce 4f3e a3f1 a4bd
000001e0: 31ae 7b3d 843f 0a3e d136 31be 1b25 143e
000001f0: 2254 2b3d c857 6abe 9ec8 863d 548f cdbd
00000200: 9708 a8bd 11ca d53b 73d1 f93d d5d4 91bb
00000210: 16a4 183e c848 26be f15e 9abd eeeb 1e3e
00000220: 0b02 6dbe cf45 8e3d 1e8b f9bb 912d 5bbd
00000230: 7107 103e 8d1c 993d 26b7 363e 13f4 58bb
00000240: 5b3d a63d 2d8b 193e 2b04 863e 5e05 323e
00000250: 1458 f43c 9981 4abe f252 ea3d bae0 1f3e
00000260: 05fe 543e d3fa 22bd cfc7 8dbd 611d 51be
00000270: 7a2e c7bd e207 37bd 50ab e43d 81c0 8abc
00000280: 14a4 273e 0162 f83d 8548 4ebe d9f5 fbbd
00000290: 6ce7 5dbd 7683 f93d ac64 2a3e 7c68 8b3d
000002a0: e059 90bd 18a3 d3bc cce5 13bc 1711 403d
000002b0: 420e 1bbe 2066 12be ee00 583e 8484 e3bd
000002c0: b4cf 113b 991e 7bbe 9fab a4bd e384 233d
000002d0: d799 1e3e 49e4 0c3e 5ce6 823e 7279 6d3e
000002e0: 1eb8 2a3e 3d2e dabd 14dc 5c3e 46cb d83d
000002f0: 3c72 59be 3361 d83d 40ba c03d ad4e cf3d
00000300: d01a 5f3e cfba bf3c 0af0 ab3c 5442 323e
00000310: ddc0 37be 63c3 fbbd 2f50 043e 6936 09be
00000320: 6ebf d83d 050a fabc 0f39 4fbe 992e 1ebe
00000330: 7dce b93d 9cda c9bd dc4c 853d c65c ab3d
00000340: 32a5 bb3c 933f 673c b22f c23d a541 033e
00000350: b89a 84bd c102 c5bc 5bd4 1ebe c74d 003d
00000360: a9d6 2ebe 6dc5 923d 735f 513d 71b7 1dbe
00000370: 958c 14be 1e0c e4bc 5ab8 f93d ef1e 703e
00000380: b070 f33c 3e85 b23d 2918 463e b1c5 3cbe
00000390: a95b 16be 7ac8 b6bd fcb0 2f3e c8e7 5d3e
000003a0: 1cd8 a23d ad45 263e 8c31 0d3e 4b3f 25be
000003b0: 714b 0cbe a2d0 4dbe 0678 6ebc e976 bb3d
000003c0: 3c31 aabd 4848 dd3d b53e 613e 86df 2d3e
000003d0: 2e46 d8bd 051f 133d d7a6 23be ba3b c6bd
000003e0: 9493 2b3e e609 2d3e f671 03bd 21dc bcbd
000003f0: 0d2e 213e f6e7 a8bc 96ab 773e b945 353e
-0.19933009 -0.025253884 -0.25213775 -0.04584881 0.053607687 0.03365737 -0.08066402 0.14745492
-0.0738004 0.024022521 -0.013738375 -0.013264024 -0.079610266 0.03202391 -0.017309656 0.05139988
-0.08397829 0.14586012 -0.21169479 -0.13173217 0.074343264 0.061174788 -0.17034921 -0.12699538
-0.11372516 0.17080085 0.14803346 0.028361408 0.1339197 -0.060069136 0.271153 0.18644705
-0.11950365 -0.006165034 0.012664255 -0.11305542 0.025516434 -0.043640364 0.0402048 -0.019656617
-0.04507487 -0.0048864405 0.24987479 0.12087032 -0.09146298 -0.03522091 0.041486677 -0.05211704
-0.0028388833 0.13697116 0.18362421 0.12828137 -0.10635756 -0.06987452 0.15315999 0.17659827
0.16583934 -0.12027963 0.007862955 0.22447781 -0.15308985 -0.18482022 -0.021086996 0.18879966
0.0553537 -0.027633015 -0.08933279 0.11783146 0.1150432 -0.068982154 -0.1472579 -0.05441352
0.14485511 0.07353712 -0.057541773 -0.03764179 -0.21503231 -0.1051448 -0.06699826 0.118306525
-0.05351948 -0.08960391 -0.0016874957 -0.092264876 -0.07322777 0.0638856 0.09599487 0.0697725
-0.13891305 0.18986496 0.18376242 0.024263823 -0.07405586 -0.14050736 0.20572187 0.010830731
0.044246696 0.13479212 -0.068932146 0.09669348 -0.18464398 0.02563298 0.109723166 0.00760539
0.0889723 -0.01521274 -0.11620114 -0.2335366 0.20744608 -0.11567661 0.14493461 -0.05085823
0.16165261 -0.036527615 0.12865826 0.10200045 0.12507084 0.04840154 0.20293675 -0.08053901
0.06144542 0.13500792 -0.17306067 0.1446728 0.041828282 -0.22885048 0.065812334 -0.10037103
-0.082047634 0.0065243323 0.121981524 -0.0044504204 0.14906344 -0.16238701 -0.0753764 0.15519688
-0.2314531 0.06946909 -0.007615461 -0.053510252 0.14065339 0.07476149 0.17843303 -0.0033104464
0.081171714 0.14994498 0.26175055 0.1738486 0.029827155 -0.19776 0.11441602 0.1561307
0.20800026 -0.039789986 -0.06922876 -0.20421363 -0.097256616 -0.044685252 0.11165488 -0.016937496
0.16371185 0.12128068 -0.20144852 -0.12302751 -0.05417578 0.12183277 0.16639966 0.06807038
-0.07048392 -0.025834605 -0.009026956 0.0468913 -0.15142158 -0.1429677 0.21094105 -0.1110926
0.0022249045 -0.24523391 -0.080405466 0.039921653 0.15488373 0.13758959 0.25566375 0.23190859
0.16671798 -0.106533505 0.21568328 0.10585646 -0.21234983 0.10565414 0.09410524 0.10122428
0.21787572 0.023404507 0.020988483 0.17408115 -0.17944665 -0.122931264 0.12921213 -0.13399662
0.10583387 -0.030522356 -0.2023661 -0.15447463 0.09072588 -0.098561496 0.065088004 0.083673045
0.02290592 0.014114278 0.094817534 0.1281801 -0.06474823 -0.024049165 -0.15510695 0.031324174
-0.17074074 0.07166562 0.051116418 -0.15402009 -0.14506753 -0.02783781 0.121933654 0.234493
0.02971682 0.0871682 0.19345154 -0.18434788 -0.14683403 -0.089249566 0.17157358 0.21670449
0.07951376 0.16237517 0.13788432 -0.16137426 -0.13700654 -0.20099118 -0.014554983 0.0915354
-0.08310172 0.10804802 0.21996577 0.16979799 -0.10560261 0.035918254 -0.15981613 -0.09679361
0.16755515 0.16898307 -0.032091103 -0.09221674 0.15740223 -0.02061842 0.24186549 0.17702378

embedder.rnn.bias_ih_l1 f4 [72]
00000000: f646 42be 7ea0 113e ebd6 16be fd21 d9bd
00000010: 6929 b8bd e095 3c3d a7f4 1cbe d30a 33be
00000020: 3dd6 e7bd 0d7e 113e d21a ab3d cca1 f53d
00000030: 1a9f 643e aa78 403d 3792 ec3d 4421 203d
00000040: 72b2 bcbd 043f 4c3e 3384 033d 6fa4 233d
00000050: d771 043e 7a4d 63be 17fc a3bc 01a8 433e
00000060: 632b 2cbe a6fe 88be 3f0b aabe 5b78 e33d
00000070: 6f34 d7be aad5 9cbe 2ffb 30be fd59 8dbe
00000080: f8b9 12be 99fe c03d 0cfd 1b3c 1aec 94be
00000090: 3bf6 d2be c28d 1bbb b4f0 a9bd 578d edbd
000000a0: d621 dfbd 1a09 a8be 0726 93bd 3b25 babe
000000b0: df67 e03d 38a1 b1be 7eb4 b5be 30fa 7bbe
000000c0: ff11 6e3e 40c6 2cbe e91f c0bd 197e 3c3e
000000d0: 2c07 243e a623 273c 3fcc 123d b3f7 023e
000000e0: 0de3 d2bc e23e 40be 93d5 0e3d a55f 993d
000000f0: 1cb8 063e 8d17 2c3d 8689 313e 7bb7 9e3c
00000100: c856 30bd 7a5a fd3d 0800 d63d 96bc 5b3c
00000110: 10dc 54bd badc 1f3e 576e 2cbd f00f fc3d
-0.18972382 0.14221379 -0.14730422 -0.10602186 -0.08992273 0.04604137 -0.15327702 -0.17484598
-0.113201596 0.14208241 0.08354725 0.11993751 0.22326317 0.046990074 0.11551326 0.039094225
-0.09213723 0.19945914 0.032108497 0.039951738 0.12934051 -0.22197524 -0.020017667 0.19107057
-0.16813426 -0.2675678 -0.33211705 0.1110694 -0.4203219 -0.30631763 -0.17283319 -0.27607718
-0.14328754 0.09423561 0.00952078 -0.2908638 -0.41203484 -0.0023735617 -0.082978636 -0.11599224
-0.108951256 -0.32819444 -0.071849875 -0.3635653 0.10957312 -0.34693313 -0.35489267 -0.24607158
0.23249052 -0.16872501 -0.093810864 0.18407477 0.16018361 0.01020137 0.035839316 0.12789802
-0.025743032 -0.18773988 0.03487165 0.07488946 0.1315617 0.042014647 0.17337617 0.0193746
-0.04305151 0.12370773 0.10449225 0.013411662 -0.05196768 0.15611544 -0.042097416 0.12307727

embedder.rnn.bias_hh_l1 f4 [72]
00000000: 2af5 fe3d 562f bb3d 5a36 823e 83ae e83d
00000010: f2fd 63bc 75cd a9bd 9fd6 acbd 2a13 37bd
00000020: aece fc3d 7b7a 96bc 0567 123e 13f0 263e
00000030: 0c65 25be c468 1ebe e30e 593d d4a7 9cbd
00000040: 9786 d8bd 48c9 873b e314 18be ed35 543d
00000050: 1da5 fabb bdc9 3bbe 5c2e d03a 5481 cc3d
00000060: df91 85bd b01f 73be 1297 35be bd79 64be
00000070: 0e5e 7fbe 9c0b 8bbe 09ed 7bbe 48d0 abbe
00000080: 4757 68be c65e 14be f71a 273d 41d3 87be
00000090: 6abf 32bd 5a4c 6cbe ae7f 7cbe 74a8 c03d
000000a0: ab1f 34bd 26fb b7be 7ed1 7ebe ede3 89be
000000b0: 8bb0 2abe 790a 66be b900 89be 8cc9 81be
000000c0: 8bbf e03d 7674 e7bd 0a30 513d a3e3 573e
000000d0: 6c8e 3ebe e00b d2b9 e860 f7bd 7133 d1bd
000000e0: 3810 e23c 1965 30be ca3b 34be 6e9a cdbb
000000f0: 43f9 62bd 3684 74bd 7aee 1ebe 2606 7d3d
00000100: 1a56 163e adcc 5bbe da44 4d3e 7442 a73d
00000110: f1cf 96be d5c0 45be e8ed b4ba d08f 723d
0.12449105 0.09139888 0.25432092 0.113614105 -0.013915526 -0.08291141 -0.08439373 -0.04469601
0.123441085 -0.01836895 0.14297111 0.16302519 -0.16151828 -0.15469652 0.052992713 -0.07649198
-0.10572546 0.0041438676 -0.14851718 0.05180924 -0.0076490776 -0.18338676 0.0015882957 0.09985605
-0.06521963 -0.23742557 -0.1773341 -0.22312064 -0.24938223 -0.27157295 -0.2460214 -0.33557343
-0.22689544 -0.14489278 0.0407972 -0.2652836 -0.043639578 -0.23076001 -0.24658081 0.0940713
-0.043975513 -0.359338 -0.24884602 -0.26931706 -0.16668908 -0.22464933 -0.26758364 -0.2534908
0.10974034 -0.1130151 0.051071204 0.2108293 -0.18609017 -0.0004006317 -0.1207903 -0.1021489
0.027595624 -0.17226066 -0.17600933 -0.006274513 -0.055413496 -0.0596964 -0.15520659 0.06177344
0.14681283 -0.21464796 0.20045796 0.08166972 -0.29455522 -0.19311841 -0.0013803812 0.05921918

embedder.rnn.weight_ih_l2 f4 [72, 24]
00000000: 2ed3 2e3e 3ab2 18be 027e 963d c809 3c3e
00000010: b730 e0bd ab74 5dbe 40dd 98bc ba42 ccbd
00000020: 5d4d 21be 0145 37bd 33a7 31bd 4d99 c33d
00000030: a1f3 b3bd 894f adbd d90b 07be 24e0 01be
00000040: 5542 29bd d39c 6e3e 7a3b 7ebd 2b7a cdbd
00000050: 9c93 2ebe 0705 393e dc35 553e 1c42 393e
00000060: df2d cc3b 235e e83d 6231 083e 97db e13d
00000070: 0e3b 583d 7459 06be d89f 6ebc 437a 7ebc
00000080: 9be3 13be a99c 173e c0e9 f73d 5dd1 a33d
00000090: 0932 103e 3c8a 81bd 1bf5 7a3d b7ba 69bd
000000a0: 6de6 323e b268 743c 44ef d83d d67a 5abd
000000b0: c5c5 8fbb b956 423e a86d bebd 89ff 063e
000000c0: 8f6e 213e 1f12 65be 53a7 fcbd 7379 07be
000000d0: 5107 99bd c9a8 b63d b9df 003e 0219 013d
000000e0: 3121 6ebe 319d 2b3e 8dad d3bb bc48 2c3e
000000f0: 299a f53d c191 7fbc 538b 25be 9736 233d
00000100: a617 9e3c dbaf d13c 8d00 163d 2f03 e7bd
00000110: a749 f63d c27e 4a3e 5089 ec3d 996e 8ebd
00000120: 5cd3 ff3d 7df8 7cbd 1f33 0f3d ec2d 453c
00000130: 0495 533d fe20 ce3d 9e89 a53d d5d0 7e3d
00000140: 1d5e c7bc 15a1 be3d 0529 613d 4dd2 563d
00000150: b5ef 573e cef1 8a3b 210f 3b3e c8f4 d63c
00000160: 2384 b53d 62ab 12be e8d1 d7ba 71a1 59be
00000170: 10d2 12be 3069 dd3d 119e da3d f789 8f3b
00000180: 51a5 b6bc 94db d2bd e069 2fbd e967 113e
00000190: c428 85bc 5509 1d3d f1c2 1b3e 9a39 34be
000001a0: b202 3fbe d3b8 6ebb bad7 41be 463f 68bd
000001b0: fb51 20be 45f9 10be 4bc0 743d e6ed 3cbe
000001c0: 9461 86bd ccd5 16be 34d7 debd eb9f 1abe
000001d0: a27d 103e 9bd0 51bd aa54 f1bd e164 103e
000001e0: d52a 72bd 750a 00be f681 af3c df6a 3c3e
000001f0: d06c 833c 4474 22be b274 21be 0250 62bd
00000200: e347 4a3e f0b7 643e 819b b43d 13c9 ed3d
00000210: da3c 603e 219e 453d eb5e d1bd be32 113e
00000220: 11d4 683c cdd8 043e 0de1 b2bd 9c71 debd
00000230: 1c01 07be c7ae 1cbe d651 19be 9a5d e4bd
00000240: 1b11 413e 4f79 d3bd a5b4 83bc 5098 e5bd
00000250: e0a5 0d3d 1e08 12be 9599 183e 8c4a d7bd
00000260: 1ff7 533e 53cc a63d fb91 6cbe ade2 eabd
00000270: da25 f7bb 13ea 8e3d 9e0c 573e 8504 2d3e
00000280: 6cbb 593e 7735 32bd 9861 293e c3ed b93d
00000290: 0369 ea3d 5455 3ebe 33b8 2b3e dee1 79bc
000002a0: 3d36 203e 51cf d6bd 323c 5b3d 2b55 8ebc
000002b0: 7bf9 5cbe 58fb 92bb 867c 0b3e 6beb 9c3a
000002c0: 0716 443d 8ac1 183d 1d62 92bd 1108 c13d
000002d0: e85b 073e 6777 13bd 6b6d e33c 7618 133e
000002e0: 92ed 3dbe 2d22 693e ea96 e53d 19d6 0c3e
000002f0: a3b8 3cbe 9eac 52be 35d4 f43d c98c 923d
00000300: 6c16 23bd 3f12 e43d 314a 473d 5022 4c3c
00000310: f94f d7bd 1109 0fbe a13e b63d d03e c4bd
00000320: 7a7f 173d 3757 893d c036 2bbe 18a7 133e
00000330: ffe3 2fbd 1211 d33d 9f06 3fbb 8da1 263d
00000340: adca 15be ee77 e23a fcf0 fdbd a2be 553c
00000350: 4c49 403d d399 2dbe 043c 063e e84c 743e
00000360: 4562 0ebd 426c 353e 63a2 6abd 757c 38bd
00000370: 0089 043e 80f1 2c3d dd16 ab3d 5643 cc3d
00000380: 26ff 1b3d 7b2b 1bbe 8bcc 22bd baa1 32be
00000390: 8703 4f3e e052 273e 7446 d33c fc34 443d
000003a0: 411b 48bd 3fdf 93ba 6ed6 1b3e 3c68 0d3e
000003b0: ce70 bcbd 1640 25be ffed 2e3e 70a8 593d
000003c0: ee4e 523d dbf4 ab3c 1948 203e 28ef 20be
000003d0: 21be 82be 275f ffbd 0fad c5bc bec6 263c
000003e0: 1650 8a3d 9872 16be d9a0 013e a947 713c
000003f0: 7c19 a93c 680e 26bc cea5 cabd 6907 e6bd
0.17072746 -0.14911738 0.07348253 0.18363106 -0.109467916 -0.21626537 -0.018660188 -0.099736646
-0.15752168 -0.04474354 -0.043372344 0.09550724 -0.08786703 -0.08462436 -0.13188113 -0.12683159
-0.041323025 0.23302011 -0.06206844 -0.10033067 -0.17048496 0.18068324 0.20821327 0.18091625
0.006231054 0.1134608 0.13300088 0.110282116 0.052790694 -0.13120061 -0.014564477 -0.015532079
-0.14442293 0.14805855 0.12105131 0.07998917 0.14081587 -0.06325194 0.061268907 -0.05706283
0.17470713 0.014917539 0.10592511 -0.0533398 -0.0043875896 0.18978395 -0.09298259 0.13183416
0.15764831 -0.22370194 -0.12336602 -0.13229923 -0.074720986 0.08918912 0.12585343 0.03151799
-0.23254849 0.16759183 -0.006459898 0.16824621 0.11992294 -0.015598715 -0.16166429 0.039846983
0.019298386 0.02559655 0.03662162 -0.11279904 0.12025767 0.19774917 0.11549628 -0.069546886
0.124914855 -0.061760414 0.034960862 0.012034874 0.051655784 0.100648865 0.08082889 0.062210876
-0.024336869 0.09308068 0.05497076 0.052446652 0.21087535 0.004240251 0.1826749 0.026239768
0.08863094 -0.1432319 -0.0016465755 -0.21252991 -0.14337945 0.108110785 0.1067468 0.0043804604
-0.022295626 -0.102957875 -0.04282558 0.14199795 -0.01625479 0.038338978 0.15211083 -0.17600098
-0.18653372 -0.0036426082 -0.1892995 -0.056700967 -0.15656273 -0.14157589 0.059753697 -0.18450126
-0.0656158 -0.14729995 -0.108808905 -0.15100066 0.14110425 -0.051224332 -0.117837265 0.14100982
-0.05912288 -0.12503989 0.021424275 0.18400143 0.016043097 -0.15864664 -0.15767172 -0.055252083
0.19753985 0.22335792 0.088187225 0.116106175 0.21898213 0.048246507 -0.10223182 0.14179513
0.014210717 0.12973328 -0.08734331 -0.10861513 -0.13184017 -0.15301047 -0.14972624 -0.111506656
0.18854181 -0.10325872 -0.016077349 -0.11210692 0.03458202 -0.14260909 0.14902337 -0.105122656
0.20699738 0.081444405 -0.23102562 -0.11469016 -0.007542354 0.0697824 0.21000907 0.16896255
0.21262902 -0.04350802 0.16541135 0.090785526 0.11445811 -0.18587238 0.16769485 -0.015251605
0.1564569 -0.10488761 0.053524204 -0.017374596 -0.21579544 -0.004485529 0.1362172 0.0011972015
0.04787257 0.03729395 -0.0714762 0.09425367 0.13218653 -0.036002543 0.027762135 0.143648
-0.18547657 0.22766943 0.11210425 0.13753547 -0.18429808 -0.2057366 0.11954538 0.07155759
-0.039816305 0.11136293 0.04865474 0.012459353 -0.105133004 -0.13968302 0.08898664 -0.09582293
0.036986805 0.06706088 -0.16720104 0.1441921 -0.042942043 0.1030599 -0.0029148234 0.04068141
-0.14628096 0.0017278173 -0.1239948 0.013045939 0.0469449 -0.1695321 0.13108832 0.23857462
-0.034761686 0.17717078 -0.05728377 -0.045040566 0.12942886 0.0422225 0.0835397 0.09973781
0.038085125 -0.15153305 -0.03974585 -0.17444506 0.2021619 0.16340208 0.02579043 0.047902092
-0.048854116 -0.0011281742 0.15218517 0.13809294 -0.09201203 -0.16137728 0.17082976 0.05313915
0.051344804 0.02099078 0.15652503 -0.15716231 -0.25535682 -0.12469321 -0.024130372 0.01017922
0.067535564 -0.14692152 0.12659015 0.014726558 0.020642035 -0.010135271 -0.09894906 -0.11231882

embedder.rnn.weight_hh_l2 f4 [72, 24]
00000000: e29b 3dbe ed63 59be f958 5cbd 93be 93bd
00000010: ffdf 3a3e a0ce 3d3d cafc 313d 602c 063d
00000020: 3eaf 9a3d f6fa 02be 6bf2 6abe da26 6f3e
00000030: 6acf ba3d 4ce7 1dbe c7c7 3dbb 0b0d 84be
00000040: 63a3 7dbe b9fd aaba 7567 18be 0579 743e
00000050: 1c43 7ebe c869 6cbb f809 bbbd 9d6d bcbd
00000060: 4758 233e 6939 df3d 2f05 183e 5d01 703e
00000070: d498 05be 1bc4 c83d 27b5 2abe 10e7 cabd
00000080: b1be 003e 8731 933d 3b50 31be f462 02be
00000090: 6431 89bc 300a 90be e491 3dbd f16f 083e
000000a0: 21f8 043e fcb5 4c3e bf34 1ebc efe2 4d3e
000000b0: 6661 c23d 0498 e3bc b080 1abe f9c6 e6bd
000000c0: 5a8b 90bd 7aa5 2abe caef 5f3d 542f c5bc
000000d0: b5a8 06be d11c 9a3d a07e 83bd a7df 8abe
000000e0: 5a19 313e 8e05 1c3e 528c 97be 8501 213d
000000f0: 0070 32bd 847f 3dbd 4953 183e 228f 17be
00000100: 29a6 0dbd 4b4e 3abe bb95 6abe 34a5 b3bc
00000110: 30cb bf3c 5903 433e 09bd 8d3d 4471 393e
00000120: d0bc 6fbe 2d9e 02bb 300a c6bd b32a f23c
00000130: 62ad 20bd 9231 cebd ea1f 8abd 3c1d 3ebe
00000140: bad8 773c 601b f23d 7133 e0bc 298a ad3c
00000150: 24eb 0fbd 4540 a9bb f476 f73d 6680 a3be
00000160: ca72 963d c089 c1bd c735 713d f672 b33d
00000170: 536f 01be 02ba 3f3d 62bb 16be e140 153d
00000180: a18f 74be eb25 36be 82b5 2bbd a170 4e3e
00000190: 3869 9e3d 8b0c 74be d1c6 0dbe 7556 24bd
000001a0: f5a8 dabd 9c6f 193e a7bf 2dbd ae83 113e
000001b0: 5474 3bbc c29a 24be 5d88 e8bb e3be 82be
000001c0: 6c7d e6bd 0d2d 97bd 81f4 44be cb16 863e
000001d0: cedd 0dbe 7c07 ba3d 7350 8fbd d4ff 3e3e
000001e0: 4dc2 cabd b814 9fbd bb27 113e 352c 9bbd
000001f0: fcc5 433d cc74 1fbe a985 69be ce75 85be
00000200: 5abf ff38 5eec 4b3e 4e5c 08bd fccf ea3d
00000210: 49bd 21bd 29ff 6bbe b33c 84be f899 5bbe
00000220: 920b 433d e527 22be 8a68 8bbe 1dee a03d
00000230: 3c97 1fbe c37c a1bc 1c65 31bd 5cd5 303d
00000240: 51be 3fbe 02c6 d63d a71b 933d 74f4 003e
00000250: f347 bebd 9c53 dabc eea3 ebbd c54a aa3d
00000260: 14cd 353e 75f8 46bd ed9e 4dbd 82db 2d3e
00000270: d142 b83d 84ca c0bc 9e7d 76bd fd94 05be
00000280: 655c debd 6e08 ec3d 0d27 3b3d 46f9 ae3d
00000290: 5280 efbc d81b 3b3d 4729 f63d c392 2e3e
000002a0: c729 313c 01d6 3e3e 3743 383e 18a9 9bbd
000002b0: 132d d4bd 09f2 47bd 5270 afbd b262 1f3e
000002c0: de7f b7bc e9ff f43c c355 6c3d ecf0 06be
000002d0: 89bb 3a3d 9416 263e af44 69bd fa04 5fbe
000002e0: 89f4 29bd ec8d fc3d 822b 063e 481a 8c3d
000002f0: 5c62 043d 3c5e c8ba 845d 163e 298d 0d3e
00000300: 3875 34be 64f2 26be d774 3e3e f43d d83c
00000310: 8f24 62bc 626c 97be bb69 b8bc a6a5 52bd
00000320: 3913 023d 1aa4 9a3d de25 973d d53b 713e
00000330: 686a ff3b 0fbc bfbd bad1 21be cf1c 34be
00000340: 0a9d 9abe 0d11 d2bd 59f5 e7bd 4d07 afbd
00000350: 167f 04be 2f7e 603e 93db 0a3c cb36 af3d
00000360: 6fb1 febd 723b 073e 0e94 4fbd 6edc 17bd
00000370: 8cfb c83c cf7f dabd e14d 1dbe cfcc d13c
00000380: b46d 1a3e 51e6 523e 2c95 d8bd 0d30 343e
00000390: 4c9d be3d 9c9f 27be e52c 5bbe 31ac 8cbe
000003a0: 1172 1bbe b40d 05bd 4536 093e 309c 783d
000003b0: bbb1 6bbe fa62 9f3c 8f4c 3cbd 981b d6ba
000003c0: ef2e 7dbe 8df7 913d 082d 593d ac41 5fbd
000003d0: 6f9b 003e 4c40 b13d c52c 14bd 133a bcbd
000003e0: 85b0 eebc 7116 0b3e c784 e43d 1dc0 0ebc
000003f0: 6d85 0a3e 0d9c cb3d 543f 0c3e a7f6 e7bd
-0.18516496 -0.21229525 -0.05379579 -0.072140835 0.1824951 0.04633963 0.04345397 0.032757163
0.07552956 -0.12791047 -0.22944038 0.23354664 0.09121592 -0.15420264 -0.0028958188 -0.257912
-0.24769358 -0.0013045586 -0.14883216 0.2387429 -0.24830288 -0.0036073793 -0.09132761 -0.092005946
0.15951644 0.10899622 0.14845727 0.2343802 -0.1304658 0.09803029 -0.16670667 -0.09907353
0.12572743 0.07187181 -0.17315762 -0.1273306 -0.016747184 -0.28132772 -0.04628171 0.13323952
0.12985279 0.19991297 -0.00965613 0.201061 0.094912335 -0.027782448 -0.15088153 -0.1126842
-0.07057829 -0.16664687 0.05467204 -0.02407042 -0.13150294 0.075250275 -0.06420636 -0.27123758
0.17294827 0.15236494 -0.29599243 0.03930809 -0.043563843 -0.046264187 0.14875521 -0.14800695
-0.03458229 -0.18193929 -0.2290868 -0.02192936 0.023412317 0.19044246 0.06920821 0.18109614
-0.2341187 -0.0019930706 -0.09669912 0.029561376 -0.03922785 -0.100680485 -0.067443684 -0.1856584
0.015127355 0.118216276 -0.02736828 0.021184044 -0.035136357 -0.005165132 0.120832354 -0.31933898
0.07346113 -0.09450102 0.058889177 0.087621614 -0.12640123 0.04680825 -0.14719918 0.036438826
-0.23882915 -0.17787902 -0.041921146 0.20160152 0.07734913 -0.2383291 -0.13845374 -0.040121514
-0.10676757 0.14983982 -0.042419102 0.14210388 -0.011441309 -0.1607466 -0.007096334 -0.2553626
-0.11254391 -0.0738164 -0.19233896 0.26189265 -0.13854143 0.09083459 -0.06997766 0.18652278
-0.09900341 -0.07767624 0.14175312 -0.07576791 0.047796234 -0.15571898 -0.22804894 -0.2606644
0.000121949895 0.19914386 -0.033291154 0.11465451 -0.039487157 -0.23046555 -0.2582756 -0.21445453
0.047618456 -0.15835531 -0.27228194 0.078579165 -0.15585035 -0.019712811 -0.043309316 0.043172225
-0.18724944 0.10486986 0.07183009 0.12593251 -0.09291067 -0.026651196 -0.115058765 0.083150424
0.17754012 -0.04857679 -0.05020039 0.16978267 0.08997119 -0.023534067 -0.06017839 -0.13045116
-0.108574666 0.11525045 0.04569154 0.08543639 -0.029235993 0.04568085 0.12019592 0.17048173
0.010813183 0.18636324 0.1799439 -0.076006114 -0.1036016 -0.048814807 -0.08566345 0.15564993
-0.022399839 0.029907184 0.057698976 -0.13177842 0.045589004 0.1621955 -0.056950267 -0.21779242
-0.041492973 0.12331757 0.13102534 0.0684095 0.032320365 -0.0015286873 0.14684111 0.1382338
-0.1762284 -0.16303402 0.18599258 0.026396729 -0.013802662 -0.29574877 -0.022511354 -0.051427506
0.031756613 0.07550831 0.073802695 0.2355798 0.007794667 -0.09362041 -0.1580266 -0.17589115
-0.30197936 -0.102571584 -0.11326093 -0.085463144 -0.12939104 0.21923135 0.008475202 0.08555373
-0.124361865 0.1320627 -0.050678305 -0.037075453 0.02453401 -0.10668909 -0.1536174 0.025610356
0.15080911 0.20595671 -0.10575327 0.17596455 0.09307346 -0.1636948 -0.21403845 -0.27475122
-0.15180232 -0.03248377 0.13399608 0.060695827 -0.23017018 0.019456375 -0.04597145 -0.0016335128
-0.24724935 0.07127295 0.05302146 -0.05450599 0.12559293 0.08654842 -0.036175508 -0.09190764
-0.029136905 0.1358278 0.11158138 -0.008712796 0.1352746 0.09941874 0.13696033 -0.11326342

embedder.rnn.bias_ih_l2 f4 [72]
00000000: 344a 6b3e 7c9e 68be ed45 323e 51c1 273e
00000010: a605 623e d601 18be 8d77 613e 9071 2a3e
00000020: 20be 6f3e 8a85 263e 1d9c ff3d c4dd 573e
00000030: 9d10 f03c a827 8b3e 1c9e 143e 7ea7 2e3d
00000040: 5132 10be 892e 1c3e 29ad 9f3d 7304 703e
00000050: 414b 6f3e e57e 6f3d bf24 ff3d 3e69 cc3d
00000060: db1d 2abe d991 3ebe 548d 9ebe 6b01 dabe
00000070: 1e3e 48be 990b 11be bbc8 05be 60e6 4cbe
00000080: 03e3 99be 74e4 08be ce77 acbd 9ef2 a7bd
00000090: 7f79 ddbd db28 9fbd ef90 e1be 8bdf bbbe
000000a0: 9f43 c3be 2e3c bebe 6ff6 d5be ea46 c0be
000000b0: 7411 d5be ee48 b4be 6a5b f0be bc7d cdbe
000000c0: f787 83bd 7b9a b03d 5295 013d 73ae 473d
000000d0: a326 65bd a5b4 cf3d f037 b23d fea5 18be
000000e0: b37c 03be 285c 0abe 6a4a c03b 41cf 89bd
000000f0: 520d 953c 0b50 993d 32d1 b03b 2502 2fbe
00000100: d155 46be 6daf 2bbe e5b3 79bd 45c1 ff3c
00000110: 8aaa a2bd 52f0 3b3e e1f1 edbc 2fa2 c2bd
0.22977525 -0.22716707 0.17409487 0.16382338 0.22072467 -0.1484445 0.22018261 0.16644883
0.2341237 0.16261879 0.12480948 0.2108069 0.029304797 0.27178693 0.14513439 0.0426402
-0.14081694 0.15252127 0.077966996 0.23439197 0.23368551 0.058470625 0.12458181 0.09981011
-0.16612951 -0.18610324 -0.309672 -0.42579207 -0.19554946 -0.1416458 -0.13064854 -0.20009756
-0.3005601 -0.13368398 -0.084212884 -0.082005724 -0.10814189 -0.077714644 -0.44055888 -0.36693987
-0.38137528 -0.37155288 -0.41789576 -0.37554103 -0.41614878 -0.3521189 -0.46944743 -0.4013499
-0.064224176 0.08623215 0.031636544 0.048750352 -0.05594505 0.10141877 0.087020755 -0.14907071
-0.12840538 -0.13511717 0.005868246 -0.06728984 0.018194828 0.0748597 0.005396032 -0.17090662
-0.19368674 -0.16766138 -0.060962576 0.031220088 -0.07942684 0.18353394 -0.029046 -0.0950359

embedder.rnn.bias_hh_l2 f4 [72]
00000000: 576f 713e bd7f 91bd 40b1 3b3e 430a b53d
00000010: b8e5 643e 7acc 053e 4ae6 bd3d da84 913e
00000020: 9bc0 5fbd 908c d0bd 995e 153d a7c9 1abe
00000030: 90b7 6e3e d066 1c3e e828 153d d010 1a3d
00000040: b4b7 983d be34 1ebe f66f 2d3e 5683 b5bc
00000050: aeff dbbd 975c 763e 1088 403e 7d0d 7c3e
00000060: 2d3c a4be baad e6be 52ea 48be 368e 65be
00000070: 44a2 54be a157 3bbe d2fa efbd 02a1 fcbe
00000080: de2f 91be 170e abbe 82db 85be d6d5 c2bd
00000090: 123c d6be bdc9 a7be 96d7 d1be dd74 f7be
000000a0: efda 89be 47e1 e5bd a828 a4be 7eb4 c5be
000000b0: 3802 66be 0d56 83be c99b a7be ca13 82be
000000c0: 7b35 d6bd 9c96 cd3d 6c02 0bbe 7c6f 0abe
000000d0: bc97 c13d 8b8f 603d 290f 423d b109 b03d
000000e0: f522 3d3e 7a09 afba 1339 3ebe 6505 b43d
000000f0: 22b8 3a3e 92f4 4dbb 7e3d ac3b bfeb d73c
00000100: 4dd2 453d ca5f 1f3e a8c8 5f3d 4290 d4bd
00000110: 22f6 23be 87ce 78bc 95f3 bc3d 90e7 a73b
0.23577629 -0.07104442 0.18329334 0.08839848 0.22353256 0.13066283 0.0927244 0.2842167
-0.054627042 -0.1018306 0.03646717 -0.15115987 0.23312211 0.15273595 0.036415964 0.03761369
0.074569136 -0.15449807 0.16937241 -0.022157352 -0.107421264 0.24058758 0.18801904 0.2461452
-0.3207716 -0.45054418 -0.19620636 -0.2241753 -0.20765024 -0.18295147 -0.11717762 -0.4934159
-0.28356832 -0.33409187 -0.26144034 -0.09513442 -0.41842705 -0.32771102 -0.40984792 -0.48331347
-0.26924846 -0.11224609 -0.32062268 -0.38614267 -0.22461784 -0.2565159 -0.32736042 -0.25405723
-0.10459419 0.10038492 -0.13575143 -0.1351909 0.09452769 0.054824393 0.04737774 0.085955985
0.18470366 -0.0013354265 -0.1857646 0.087900914 0.18234304 -0.0031426293 0.005256354 0.02635753
0.04829626 0.15563884 0.05463472 -0.103790775 -0.16011861 -0.015185959 0.09226147 0.00512404
