data/augmented/timegan_class_3.pt (torch, 239069 bytes, 65 tensors)

embedder.rnn.weight_ih_l0 f4 [72, 43]
0.19344066 -0.2297652 0.019354105 -0.15042195 -0.06869752 -0.047094822 0.12562403 0.12896155
0.044790503 -0.090037726 -0.07893687 -0.018434882 0.22908361 0.1420361 0.0359145 -0.06808754
-0.116699666 0.0027085477 0.116678014 -0.05977694 -0.008045855 0.20388263 0.17689933 0.018913254
-0.0152449645 0.034971975 -0.07148143 0.08818947 0.10744153 0.0454017 -0.26391903 -0.046610333
-0.3025685 -0.30783418 -0.049204808 -0.18685518 0.103707805 0.19383739 0.11003166 0.06241695
0.03454375 -0.0009348012 0.18274896 0.07030932 0.15132344 -0.069778375 0.04633235 0.09633111
0.14131796 -0.17153536 -0.12368829 -0.14437926 -0.060953792 -0.12501852 0.05964274 0.065836325
0.11588528 -0.034571297 -0.14158285 0.16901922 -0.12194043 -0.016336681 -0.002037759 0.20408954
0.10503892 -0.050087675 -0.1249371 0.020634344 0.11490699 0.16239654 -0.03698245 -0.17535928
-0.0778959 -0.24495529 -0.16391094 -0.115435705 0.12466018 0.08538463 -0.13597222 0.16266868
-0.06510649 -0.04588844 -0.10317865 0.02733045 0.04465863 -0.11392934 0.18087183 0.2458473
0.032318864 0.14511219 0.24520497 0.24164867 0.24954511 -0.05935645 0.07663682 -0.0024935263
0.10788451 0.051026117 0.002890214 0.08975861 0.083367065 -0.15377145 0.143767 0.07129334
-0.16784717 0.16910478 -0.119161844 -0.03868956 0.021388575 0.010415907 -0.01557128 -0.015470753
0.08649643 0.13421756 -0.21421121 0.016062586 0.11361844 0.17219505 0.21057492 -0.00465277
-0.027953418 0.27322912 0.023410961 0.11037644 0.08974114 0.12932147 -0.05685719 -0.0657533
-0.018565463 0.07114253 -0.18073238 -0.18543747 -0.01626891 -0.12288899 -0.1400221 -0.114510424
-0.036602993 -0.10638006 0.0095588 0.078094676 -0.23022544 -0.1617865 0.087289564 -0.16858755
0.03886296 0.09690419 0.015893726 -0.016384132 0.05427353 0.024681266 0.19538788 -0.08236967
-0.09576822 0.15278634 -0.061378766 -0.10797268 0.18703818 0.12717168 -0.0057294597 0.064735115
-0.02072994 0.12052952 -0.0067184363 -0.020182505 -0.009263139 0.17744578 0.04301502 -0.12790643
0.12679575 0.008283188 -0.005748165 0.2380163 -0.16817157 -0.172731 0.0026462586 0.056706935
0.041153092 -0.04126271 0.010236581 0.061349086 -0.1471262 0.096830234 0.15320902 0.16605048
0.03358059 -0.22026804 -0.11551913 -0.14704981 0.11471533 0.0847894 0.02045425 0.100129224
0.11324131 0.0955487 -0.02435523 0.010695253 0.08397388 0.113611415 0.1809943 -0.12022473
0.10326838 0.18867165 0.043013856 0.3109114 0.27384457 0.3017278 0.17504536 0.23234786
0.17835775 0.16266437 0.097679906 -0.007773142 -0.17312782 0.04224987 0.17527246 -0.014997607
0.36426136 -0.056815058 0.27529186 0.0033930258 -0.040386114 -0.05530446 -0.30305296 -0.014328173
-0.047040205 -0.17079732 -0.23748742 -0.17774142 -0.13849713 -0.1714581 -0.26311353 -0.16161829
-0.023274142 -0.107299864 -0.1908289 -0.22260056 -0.03347359 -0.09463487 -0.20400915 -0.29148903
0.049814682 -0.25117594 0.044374723 -0.3024832 -0.09677497 -0.08409309 -0.059167225 0.07889856
-0.009536854 -0.14683972 -0.1537571 0.0059563923 0.0005046138 -0.13406302 0.04941123 -0.06551165
00000000: 4f15 463e 9247 6bbe 808c 9e3c 3608 1abe
00000010: 49b1 8cbd 80e6 40bd 96a3 003e 7f0e 043e
00000020: 3f76 373d b365 b8bd a7a9 a1bd c004 97bc
00000030: e594 6a3e e971 113e 151b 133d 7b71 8bbd
00000040: 3c00 efbd e481 313b e2f4 ee3d aad8 74bd
00000050: c3d2 03bc 9cc6 503e 1925 353e f8ef 9a3c
00000060: 04c6 79bc c63e 0f3d db64 92bd ae9c b43d
00000070: 4e0a dc3d 22f7 393d 6520 87be 7aea 3ebd
00000080: 42ea 9abe 719c 9dbe fb8a 49bd f756 3fbe
00000090: c264 d43d 4f7d 463e 4758 e13d eaa8 7f3d
000000a0: bf7d 0d3d 720d 75ba 8b22 3b3e 55fe 8f3d
000000b0: 88f4 1a3e f7e7 8ebd fdc6 3d3d 3f49 c53d
000000c0: a8b5 103e f7a6 2fbe 4950 fdbd 28d8 13be
000000d0: afaa 79bd db04 00be f24b 743d 32d5 863d
000000e0: 4355 ed3d a29a 0dbd 18fb 10be 6013 2d3e
000000f0: e7bb f9bd 81d4 85bc ec8b 05bb d9fc 503e
00000100: a51e d73d bc28 4dbd 06df ffbd 5b09 a93c
00000110: 5b54 eb3d 474b 263e e97a 17bd 6291 33be
00000120: e387 9fbd 8fd5 7abe 45d8 27be 8e69 ecbd
00000130: d64d ff3d 23de ae3d 4d3c 0bbe 9e92 263e
00000140: 8d56 85bd 84f5 3bbd 544f d3bd 1ce4 df3c
00000150: f8eb 363d c953 e9bd 7736 393e 65bf 7b3e
00000160: c960 043d 4a98 143e 0317 7b3e c072 773e
00000170: c188 7f3e c01f 73bd c4f3 9c3d 6e6a 23bb
00000180: 8ef2 dc3d c300 513d bf69 3d3b 5dd3 b73d
00000190: 5abc aa3d 4376 1dbe a837 133e 3e02 923d
000001a0: 21e0 2bbe ce29 2d3e 200b f4bd f278 1ebd
000001b0: 1837 af3c 7ba7 2a3c af1e 7fbc 0b79 7dbc
000001c0: 0a25 b13d 5470 093e 2f5a 5bbe af95 833c
000001d0: c9b0 e83d e653 303e f4a0 573e 4376 98bb
000001e0: 91fe e4bc b0e4 8b3e 58c8 bf3c 0b0d e23d
000001f0: 34ca b73d d96c 043e 16e3 68bd aba9 86bd
00000200: 9916 98bc 2db3 913d e911 39be 52e3 3dbe
00000210: 6146 85bc 39ad fbbd f461 0fbe 7184 eabd
00000220: 05ed 15bd cadd d9bd 839c 1c3c 1af0 9f3d
00000230: 38c0 6bbe 5cab 25be dfc4 b23d 37a2 2cbe
00000240: c42e 1f3d b475 c63d 8f33 823c 0438 86bc
00000250: ec4d 5e3d 5e30 ca3c c313 483e 6eb1 a8bd
00000260: 2122 c4bd 0674 1c3e 4d68 7bbd c820 ddbd
00000270: f086 3f3e 4b39 023e 31be bbbb d893 843d
00000280: d6d1 a9bc 2ed8 f63d 5426 dcbb c855 a5bc
00000290: 6cc4 17bc 59b4 353e 8530 303d e7f9 02be
000002a0: bfd6 013e 35b6 073c 1a5b bcbb 8cba 733e
000002b0: 2b35 2cbe 65e0 30be da6c 2d3b 8845 683d
000002c0: 2590 283d 1603 29bd 55b7 273c 2e49 7b3d
000002d0: 40a8 16be ee4e c63d d3e2 1c3e 2309 2a3e
000002e0: cd8b 093d f28d 61be 4b95 ecbd 3a94 16be
000002f0: dfef ea3d 11a6 ad3d ac8f a73c 8d10 cd3d
00000300: 0feb e73d 09af c33d 9f84 c7bc 243b 2f3c
00000310: 7ffa ab3d 1aad e83d 9256 393e 6238 f6bd
00000320: 5f7e d33d 2433 413e 4c2f 303d c72f 9f3e
00000330: 5b35 8c3e 117c 9a3e 173f 333e 99ec 6d3e
00000340: 6aa3 363e 7d91 263e 670c c83d d7b5 febb
00000350: 6b48 31be 330e 2d3d a07a 333e 86b8 75bc
00000360: 7780 ba3e e8b6 68bd 0ef3 8c3e 875d 5e3b
00000370: e96b 25bd ee86 62bd c229 9bbe b7c0 6abc
00000380: 3bad 40bd 7ee5 2ebe e72f 73be d901 36be
00000390: 31d2 0dbe b692 2fbe d1b6 86be 447f 25be
000003a0: 6aa9 bebc 08c0 dbbd a768 43be 67f1 63be
000003b0: 9a1b 09bd edcf c1bd c6e7 50be 0d3e 95be
000003c0: 7b0a 4c3d 229a 80be 45c2 353d 14df 9abe
000003d0: f531 c6bd ff38 acbd 5559 72bd 9195 a13d
000003e0: 7740 1cbc 275d 16be 8072 1dbe d72d c33b
000003f0: 0f48 043a d147 09be 6e63 4a3d f92a 86bd

embedder.rnn.weight_hh_l0 f4 [72, 24]
0.18825416 -0.041516505 0.005653091 0.07842458 -0.09253981 0.004270347 -0.22141305 0.015477269
-0.12575486 0.08455852 0.1013004 0.038816806 0.048881546 -0.1253143 0.14283986 -0.15936933
-0.10344116 0.26695302 -0.090148255 -0.12553582 0.24229866 0.07776144 0.046660926 -0.062575966
0.20431204 -0.00024611864 -0.06914039 0.17982218 0.12834018 -0.0018581733 0.1734476 0.15993813
0.07063445 -0.12152955 0.032791283 0.10766815 -0.02664239 -0.18712956 0.07066893 0.034123998
0.076414995 0.0068165855 0.4069066 -0.044016324 0.007854893 -0.058040883 0.18197635 0.09655025
-0.11130113 0.17473593 0.23729336 -0.1501241 0.26071015 -0.05776504 0.037876505 -0.1852039
-0.019646859 -0.32280138 0.04906964 0.0573485 0.3554451 -0.036898296 -0.2457589 0.008786283
-0.012421444 -0.33199897 -0.012360761 -0.25541002 -0.015486585 -0.02466884 -0.28948912 -0.08027298
0.16962487 0.08014207 -0.20037015 -0.16080342 0.256325 0.11871249 0.052686393 0.036923386
0.16729935 -0.2727614 -0.13015622 0.047517613 0.09082457 -0.107244246 -0.17720774 0.15325658
0.25061315 -0.16626568 0.29153553 -0.27632183 -0.06252052 -0.27568218 0.0012619521 0.12856935
-0.10625484 0.03622967 -0.009725315 0.1103568 0.07588718 0.012633316 0.16223843 -0.055256724
-0.01895664 0.0729369 0.15718423 0.12299732 0.24934043 0.05330727 -0.033491325 -0.012709023
0.19063999 -0.11429734 0.24078609 -0.040460482 0.07077486 0.16227381 -0.1576218 -0.07819712
-0.18137726 -0.023128778 -0.13992214 -0.008640607 0.2530083 -0.13293424 -0.16908301 0.1789032
-0.14609468 0.1219324 0.09063579 0.32715866 0.017465914 0.012691633 -0.19174974 -0.04203367
-0.05859736 -0.037033 0.1673576 -0.0931836 0.08265097 0.08385587 0.20203288 -0.14246178
-0.14588983 0.21868722 0.04348546 -0.00040815162 0.05218097 -0.19238776 -0.32402384 0.22263275
-0.20738117 -0.23561771 -0.3220489 0.10030889 -0.23395178 -0.17076613 0.334755 0.05592891
-0.22897029 0.15654832 0.0483849 -0.064271145 -0.08614475 0.28050455 0.045250684 0.016273296
-0.15022297 -0.2530944 0.07318929 -0.027511101 -0.06789734 0.29248664 0.029553976 -0.29599935
0.047214095 -0.1977468 0.047179095 -0.112391405 -0.24815471 0.066608176 0.014326318 -0.18360141
-0.12014713 -0.036156178 -0.258308 -0.1048941 -0.19521229 0.14658369 0.016331932 0.15619358
0.38502574 0.107858464 -0.22934209 0.07934653 0.02745936 -0.03200673 0.32610488 -0.027147017
0.15153563 -0.0067382967 0.15748438 0.12716843 -0.040542103 -0.17129692 -0.14530136 -0.07289564
0.21631144 -0.18039495 -0.06063157 0.13692339 0.109741874 -0.005664931 0.20815857 0.20227295
0.17310618 -0.06751047 0.07781929 -0.0580912 0.057675082 -0.101044156 0.28633577 0.11030039
0.44771856 -0.35909095 0.1634135 0.035756465 0.18150479 -0.3561557 0.0021779223 0.0052531273
0.12758268 -0.35585862 0.29205975 -0.14661303 -0.037131432 -0.15047538 0.047382325 -0.17040357
0.18463904 -0.07357398 -0.12105352 -0.20368089 0.08156135 -0.049532108 -0.04501871 0.05897769
0.19479689 -0.21457383 0.08798342 0.16466044 0.010085908 -0.3645757 -0.150948 0.07399194
00000000: b3c5 403e 360d 2abd 903d b93b 119d a03d
00000010: 8385 bdbd 44ee 8b3b 1aba 62be 5f94 7d3c
00000020: e2c5 00be 042d ad3d 9676 cf3d 5ffe 1e3d
00000030: 0438 483d 6452 00be 9d44 123e b731 23be
00000040: f5d8 d3bd 11ae 883e a69f b8bd 768c 00be
00000050: 241d 783e 6441 9f3d 871f 3f3d d427 80bd
00000060: 2d37 513e 7c09 81b9 7a99 8dbd 4e23 383e
00000070: 9c6b 033e f38d f3ba 3f9c 313e d2c6 233e
00000080: cba8 903d 7ce4 f8bd 2750 063d 1e81 dc3d
00000090: 2441 dabc e49e 3fbe dfba 903d 9bc5 0b3d
000000a0: 777f 9c3d aa5d df3b 1056 d03e 764a 34bd
000000b0: cfb1 003c 47bc 6dbd 0258 3a3e 23bc c53d
000000c0: d9f1 e3bd faed 323e 08fd 723e 22ba 19be
000000d0: cd7b 853e 099b 6cbd 6524 1b3d 17a6 3dbe
000000e0: 73f2 a0bc 3946 a5be 3ffd 483d 43e6 6a3d
000000f0: e6fc b53e ab22 17bd 39a8 7bbe 58f4 0f3c
00000100: 5083 4bbc c5fb a9be ca84 4abc 1ac5 82be
00000110: 72bb 7dbc 4f16 cabc eb37 94be 2966 a4bd
00000120: 24b2 2d3e 8721 a43d d52d 4dbe a7a9 24be
00000130: 083d 833e 891f f33d b0cd 573d fa3c 173d
00000140: 8550 2b3e 62a7 8bbe ac47 05be d4a1 423d
00000150: 3b02 ba3d dfa2 dbbd f275 35be 4bef 1c3e
00000160: 5e50 803e 8d41 2abe 2544 953e 0e7a 8dbe
00000170: c20a 80bd 3726 8dbe 1668 a53a afa7 033e
00000180: 239c d9bd 9065 143d ed56 1fbc bf02 e23d
00000190: bd6a 9b3d f8fb 4e3c d521 263e e054 62bd
000001a0: f54a 9bbc f15f 953d e7f4 203e 05e6 fb3d
000001b0: 1953 7f3e b958 5a3d 332e 09bd 8239 50bc
000001c0: 2137 433e b914 eabd a190 763e e4b9 25bd
000001d0: 69f2 903d 1b2b 263e 9c67 21be d025 a0bd
000001e0: f6ba 39be 9078 bdbc c047 0fbe 5591 0dbc
000001f0: 4e8a 813e ea1f 08be 1924 2dbe 6732 373e
00000200: d899 15be b2b7 f93d 429f b93d 5781 a73e
00000210: ad14 8f3c 91f0 4f3c 0b5a 44be 7f2b 2cbd
00000220: c903 70bd eaaf 17bd ca5f 2b3e 0bd7 bebd
00000230: e944 a93d a0bc ab3d b5e1 4e3e 80e1 11be
00000240: 2564 15be 8bef 5f3e cf1d 323d 2ffd d5b9
00000250: b6bb 553d 4c01 45be 74e6 a5be d7f9 633e
00000260: bb5b 54be c545 71be 98e3 a4be bf6e cd3d
00000270: 0e91 6fbe 51dd 2ebe 0265 ab3e b615 653d
00000280: 3077 6abe 344e 203e 3f2f 463d 97a0 83bd
00000290: a96c b0bd 4b9e 8f3e c858 393d 934f 853c
000002a0: 0dd4 19be 9795 81be 44e4 953d f65e e1bc
000002b0: c30d 8bbd cfc0 953e 2e1b f23c 3a8d 97be
000002c0: 9163 413d 237e 4abe de3e 413d 772d e6bd
000002d0: 451c 7ebe de69 883d efb8 6a3c 0202 3cbe
000002e0: b30f f6bd 8018 14bd f240 84be b8d2 d6bd
000002f0: bbe5 47be 091a 163e 8bca 853c 36f1 1f3e
00000300: 1822 c53e e6e4 dc3d a7d8 6abe 6f80 a23d
00000310: 74f2 e03c 7d19 03bd 38f7 a63e 6c63 debc
00000320: 282c 1b3e eecc dcbb 9643 213e 7138 023e
00000330: 7a0f 26bd 7668 2fbe e1c9 14be 4f4a 95bd
00000340: bf80 5d3e 74b9 38be cf58 78bd a535 0c3e
00000350: 59c0 e03d e3a0 b9bb 8527 553e a420 4f3e
00000360: bf42 313e ee42 8abd b85f 9f3d 0af1 6dbd
00000370: b53c 6c3d 3df0 cebd 9a9a 923e 2ce5 e13d
00000380: 5e3b e53e c5da b7be de55 273e 5f75 123d
00000390: 64dc 393e 0a5a b6be 79bb 0e3b 6d22 ac3b
000003a0: 09a5 023e 1a33 b6be db88 953e ba21 16be
000003b0: 2117 18bd 3816 1abe f813 423d 467e 2ebe
000003c0: 0412 3d3e f4ad 96bd e8ea f7bd b991 50be
000003d0: a309 a73d 2ee2 4abd 8a65 38bd 9792 713d
000003e0: d678 473e 3eb9 5bbe a730 b43d bf9c 283e
000003f0: 5d3f 253c aba9 babe 1d92 1abe 1689 973d

embedder.rnn.bias_ih_l0 f4 [72]
-0.006968258 0.0063908217 -0.0036225815 -0.08493631 0.089809 -0.018296767 0.081124544 -0.14773402
0.10393031 0.06757606 0.17582431 -0.02017025 0.17258593 -0.047443744 0.0075412057 0.116717435
0.07585363 0.100381374 0.16434146 0.2787167 0.024515059 0.049592398 0.019994574 -0.015524804
-0.34311703 0.078582674 -0.026531594 0.14585768 -0.28862262 -0.2825384 0.12732981 -0.19331239
-0.408455 -0.015996007 -0.050160903 0.087457195 -0.34237552 0.05893225 -0.3957443 -0.10259362
-0.067194834 0.07788946 -0.12624565 0.13816029 -0.1654078 -0.06944747 -0.26125795 0.09358593
0.02461858 -0.10416629 -0.04854575 -0.14836088 0.09937414 -0.071431786 0.10959801 -0.10919792
0.10080569 -0.29456958 -0.15715942 0.056539394 0.0976995 0.19761844 -0.09691 -0.17980942
0.1562606 0.013884263 0.06937995 -0.18679695 -0.19626561 -0.09381661 0.22924465 -0.11198772
00000000: fc55 e4bb 196a d13b d568 6dbb 17f3 adbd
00000010: c8ed b73d 1ae3 95bc a024 a63d 9647 17be
00000020: 6ad9 d43d 5165 8a3d 4a0b 343e 153c a5bc
00000030: 5eba 303e 5f54 42bd 381c f73b 8d09 ef3d
00000040: 2659 9b3d c094 cd3d 2149 283e f5b3 8e3e
00000050: ced3 c83c 6621 4b3d a9cb a33c bf5b 7ebc
00000060: 09ad afbe f4ef a03d c958 d9bc b75b 153e
00000070: 58c6 93be e0a8 90be bf62 023e aff3 45be
00000080: 0421 d1be 0f0a 83bc 8575 4dbd c21c b33d
00000090: d84b afbe f162 713d ff9e cabe 9b1c d2bd
000000a0: 729d 89bd 8284 9f3d 8a46 01be e479 0d3e
000000b0: aa60 29be 7a3a 8ebd 9ac3 85be fba9 bf3d
000000c0: e7ac c93c 2355 d5bd e9d7 46bd eaeb 17be
000000d0: ab84 cb3d d44a 92bd ec74 e03d 29a3 dfbd
000000e0: 3773 ce3d d3d1 96be 66ee 20be da95 673d
000000f0: ad16 c83d 7d5c 4a3e c078 c6bd f61f 38be
00000100: c702 203e d27a 633c 1317 8e3d b347 3fbe
00000110: daf9 48be ec22 c0bd 1cbf 6a3e d159 e5bd

embedder.rnn.bias_hh_l0 f4 [72]
0.0064396323 -0.03319735 0.31025004 -0.045757044 0.22673604 0.06186171 0.19117765 -0.040611688
-0.13378765 0.31225085 0.012806283 0.00854229 0.18163879 0.08841967 0.2441122 0.1493412
0.121007115 0.2045025 -0.055053625 0.25851205 0.19695516 -0.049490683 0.21659516 0.13901323
-0.41483378 0.00817156 -0.2973571 -0.05236747 -0.018505046 -0.23870672 -0.09676526 -0.18068582
-0.40434325 -0.31001815 -0.19010374 0.027998708 -0.31129146 0.12105621 -0.2266724 0.1511574
-0.22693172 -0.037064478 -0.20589763 0.1452472 0.14193802 -0.36096153 -0.23450851 0.060274277
0.15548082 0.20920293 0.094687074 -0.005063334 -0.09062304 0.10907527 0.042893592 -0.05778256
-0.21323025 -0.076825395 -0.028944943 0.26931563 -0.1728908 -0.11816512 0.014904554 0.122508414
-0.002558406 -0.283982 -0.042116284 -0.24521983 -0.28017375 0.20559572 -0.015891686 0.27577722
00000000: 8d03 d33b f2f9 07bd 18d9 9e3e bd6b 3bbd
00000010: 7e2d 683e b462 7d3d 13c4 433e 7158 26bd
00000020: a1ff 08be 58df 9f3e 72d1 513c f6f4 0b3c
00000030: 85ff 393e 5f15 b53d 8cf8 793e e6ec 183e
00000040: 94d2 f73d 1a69 513e e97f 61bd b15b 843e
00000050: 9dae 493e beb6 4abd 1fcb 5d3e 7c59 0e3e
00000060: 1865 d4be 02e2 053c 313f 98be 467f 56bd
00000070: e597 97bc 896f 74be dd2c c6bd b405 39be
00000080: 1406 cfbe b3ba 9ebe 8eaa 42be 8c5d e53c
00000090: 9861 9fbe 51ec f73d cf1c 68be 01c9 1a3e
000000a0: ca60 68be ecd0 17bd d4d6 52be afbb 143e
000000b0: 3358 113e f3cf b8be 0023 70be 29e2 763d
000000c0: 5d36 1f3e 4b39 563e 4ceb c13d 53ea a5bb
000000d0: 9398 b9bd db62 df3d 31b1 2f3d 68ad 6cbd
000000e0: 0859 5abe a256 9dbd f21d edbc bde3 893e
000000f0: 490a 31be 8e00 f2bd 3b32 743c b1e5 fa3d
00000100: eeaa 27bb 1766 91be 2082 2cbd e81a 7bbe
00000110: ef72 8fbe af87 523e 482f 82bc ac32 8d3e

embedder.rnn.weight_ih_l1 f4 [72, 24]
0.04903929 0.14205088 0.2249678 0.08981069 0.10871339 -0.16671237 -0.065043926 0.13548511
-0.081185095 -0.09555586 0.05288315 -0.13604715 0.19096278 0.062446572 -0.12909888 -0.0893828
0.2230547 -0.051714335 -0.04222043 0.06431495 -0.015581379 -0.23298392 0.045400538 0.015442571
0.091028586 -0.0380844 -0.1068068 -0.018191738 0.06107981 0.014648017 -0.100324556 -0.19078931
0.0444254 0.063642226 0.22108313 0.13494702 -0.14807701 -0.007895781 -0.09225108 0.008583156
0.061290365 -0.18008174 0.009263627 0.011816546 -0.085161746 0.011910974 0.052077796 0.01090623
-0.05707747 0.16946378 -0.054916713 0.03389002 0.21886054 -0.08576271 0.026502673 0.12858918
-0.052078445 -0.093648635 0.17515945 0.057770018 -0.09322286 0.19468428 0.096476905 0.0069016465
-0.14618643 0.026661083 0.11825314 -0.1465653 0.04863628 -0.13104273 -0.15469858 -0.03594165
0.120062694 -0.08553522 0.031659722 -0.070949435 0.051546816 0.1475897 -0.20706911 0.025806334
-0.07716064 -0.11884553 0.031000305 0.22440672 0.14226824 0.2225996 -0.042773947 -0.038128093
0.12103779 -0.027516484 0.12013388 0.119399466 0.06821548 -0.008246402 0.15159936 0.1561453
0.12195653 0.03294873 -0.057487704 -0.02755133 -0.082068324 -0.24634281 0.15915284 -0.034989502
0.20288956 -0.08561468 0.146817 -0.19795233 0.10999316 0.07346711 -0.10080121 0.12828861
-0.19012663 0.035130437 0.31973937 -0.17002809 0.017910033 0.10617142 0.02538713 0.10822829
0.15539685 0.10412479 -0.108551994 -0.15704405 0.04125754 0.10292998 -0.32690257 0.12486333
-0.23317654 0.031781714 0.12857969 -0.11922664 0.038294677 -0.071943335 0.004394918 -0.15085557
-0.09635827 0.041122407 -0.15253644 -0.1025736 -0.027340904 0.16395937 -0.10096904 0.19321004
0.14370206 0.23525453 -0.0777762 0.07614724 0.18251823 0.13651936 -0.22640137 -0.0053429026
-0.14702147 -0.05029689 0.029378606 0.0126399845 -0.10677013 -0.06622917 -0.058391836 -0.0193714
-0.19413753 -0.21990056 -0.20125782 -0.22949906 -0.07273763 0.09630676 -0.2055019 -0.12765999
0.14254813 0.1937787 -0.09233389 -0.22167239 0.084468424 -0.15947597 -0.14296015 0.03963607
-0.076764196 0.17963178 -0.012137779 0.08786978 -0.04123021 0.053218894 0.26858646 0.10218506
-0.009771477 0.098112874 0.05157624 -0.25319046 0.14259306 -0.05584266 0.17326309 -0.08212422
0.00018624164 -0.01506861 0.03471231 -0.12632 -0.09772635 -0.2184168 -0.121764325 0.16636008
0.23265202 -0.046819028 0.02586215 0.017133832 -0.029047135 -0.11142051 0.05616297 -0.09422989
-0.022360545 0.10666022 0.10891546 0.15279357 -0.051091187 0.051232837 0.028949717 0.08544092
-0.1913748 0.2931742 0.13341264 -0.039778057 0.18697202 -0.22335112 -0.2793854 -0.14661531
-0.11944242 -0.12760186 0.09608119 -0.118293166 0.0493598 0.119152695 -0.070835955 0.0516019
0.06669074 -0.03938021 0.13803494 -0.059539944 0.12715909 0.2778762 -0.18879452 -0.13188991
-0.08803974 -0.015707197 0.15673676 0.25333306 0.113317154 -0.1147637 -0.10636188 -0.09644825
0.03127541 0.4054859 -0.08145044 -0.16117498 0.3040927 -0.14837334 -0.30625728 -0.115056604
00000000: 6cdd 483d c975 113e f55d 663e abee b73d
00000010: 20a5 de3d a6b6 2abe c035 85bd 9cbc 0a3e
00000020: 5f44 a6bd cab2 c3bd 009c 583d f24f 0bbe
00000030: bf8b 433e fac7 7f3d 7f32 04be 540e b7bd
00000040: 7468 643e 69d2 53bd 54ef 2cbd 8eb7 833d
00000050: 0a49 7fbc 5693 6ebe eaf5 393d d602 7d3c
00000060: 326d ba3d 63fe 1bbd 86bd dabd d706 95bc
00000070: d32e 7a3d 3cfe 6f3c f676 cdbd 465e 43be
00000080: 69f7 353d db56 823d 9e63 623e 8d2f 0a3e
00000090: 80a1 17be 4e5d 01bc 22ee bcbd 5ea0 0c3c
000000a0: 9b0b 7b3d 5967 38be 78c6 173c 309a 413c
000000b0: 4869 aebd 3f26 433c 874f 553d 0bb0 323c
000000c0: 11ca 69bd ea87 2d3e 59f0 60bd 43d0 0a3d
000000d0: fa1c 603e 5ca4 afbd 221c d93c e2ac 033e
000000e0: 3550 55bd dbca bfbd 005d 333e 41a0 6c3d
000000f0: a0eb bebd 515b 473e af95 c53d 3527 e23b
00000100: e5b1 15be 5868 da3c b42e f23d 3715 16be
00000110: d636 473d 1130 06be 4e69 1ebe 8d37 13bd
00000120: 6ee3 f53d 172d afbd a0ad 013d f04d 91bd
00000130: c122 533d c121 173e ed09 54be ce67 d33c
00000140: 6606 9ebd 4965 f3bd 5af4 fd3c e0ca 653e
00000150: c4ae 113e 26f1 633e bc33 2fbd 342c 1cbd
00000160: a9e2 f73d 406a e1bc c008 f63d b587 f43d
00000170: 8fb4 8b3d eb1b 07bc dd3c 1b3e 8ee4 1f3e
00000180: 58c4 f93d 3ff5 063d 3a78 6bbd 54b3 e1bc
00000190: 7013 a8bd 4a41 7cbe f6f8 223e 2751 0fbd
000001a0: 48c2 4f3e c056 afbd 3257 163e 04b4 4abe
000001b0: 1844 e13d ed75 963d dd70 cebd 175e 033e
000001c0: 8eb0 42be efe4 0f3d e1b4 a33e d81b 2ebe
000001d0: 10b8 923c 6770 d93d acf8 cf3c cba6 dd3d
000001e0: 5a20 1f3e 613f d53d 8250 debd 28d0 20be
000001f0: abfd 283d f4cc d23d c65f a7be 58b8 ff3d
00000200: d5c5 6ebe 8b2d 023d 65aa 033e 192d f4bd
00000210: e1da 1c3d 0757 93bd 3f03 903b e279 1abe
00000220: 7c57 c5bd f86f 283d 8332 1cbe 1c12 d2bd
00000230: 08fa dfbc f7e4 273e dbc8 cebd dad8 453e
00000240: a226 133e 90e6 703e 2149 9fbd 16f3 9b3d
00000250: 0fe6 3a3e bbcb 0b3e c3d5 67be 8413 afbb
00000260: cc8c 16be 1d04 4ebd 67ab f03c f017 4f3c
00000270: 4caa dabd 29a3 87bd 472c 6fbd c5b0 9ebc
00000280: fdcb 46be 9d2d 61be 8816 4ebe cd01 6bbe
00000290: 77f7 94bd 7b3c c53d 176f 52be 4db9 02be
000002a0: 23f8 113e ec6d 463e 8d19 bdbd 16fe 62be
000002b0: c8fd ac3d ab4d 23be 2564 12be 6f59 223d
000002c0: 8c36 9dbd 65f1 373e 89dd 46bc 12f5 b33d
000002d0: 02e1 28bd 0efc 593d 2a84 893e 6746 d13d
000002e0: 8c18 20bc 67ef c83d 9c41 533d 2ea2 81be
000002f0: ea03 123e 46bb 64bd e16b 313e be30 a8bd
00000300: dc49 4339 55e2 76bc 7f2e 0e3d 085a 01be
00000310: c124 c8bd a7a8 5fbe 935f f9bd 4c5a 2a3e
00000320: 553c 6e3e 4fc5 3fbd dcdc d33c 405c 8c3c
00000330: 42f4 edbc 7030 e4bd 240b 663d 9afb c0bd
00000340: 762d b7bc ac70 da3d 120f df3d eb75 1c3e
00000350: fe44 51bd 86d9 513d f527 ed3c a6fb ae3d
00000360: c1f7 43be ee1a 963e 539d 083e 51ee 22bd
00000370: 9875 3f3e 28b6 64be 9a0b 8fbe 5322 16be
00000380: 3a9e f4bd 10aa 02be 37c6 c43d b043 f2bd
00000390: 802d 4a3d 5406 f43d 7112 91bd 845c 533d
000003a0: 2895 883d 254d 21bd 0859 0d3e 28e0 73bd
000003b0: fe35 023e ca45 8e3e 5a53 41be 260e 07be
000003c0: 2e4e b4bd 61ac 80bc 9a7f 203e dfb4 813e
000003d0: d312 e83d 3b09 ebbd 42d4 d9bd a986 c5bd
000003e0: a51a 003d d99b cf3e 7dcf a6bd 0e0b 25be
000003f0: 0ab2 9b3e 2eef 17be c1cd 9cbe cca2 ebbd

embedder.rnn.weight_hh_l1 f4 [72, 24]
0.13123497 0.12531553 -0.19575617 0.1020373 0.20534843 -0.1960968 -0.059335567 0.086670056
0.13359927 0.15493307 -0.20311026 -0.25091246 -0.00074975006 0.006509551 0.14212441 -0.10766949
-0.021038847 0.19296709 -0.14067142 0.13693997 -0.008749848 -0.11355675 0.1375536 -0.14716735
-0.1518838 -0.009370346 -0.15522242 -0.20084557 -0.05256897 -0.04944179 0.008195926 -0.0096385265
-0.10011134 0.03537909 0.21427445 -0.20089523 0.061522994 -0.048286606 -0.067489594 0.249758
0.103692144 0.0034555078 -0.1399453 0.17991878 0.23429385 0.08372513 0.26203895 0.046224017
0.2727321 0.09863564 0.13852847 -0.0017269042 -0.086678594 -0.12242997 0.004506476 0.24221511
-0.11210391 0.025264276 0.08392913 0.017220698 -0.067041844 0.05278859 -0.15983693 -0.22793639
0.18418168 -0.3050738 0.113039345 -0.054049127 0.0026539464 0.04487328 -0.06941387 -0.0439485
0.025382174 0.3215163 0.07116383 0.12620158 -0.026978 -0.07508618 0.059431396 0.21424775
-0.31740928 0.07107199 -0.20604111 -0.06245273 0.2710338 0.03323792 -0.0065775723 0.04377743
0.23603976 0.044409476 -0.09073974 -0.2326775 -0.23823673 0.28120035 -0.24022041 0.19495991
-0.3531051 -0.23335056 -0.22660969 0.062302835 -0.12562536 -0.12304777 0.28083885 0.12684417
-0.069920465 -0.15821783 0.2265644 -0.27673307 0.10280446 -0.17310211 -0.23822302 0.0049522026
-0.011592756 0.027864853 0.007607403 -0.057049856 0.13206412 -0.10239364 0.28413853 -0.21416333
-0.11727686 0.28246048 0.0879951 -0.0939706 0.045027517 -0.07114577 -0.067225605 0.25596225
-0.024531467 0.1152985 -0.09705754 0.065744005 0.17712432 -0.039437357 0.16483203 -0.0065169274
-0.102450974 0.11102792 -0.24784496 -0.07836893 -0.10510089 0.2972754 -0.21291809 0.054457754
0.13942628 0.06902689 0.0044387346 0.050244987 0.108038746 0.21800259 0.013831279 0.16250144
0.099928215 0.15379727 0.10518625 -0.13076997 0.15458322 0.08603096 -0.01594931 -0.19383793
0.059271622 -0.09763492 -0.04212586 -0.10425406 0.06407906 0.014389766 -0.22994342 -0.08672056
0.006695525 0.20522703 0.26870677 0.050212327 -0.0035983266 -0.014669609 -0.23156704 0.13534582
-0.15576369 0.10809708 0.11043749 -0.05980396 0.2056464 0.012394747 0.14466715 -0.04491423
0.0010717345 0.12805223 -0.012262346 -0.069621645 0.13896821 0.22806183 -0.08300819 0.12118894
0.018934093 0.014160871 0.0903147 -0.023563685 0.03889303 0.17090462 0.10640301 0.070077024
-0.15668538 -0.06997783 0.027163181 -0.02050916 -0.16546182 -0.040911168 -0.088993855 -0.124047264
0.20850603 -0.1255241 -0.12559934 0.079022184 -0.026889728 0.09731978 -0.16350754 -0.12595412
-0.0450549 0.20594107 0.20686768 0.009057097 -0.10017471 -0.08836801 -0.18749869 -0.027973313
-0.12205762 -0.061430424 0.105891936 0.084379874 0.04838759 0.085677594 0.036342733 -0.033528827
0.13021438 -0.18318349 -0.19207561 -0.2613075 -0.11097221 0.15082712 -0.09778324 0.19668598
-0.1677705 0.19713825 0.122753516 -0.034458302 0.028859787 -0.1360854 0.10580695 -0.10275821
0.10936379 0.08493549 -0.034086417 0.052243095 -0.15823404 0.03273067 -0.27387977 0.14866312
00000000: 7662 063e b752 003e 4e74 48be eff8 d03d
00000010: dc46 523e 99cd 48be da09 73bd 1280 b13d
00000020: 3fce 083e c6a6 1e3e 23fc 4fbe 9977 80be
00000030: e08a 44ba 124e d53b 1089 113e d281 dcbd
00000040: a959 acbc 2a99 453e 2b0c 10be fe39 0c3e
00000050: 865b 0fbc 7190 e8bd dada 0c3e 0ab3 16be
00000060: 6d87 1bbe 1486 19bc a0f2 1ebe 76aa 4dbe
00000070: 8f52 57bd 7983 4abd 3548 063c e9ea 1dbc
00000080: 2d07 cdbd aae9 103d c36a 5b3e 7bb7 4dbe
00000090: 89ff 7b3d 2dc8 45bd fc37 8abd 90c0 7f3e
000000a0: 8c5c d43d cd75 623b d24d 0fbe a13c 383e
000000b0: baea 6f3e 1578 ab3d f829 863e 6555 3d3d
000000c0: 8ba3 8b3e 7c01 ca3d 68da 0d3e 4a59 e2ba
000000d0: 8c84 b1bd 90bc fabd 10ab 933b 3d07 783e
000000e0: bc96 e5bd 07f7 ce3c 09e3 ab3d 6c12 8d3c
000000f0: 3c4d 89bd d938 583d 4bac 23be 2868 69be
00000100: 1f9a 3c3e a232 9cbe 2c81 e73d 9e62 5dbd
00000110: d5ed 2d3b 0bcd 373d dc28 8ebd 5803 34bd
00000120: 47ee cf3c c99d a43e 58be 913d fd3a 013e
00000130: f700 ddbc c8c6 99bd 566e 733d c363 5b3e
00000140: 7883 a2be 318e 913d 71fc 52be 6fce 7fbd
00000150: f1c4 8a3e 7c24 083d ad88 d7bb f64f 333d
00000160: 68b4 713e b6e6 353d c2d5 b9bd 0343 6ebe
00000170: 54f4 73be 7ef9 8f3e 57fc 75be 92a3 473e
00000180: 31ca b4be 73f3 6ebe 5f0c 68be 4231 7f3d
00000190: efa3 00be 7800 fcbd 1cca 8f3e 70e3 013e
000001a0: 7632 8fbd db03 22be 8000 683e f5af 8dbe
000001b0: 258b d23d ae41 31be bcf0 73be 1646 a23b
000001c0: 8bef 3dbc d544 e43c 8647 f93b 1cad 69bd
000001d0: d13b 073e c2b3 d1bd 9b7a 913e a24d 5bbe
000001e0: da2e f0bd a99e 903e c636 b43d a873 c0bd
000001f0: c66e 383d e0b4 91bd 94ad 89bd 7c0d 833e
00000200: 37f6 c8bc 9f21 ec3d 1bc6 c6bd cba4 863d
00000210: 1460 353e 1189 21bd bac9 283e f38b d5bb
00000220: d1d1 d1bd 9b62 e33d 12cb 7dbe e47f a0bd
00000230: 233f d7bd 7b34 983e 3307 5abe 180f 5f3d
00000240: c3c5 0e3e f85d 8d3d ce72 913b b0cd 4d3d
00000250: 6b43 dd3d 123c 5f3e 979c 623c c766 263e
00000260: 2aa7 cc3d 087d 1d3e e36b d73d 90e8 05be
00000270: 104b 1e3e 0031 b03d 21a8 82bc 737d 46be
00000280: cdc6 723d d1f4 c7bd 2a8c 2cbd 2783 d5bd
00000290: e23b 833d 0ec3 6b3c 4a76 6bbe 8d9a b1bd
000002a0: 2266 db3b 0927 523e ef93 893e 71ab 4d3d
000002b0: e7d1 6bbb cd58 70bc e91f 6dbe 1898 0a3e
000002c0: 8480 1fbe 0062 dd3d 0d2d e23d fff4 74bd
000002d0: f894 523e 5613 4b3c a023 143e fcf7 37bd
000002e0: 7179 8c3a 2020 033e 02e8 48bc cb95 8ebd
000002f0: af4d 0e3e 0a89 693e 3300 aabd e831 f83d
00000300: ac1b 9b3c ff02 683c eaf6 b83d a108 c1bc
00000310: 4c4e 1f3d 9f01 2f3e d2e9 d93d 8b84 8f3d
00000320: 2272 20be 8950 8fbd 5285 de3c d302 a8bc
00000330: d36e 29be 7892 27bd 6942 b6bd 7e0c febd
00000340: 9b82 553e 6489 00be 1d9d 00be 62d6 a13d
00000350: d947 dcbc 984f c73d 856e 27be 1efa 00be
00000360: 7d8b 38bd 37e2 523e 1fd5 533e 3864 143c
00000370: 6628 cdbd 4afa b4bd a8ff 3fbe 4a28 e5bc
00000380: 58f9 f9bd 789e 7bbd dfdd d83d 5bcf ac3d
00000390: 1132 463d bc77 af3d 1edc 143d 8655 09bd
000003a0: eb56 053e 7494 3bbe 78af 44be 19ca 85be
000003b0: 6645 e3bd 6d72 1a3e 9442 c8bd 0d68 493e
000003c0: 08cc 2bbe 9cde 493e 3266 fb3d 2624 0dbd
000003d0: 5c6b ec3c f959 0bbe 50b1 d83d e572 d2bd
000003e0: 1ffa df3d a8f2 ad3d 339e 0bbd dbfc 553d
000003f0: 1b08 22be 9810 063d f839 8cbe 253b 183e

embedder.rnn.bias_ih_l1 f4 [72]
0.09177974 -0.076472074 0.05937432 -0.03627737 0.20188387 -0.020746928 0.20184076 -0.11711112
-0.108088255 -0.09728093 -0.027851915 -0.02911082 0.052205637 0.1885018 0.12856834 0.034991972
-0.13700518 -0.006827328 0.28672853 0.08485281 0.032896042 0.017473789 0.23311101 -0.017101662
-0.13243374 -0.079940595 -0.24145974 -0.3349176 -0.51776856 -0.42471868 -0.19848043 -0.4057447
-0.29214275 -0.36684904 -0.08129296 -0.26253146 0.027873762 -0.20313995 -0.25473705 -0.06516674
-0.16308041 -0.21904647 -0.12410791 -0.17067765 -0.14653188 -0.20561633 -0.29545796 0.034326296
0.11802192 -0.010695661 0.03249197 -0.13500832 -0.2911253 0.24816751 0.20179208 0.05469891
-0.04326522 0.14775342 -0.06974313 -0.047014922 0.01621712 -0.07303074 -0.04933278 0.18154407
-0.03816599 -0.056093715 -0.17282985 -0.15468612 0.13216801 0.118191995 -0.18770398 -0.14954786
00000000: 04f7 bb3d 649d 9cbd 7d32 733d 9497 14bd
00000010: a5ba 4e3e 76f5 a9bc 58af 4e3e f4d7 efbd
00000020: 605d ddbd 393b c7bd b329 e4bc d079 eebc
00000030: 94d5 553d 9e06 413e 6ba7 033e be53 0f3d
00000040: 164b 0cbe c7b7 dfbb 15ce 923e 4fc7 ad3d
00000050: 00be 063d 3125 8f3c a7b4 6e3e c918 8cbc
00000060: b69c 07be e5b7 a3bd 3941 77be 527a abbe
00000070: 7b8c 04bf ba74 d9be 743e 4bbe c5bd cfbe
00000080: bc93 95be a3d3 bbbe ec7c a6bd 866a 86be
00000090: 8457 e43c eb03 50be e56c 82be 2476 85bd
000000a0: 8dfe 26be b84d 60be 4a2c febd 1fc6 2ebe
000000b0: 740c 16be 168d 52be 4446 97be bb99 0c3d
000000c0: 7ab5 f13d db3c 2fbc 4d16 053d 9f3f 0abe
000000d0: 600e 95be a01f 7e3e 95a2 4e3e f70b 603d
000000e0: df36 31bd ac4c 173e 7cd5 8ebd b892 40bd
000000f0: c4d9 843c 2491 95bd 2b11 4abd b0e6 393e
00000100: f153 1cbd 86c2 65bd 4ffa 30be 0a66 1ebe
00000110: 0d57 073e a50e f23d 7935 40be 1323 19be

embedder.rnn.bias_hh_l1 f4 [72]
-0.23399526 -0.18173878 -0.040066317 -0.12653941 -0.08466129 -0.0087411115 0.000698862 0.088888034
-0.072798654 -0.06321616 0.21671923 0.16580775 -0.017004512 0.20761988 0.120829806 0.022400437
0.020875828 0.06527679 -0.054745916 -0.029934138 -0.113838375 -0.07628334 -0.034977585 -0.19155249
-0.30046752 -0.111040264 0.011911483 -0.05787425 -0.3418627 -0.5533982 -0.23723687 -0.29434085
-0.06370371 -0.13797641 -0.19387254 -0.26684347 -0.2969891 -0.13225932 -0.11608489 -0.25897828
-0.2816056 -0.07163543 0.024459314 -0.0428805 -0.06316518 -0.33587584 -0.15983166 -0.2467667
-0.15055376 0.14744009 -0.05523528 0.20454195 -0.31900358 0.22176492 -0.0340689 -0.01815623
0.12135972 -0.043898612 0.09296395 -0.028443675 0.19459459 -0.04639198 -0.14665318 -0.12777336
0.21330106 -0.00095839245 -0.23240857 0.16297552 0.035111926 -0.039857734 0.041695755 0.15114443
00000000: 749c 6fbe bb19 3abe 941c 24bd 8c93 01be
00000010: e662 adbd e136 0fbc d633 373a ee0a b63d
00000020: 7617 95bd 7977 81bd a5eb 5d3e 82c9 293e
00000030: 0c4d 8bbc 4e9a 543e 9e75 f73d 1f81 b73c
00000040: c903 ab3c d6af 853d 413d 60bd 7038 f5bc
00000050: 1824 e9bd 713a 9cbd a844 0fbd 5626 44be
00000060: e1d6 99be 1469 e3bd 6128 433c 8d0d 6dbd
00000070: a108 afbe 81ab 0dbf 39ee 72be d8b3 96be
00000080: 1777 82bd b049 0dbe 8686 46be b59f 88be
00000090: f50e 98be fd6e 07be eabd edbd cd98 84be
000000a0: 9c2e 90be 99b5 92bd e65e c83c 77a3 2fbd
000000b0: bf5c 81bd ebf7 abbe e9aa 23be 69b0 7cbe
000000c0: c42a 1abe 89fa 163e 643e 62bd 7273 513e
000000d0: 7054 a3be 5816 633e d58b 0bbd 60bc 94bc
000000e0: 728b f83d 08cf 33bd e263 be3d b602 e9bc
000000f0: ce43 473e 8405 3ebd 402c 16be 05d7 02be
00000100: 986b 5a3e a13c 7bba 83fc 6dbe 0ee3 263e
00000110: 86d1 0f3d dd41 23bd 2bc9 2a3d 9bc5 1a3e

embedder.rnn.weight_ih_l2 f4 [72, 24]
-0.19811614 0.10116766 -0.15524526 0.028259218 -0.10743738 0.20386873 -0.008676249 -0.04959643
-0.13333368 -0.0792278 -0.0033766823 0.049929865 -0.13771968 0.10203478 -0.0770553 -0.10880846
0.155271 -0.11918628 -0.21537517 -0.13829495 0.009203358 0.1473893 0.058129862 -0.09705601
-0.056736805 -0.15100864 0.09376232 0.14163753 0.028181745 -0.122268595 0.04616287 0.17611262
-0.124675296 -0.090173446 -0.09283854 -0.16855176 0.038755957 -0.0502445 -0.15356973 0.12809865
0.02409983 -0.043522008 -0.054218993 0.031884957 -0.22324185 -0.10884161 -0.15022108 0.031716608
-0.044761524 0.0650774 -0.10476716 0.07037458 0.1617986 -0.09304239 -0.0387331 0.21239038
-0.19985917 0.05950459 0.0005915806 0.077507384 0.2612615 -0.07517545 -0.076010145 -0.064895436
0.23417972 0.12019797 -0.17064475 0.075430736 -0.036706615 -0.013372273 -0.21218169 0.17979264
0.2838255 0.14859125 0.25816 0.1596123 0.1511134 -0.09415414 -0.2392603 0.045147534
-0.05510212 -0.020823436 -0.14889438 0.17621312 0.31441888 0.07161741 0.19228467 0.13023186
0.06806803 -0.011374218 -0.32989937 -0.07464453 -0.17330086 0.31903005 -0.20548315 -0.06549712
-0.023087133 0.064381704 0.114723645 0.06618462 -0.08818634 0.16343525 0.015205326 -0.041069567
-0.091928996 -0.12290878 0.058778346 0.021721344 -0.0466857 -0.15835068 0.07122891 0.0073373234
0.16606423 0.08782687 0.00046582695 0.05480656 -0.07294707 -0.07350267 -0.1876358 -0.1443155
0.17719923 0.17143291 -0.056318924 0.17670855 -0.17174211 0.16094482 0.08808571 0.09648887
0.09122952 -0.09764184 0.12532812 0.09033864 -0.1103897 0.006064324 -0.08193295 0.21224223
0.19566454 0.15753411 -0.09796763 -0.13414142 -0.021473397 -0.10787619 0.04047325 -0.08809052
0.19320425 -0.09322617 0.12635383 0.09065396 0.08825841 0.031166494 -0.20621572 0.0869143
-0.12664266 -0.12515609 0.096761666 0.09630189 -0.020591045 0.02291248 -0.19503114 0.08523646
0.077065736 0.05001484 -0.0027307111 0.06428831 0.071837395 0.21533515 -0.07396481 0.046269506
-0.07071763 -0.11172292 -0.19991754 0.03308245 0.08175319 -0.11426836 0.051580887 -0.07655227
-0.074414805 -0.1840543 -0.13982116 0.107568495 0.11749193 -0.13880855 -0.25537384 -0.16321157
0.17395733 0.15822613 0.040099435 0.15885222 -0.09966886 0.17273088 -0.031688195 -0.04538179
0.12531133 0.12635103 0.1676044 0.035270363 0.18135786 0.21252899 -0.18806423 0.09345049
0.17366745 -0.19034405 -0.16449375 0.08075296 -0.10770462 -0.11685574 -0.0840577 0.0541136
-0.1634906 0.16110402 -0.23760553 -0.14809744 0.02004256 0.08289906 -0.15612009 -0.1208741
-0.083975665 0.16196434 0.22274292 -0.10384366 0.070659466 -0.018133689 -0.2520485 0.1833493
-0.2792354 0.071959384 -0.090380296 0.2262864 -0.014677674 0.28383097 -0.091873266 0.12450252
-0.011754909 0.032860678 -0.16491511 -0.16833812 0.11915325 0.1329076 -0.08411023 -0.097411945
0.23499088 -0.17513509 0.013378879 0.2098985 0.22529297 -0.123252295 -0.18116383 -0.010201947
0.08517182 -0.061532162 -0.25016195 0.15134014 0.06788457 0.14633249 -0.004881968 -0.1996742
00000000: f5de 4abe fd30 cf3d 9df8 1ebe e07f e73c
00000010: 2108 dcbd f7c2 503e d326 0ebc a025 4bbd
00000020: a088 08be 2f42 a2bd 544b 5dbb 4283 4c3d
00000030: 6306 0dbe 9cf7 d03d 2bcf 9dbd f8d6 debd
00000040: 5cff 1e3e f017 f4bd 4f8b 5cbe 319d 0dbe
00000050: aec9 163c 38ed 163e 9419 6e3d 4dc5 c6bd
00000060: da64 68bd 02a2 1abe 7606 c03d 6e09 113e
00000070: 67dd e63c f567 fabd 4715 3d3d de56 343e
00000080: c355 ffbd dbac b8bd 2222 bebd d598 2cbe
00000090: 91be 1e3d 2dcd 4dbd 6241 1dbe 4b2c 033e
000000a0: 026d c53c 2244 32bd bc14 5ebd cd99 023d
000000b0: 8399 64be 5ae8 debd 8ed3 19be 46e9 013d
000000c0: dc57 37bd 4d47 853d 2a90 d6bd 8c20 903d
000000d0: 88ae 253e 028d bebd 99a6 1ebd dd7c 593e
000000e0: e2a7 4cbe 16bb 733d 4d14 1b3a 31bc 9e3d
000000f0: 11c4 853e 96f5 99bd 35ab 9bbd e6e7 84bd
00000100: cfcc 6f3e 5a2a f63d 7fbd 2ebe 6e7b 9a3d
00000110: ad59 16bd 6117 5bbc 2846 59be 901b 383e
00000120: 9351 913e 4e28 183e 8c2d 843e 6871 233e
00000130: 79bd 1a3e e3d3 c0bd a700 75be 9fec 383d
00000140: c3b2 61bd e995 aabc c577 18be 3671 343e
00000150: 83fb a03e 26ac 923d 46e6 443e 805b 053e
00000160: 4067 8b3d ee5a 3abc 92e8 a8be 3bdf 98bd
00000170: c875 31be e857 a33e 2d6a 52be 5b23 86bd
00000180: 3a21 bdbc 8eda 833d 3bf4 ea3d cd8b 873d
00000190: 0a9b b4bd 925b 273e c21f 793c 9038 28bd
000001a0: 4545 bcbd 99b7 fbbd 90c1 703d f6f0 b13c
000001b0: 8139 3fbd ae26 22be 76e0 913d ee6d f03b
000001c0: be0c 2a3e 93de b33d 3c3a f439 d87c 603d
000001d0: 4665 95bd 9188 96bd 9923 40be 71c7 13be
000001e0: b773 353e 1c8c 2f3e acae 66bd 16f3 343e
000001f0: 2add 2fbe b8ce 243e 4866 b43d f59b c53d
00000200: 8bd6 ba3d 72f8 c7bd 0456 003e 7703 b93d
00000210: ff13 e2bd 3db7 c63b 76cc a7bd 0756 593e
00000220: 495c 483e 9f50 213e 41a3 c8bd 5e5c 09be
00000230: fae8 afbc 31ee dcbd 47c7 253d cd68 b4bd
00000240: 56d7 453e 5ded bebd e662 013e c9a8 b93d
00000250: d3c0 b43d e050 ff3c 372a 53be 2000 b23d
00000260: 9dae 01be eb28 00be fb2a c63d ed39 c53d
00000270: 8dae a8bc f4b2 bb3c 3eb6 47be 7490 ae3d
00000280: a4d4 9d3d 5cdc 4c3d bbf5 32bb 97a9 833d
00000290: 7c1f 933d d180 5c3e dd7a 97bd 1885 3d3d
000002a0: 68d4 90bd fcce e4bd 2fb7 4cbe 7781 073d
000002b0: 376e a73d 8805 eabd 7b46 533d 70c7 9cbd
000002c0: ca66 98bd bb78 3cbe 472d 0fbe df4c dc3d
000002d0: 9c9f f03d d423 0ebe 5cc0 82be ef20 27be
000002e0: df21 323e 0806 223e 4e3f 243d 28aa 223e
000002f0: 301f ccbd 5de0 303e 7bcb 01bd 41e2 39bd
00000300: 9d51 003e 2a62 013e 7da0 2b3e a877 103d
00000310: e0b5 393e 33a1 593e e993 40be f862 bf3d
00000320: e1d5 313e 8de9 42be 0d71 28be cf61 a53d
00000330: 3d94 dcbd 1052 efbd 7226 acbd 39a6 5d3d
00000340: 146a 27be 74f8 243e dd4e 73be dba6 17be
00000350: 4b30 a43c fbc6 a93d f2dd 1fbe d78c f7bd
00000360: 6ffb abbd fbd9 253e b816 643e fcab d4bd
00000370: e9b5 903d 1a8d 94bc 800c 81be ebbf 3b3e
00000380: f1f7 8ebe 715f 933d 4e19 b9bd 9fb7 673e
00000390: a07a 70bc 4b52 913e 0d28 bcbd 2dfb fe3d
000003a0: a997 40bc eb98 063d 82df 28be d460 2cbe
000003b0: 9e06 f43d ee18 083e fc41 acbd ea7f c7bd
000003c0: 73a1 703e 9d56 33be 1633 5b3c a2ef 563e
000003d0: 33b3 663e b36b fcbd 0383 39be 1126 27bc
000003e0: 906e ae3d 2609 7cbd 3a15 80be e9f8 1a3e
000003f0: 1107 8b3d 2fd8 153e eaf8 9fbb 6577 4cbe

embedder.rnn.weight_hh_l2 f4 [72, 24]
-0.15598512 0.12843823 -0.07541211 -0.03824629 0.016446102 -0.15035182 0.16425683 -0.036133185
-0.08322332 0.14346291 -0.16152516 -0.120585926 0.17984286 0.010665807 0.14162277 0.03971599
-0.08866201 0.022325948 -0.1087167 0.06313886 -0.16834329 -0.1473729 -0.13409871 0.18161723
-0.2659444 -0.100546144 -0.19262947 0.010280803 0.12543114 -0.12001739 0.036366165 0.16681518
0.07905902 -0.13378015 -0.21288835 -0.26696005 -0.10038068 -0.406569 -0.114977814 -0.091946885
-0.23894227 0.05275383 -0.031969707 0.1331165 0.10301122 0.1218383 0.12403977 -0.064887725
-0.013006408 0.27146903 -0.2586204 -0.022219252 0.18765695 0.006999814 -0.00077010755 0.030983225
0.2655936 -0.11862082 0.026988419 -0.2282451 0.05077142 -0.12773345 -0.26656556 -0.26287082
-0.12634099 0.19417074 -0.047982015 -0.2710291 -0.013342875 0.15031356 0.18808748 0.040396154
-0.32761708 0.3309922 -0.18389425 -0.026940448 0.0041045872 -0.07013539 0.241555 -0.008808704
0.10979094 -0.057777267 -0.20652053 -0.0730526 -0.1598146 -0.20691696 -0.25384748 -0.07379688
-0.18784916 0.29516193 0.023296457 0.00010788924 0.16239253 0.28256664 0.24688049 0.10651068
-0.2424574 -0.023008723 0.1607913 0.13806981 0.08828365 0.07025984 0.031993385 -0.060812224
0.14847773 -0.10270913 -0.16687629 -0.24786057 0.09086258 -0.0403237 -0.05198286 -0.0473062
0.066770755 -0.06549012 -0.011934638 -0.1376379 0.104109526 0.01988905 -0.12324826 0.154207
-0.17377977 0.11384293 0.038191393 -0.020516926 -0.097569 -0.022934893 0.21535793 0.036389265
0.036527976 0.117540404 -0.17574349 -0.3072987 0.2540693 0.17103899 -0.15367815 -0.15722103
0.123216845 -0.011205045 0.1410631 -0.10399178 0.12275326 0.16744436 0.038318463 0.012486139
0.05519371 -0.11863378 -0.17387956 -0.00049482955 0.15212645 -0.21796529 0.15420365 0.19987763
0.13979614 0.25433263 -0.26215962 -0.188051 0.13421358 -0.15955311 -0.0391319 -0.22830485
0.035538252 0.014839434 0.081402995 0.03776811 0.0147598 0.18050948 0.025368923 0.23250987
-0.064410575 0.19638097 -0.14358759 0.13219367 0.0048221485 0.027303074 0.27743626 0.05576656
0.19373825 0.08099581 -0.10465316 -0.03676657 0.12931895 -0.24196295 -0.22920391 0.06878332
-0.09557996 0.031140959 0.2685259 0.115010336 0.07385502 -0.10925977 -0.0692871 -0.011588279
-0.24806906 0.072553866 0.115783334 0.068423234 0.08499675 -0.17015894 0.19457078 -0.033825696
0.023410596 0.12912306 -0.1574825 -0.063991316 -0.095916614 -0.03841725 -0.16618647 -0.07278287
0.1588204 0.056579303 -0.12064217 -0.008310048 0.10059964 -0.014155267 0.0065767504 -0.117188156
-0.21481872 -0.05779212 -0.25449994 0.13749585 0.029487105 0.019324847 0.03702071 0.21332607
0.18023907 0.037048817 -0.22848095 -0.1384235 -0.05641852 0.072353356 -0.12455192 -0.08852018
0.009523251 0.015478152 0.14148729 0.081873894 0.17636205 0.037304897 -0.0884436 0.2197048
-0.22014186 0.12748976 -0.06044019 0.18059625 0.20475674 -0.2513709 0.0053820987 -0.10417381
0.12411654 0.06827046 -0.036859196 -0.036820102 0.16068512 0.0026210356 -0.25086415 -0.0463476
00000000: 90ba 1fbe 5085 033e aa71 9abd 24a8 1cbd
00000010: fab9 863c d4f5 19be f132 283e 6400 14bd
00000020: fd70 aabd f1e7 123e da66 25be c1f5 f6bd
00000030: ba28 383e a3bf 2e3c 8f05 113e 3cad 223d
00000040: 6e94 b5bd e8e4 b63c dca6 debd f24e 813d
00000050: 2f62 2cbe ece8 16be 2c51 09be def9 393e
00000060: dd29 88be 23eb cdbd a940 45be d070 283c
00000070: 0571 003e adcb f5bd b0f4 143d 99d1 2a3e
00000080: b2e9 a13d aafd 08be 67ff 59be fdae 88be
00000090: 6394 cdbd d029 d0be 7d79 ebbd a64e bcbd
000000a0: 48ad 74be 6614 583d abf2 02bd b14f 083e
000000b0: 8cf7 d23d 5c86 f93d 9008 fe3d dbe3 84bd
000000c0: d418 55bc fdfd 8a3e e569 84be 2605 b6bc
000000d0: 2529 403e b25e e53b 0be1 49ba 88d0 fd3c
000000e0: e2fb 873e 79ef f2bd d116 dd3c 15b9 69be
000000f0: b1f5 4f3d 8fcc 02be 487b 88be 0197 86be
00000100: 885f 01be b2d4 463e ca88 44bd 54c4 8abe
00000110: 139c 5abc cceb 193e 019a 403e 7076 253d
00000120: 6dbd a7be cf77 a93e c64e 3cbe 37b2 dcbc
00000130: c67f 863b 25a3 8fbd 325a 773e 6252 10bc
00000140: 13da e03d dba7 6cbd 1e7a 53be 9a9c 95bd
00000150: 70a6 23be 0ae2 53be 4cf8 81be d222 97bd
00000160: 885b 40be 771f 973e 36d8 be3c 9842 e238
00000170: 3a4a 263e 93ac 903e 3dce 7c3e 4522 da3d
00000180: c146 78be ca7c bcbc 79a6 243e 2c62 0d3e
00000190: 0fce b43d 64e4 8f3d 7f0b 033d 3d16 79bd
000001a0: 8c0a 183e 2a59 d2bd 9ee1 2abe 29cf 7dbe
000001b0: 2916 ba3d 772a 25bd fbeb 54bd 25c4 41bd
000001c0: 1bbf 883d af1f 86bd 8089 43bc f3f0 0cbe
000001d0: 6037 d53d 5cee a23c 9569 fcbd 71e8 1d3e
000001e0: 53f3 31be 7b26 e93d 946e 1c3d 1d13 a8bc
000001f0: 42d2 c7bd f5e1 bbbc ca86 5c3e e90c 153d
00000200: 5c9e 153d 06b9 f03d 1af6 33be 4156 9dbe
00000210: 5f15 823e d824 2f3e ce5d 1dbe 8dfe 20be
00000220: 1d59 fc3d 5d95 37bc d872 103e a4f9 d4bd
00000230: 1066 fb3d 8976 2b3e d2f3 1c3d aa92 4c3c
00000240: cd12 623d 44f6 f2bd 7c0d 32be 73b7 01ba
00000250: 09c7 1b3e 4b32 5fbe 90e7 1d3e b9ac 4c3e
00000260: b826 0f3e e337 823e c939 86be 7190 40be
00000270: 496f 093e e461 23be c548 20bd bfc8 69be
00000280: 8f90 113d 1921 733c 9db6 a63d bcb2 1a3d
00000290: 17d3 713c 7ad7 383e 7dd2 cf3c 1117 6e3e
000002a0: b1e9 83bd 1818 493e a008 13be c75d 073e
000002b0: 1d03 9e3b b2aa df3c 200c 8e3e 7a6b 643d
000002c0: 5263 463e 22e1 a53d 6554 d6bd 8b98 16bd
000002d0: 306c 043e 23c5 77be 6eb4 6abe 45de 8c3d
000002e0: 6dbf c3bd 531b ff3c 3a7c 893e 8a8a eb3d
000002f0: 4d41 973d 96c3 dfbd 65e6 8dbd c4dc 3dbc
00000300: d105 7ebe 1f97 943d d01f ed3d 7b21 8c3d
00000310: c712 ae3d 253e 2ebe 903d 473e d08c 0abd
00000320: 94c7 bf3c d638 043e 1843 21be e10d 83bd
00000330: ee6f c4bd 685b 1dbd c92c 2abe 2f0f 95bd
00000340: d1a1 223e b3bf 673d 3e13 f7bd de26 08bc
00000350: 2f07 ce3d 7eeb 67bc c881 d73b 5800 f0bd
00000360: 70f9 5bbe 6eb7 6cbd d14d 82be b6cb 0c3e
00000370: f18e f13c 244f 9e3c 07a3 173d 2672 5a3e
00000380: 9790 383e 80c0 173d e9f6 69be e4be 0dbe
00000390: 1b17 67bd ff2d 943d 1415 ffbd 114a b5bd
000003a0: 6907 1c3c 1398 7d3c 0be2 103e 80ad a73d
000003b0: 4198 343e 05cd 183d eb21 b5bd 4cfa 603e
000003c0: de6c 61be ad8c 023e 2290 77bd 39ee 383e
000003d0: c0ab 513e b0b3 80be 515c b03b 1459 d5bd
000003e0: d030 fe3d 62d1 8b3d abf9 16bd add0 16bd
000003f0: a48a 243e aec5 2b3b 4471 80be fbd6 3dbd

embedder.rnn.bias_ih_l2 f4 [72]
-0.022397827 0.1095511 0.1707904 -0.02915527 0.22703613 -0.084259115 0.18033817 0.25502586
-0.14519273 -0.061967812 -0.15583111 -0.052822556 -0.016809318 0.2004554 -0.0740979 0.061389133
0.17616571 0.16429919 0.093145 -0.1795074 0.13819447 -0.15210375 0.08014638 0.09179452
-0.16293651 -0.13155822 -0.4589049 -0.15044434 -0.21015348 -0.45320612 -0.45657915 -0.32261544
-0.41190568 -0.32355148 -0.16861922 -0.3326343 -0.06881205 0.29506695 -0.46399137 -0.48104227
-0.1987035 -0.30926755 -0.2621476 -0.33513656 -0.258667 -0.21637073 -0.20414476 -0.4413495
0.038764395 0.10882085 -0.009810595 0.15309182 -0.07641414 -0.06228504 0.06582724 -0.1043077
-0.08670812 -0.09069272 -0.17853674 0.17699169 0.24752963 -0.131646 -0.034182597 0.064255856
0.012410735 0.077912144 0.09769494 -0.17181534 0.18587293 0.10771722 0.05739475 -0.1324818
00000000: a67b b7bc 545c e03d aee3 2e3e 08d7 eebc
00000010: 297c 683e 0b90 acbd 92aa 383e c092 823e
00000020: 67ad 14be f6d1 7dbd 3192 1fbe 775c 58bd
00000030: b2b3 89bc 2e44 4d3e a4c0 97bd 2c73 7b3d
00000040: c964 343e 0c3e 283e cec2 be3d cad0 37be
00000050: da82 0d3e 16c1 1bbe c923 a43d c4fe bb3d
00000060: d4d8 26be 33b7 06be 95f5 eabe 150e 1abe
00000070: 7932 57be a20a e8be bec4 e9be da2d a5be
00000080: 4de5 d2be 8aa8 a5be 84aa 2cbe 0b4f aabe
00000090: 55ed 8cbd 0413 973e 4790 edbe 2c4b f6be
000000a0: ee78 4bbe 5158 9ebe 3638 86be 0597 abbe
000000b0: 0070 84be 4a90 5dbe 530b 51be 90f8 e1be
000000c0: 6ac7 1e3d 77dd de3d 9ebc 20bc 1ac4 1c3e
000000d0: 047f 9cbd 991e 7fbd 6fd0 863d 479f d5bd
000000e0: 0794 b1bd 1bbd b9bd 56d2 36be 4f3d 353e
000000f0: 6878 7d3e 36ce 06be 0d03 0cbd 9398 833d
00000100: 6556 4b3c 6790 9f3d 4914 c83d 5cf0 2fbe
00000110: 7955 3e3e d99a dc3d c216 6b3d 4fa9 07be

embedder.rnn.bias_hh_l2 f4 [72]
0.16831683 -0.049816493 -0.13862291 0.12157763 -0.09567249 -0.008505814 0.13988614 0.1610644
0.06257883 -0.024898365 -0.12959723 -0.09791035 -0.17665583 -0.15736932 0.19211388 0.13410634
0.018686336 0.09554977 0.11613431 -0.16686672 -0.012398395 0.101818286 0.117116645 -0.03923377
-0.18093301 -0.40965357 -0.34378964 -0.449356 -0.30297345 -0.3498956 -0.16584736 -0.4754941
-0.43753335 -0.47780064 -0.26362696 -0.3170154 0.056373138 0.23637599 -0.17517957 -0.22670826
-0.40365404 -0.30372953 -0.2215833 -0.33565596 -0.461871 -0.4161086 -0.48059726 -0.17978393
0.18436252 0.08976928 -0.16185057 0.032358095 -0.13637586 0.040808953 0.10106119 -0.12585577
-0.15206723 0.07381892 0.013999324 -0.19301483 0.014834018 0.24530028 -0.14661075 0.061934773
0.024585359 0.15209788 0.14368841 -0.17666858 -0.047483124 0.062079053 -0.057311997 0.03434455
00000000: 3f5b 2c3e 610c 4cbd 2af3 0dbe b1fd f83d
00000010: f0ef c3bd f85b 0bbc 503e 0f3e 11ee 243e
00000020: 5429 803d a8f7 cbbc 23b5 04be 3985 c8bd
00000030: 44e5 34be 6c25 21be 80b9 443e 2c53 093e
00000040: 1614 993c 99af c33d d3d7 ed3d 1cdf 2abe
00000050: a322 4bbc 1b86 d03d dada ef3d 97b3 20bd
00000060: 8146 39be 1dbe d1be 3205 b0be fd11 e6be
00000070: 561f 9bbe 8425 b3be e4d3 29be f673 f3be
00000080: 5f04 e0be 49a2 f4be 1dfa 86be d84f a2be
00000090: 85e7 663d 8c0c 723e 4662 33be 3626 68be
000000a0: beab cebe 7082 9bbe bce6 62be 19db abbe
000000b0: 5b7a ecbe 300c d5be d810 f6be 4719 38be
000000c0: 87c9 3c3e f5d8 b73d 28bc 25be ec89 043d
000000d0: 1da6 0bbe 4a27 273d 2bf9 ce3d 56e0 00be
000000e0: 83b7 1bbe 602e 973d 6c5d 653c aea5 45be
000000f0: 620a 733c ff2f 7b3e 2121 16be 51af 7d3d
00000100: 3c67 c93c 8cbf 1b3e 0e23 133e 9ce8 34be
00000110: aa7d 42bd 9b46 7e3d fcbf 6abd dfac 0c3d
