data/augmented/timegan_class_4.pt (torch, 239069 bytes, 65 tensors)

embedder.rnn.weight_ih_l0 f4 [72, 43]
0.053058688 -0.046890017 0.14270471 0.13571721 -0.11534909 0.116172895 0.17271242 0.090221524
-0.1720228 -0.11400158 0.08504386 -0.11855733 0.1525212 -0.040097773 0.07293524 0.23159626
0.12850147 -0.064265996 0.08890093 0.01659661 0.13905753 0.18015628 0.10823228 0.022201873
0.19506255 -0.10817028 0.21793261 -0.15021712 -0.008589559 -0.009271347 0.012643557 -0.07954171
-0.11920397 0.12764533 -0.021745749 0.08546116 0.078330584 0.21784839 -0.2200507 0.066381365
0.10438231 0.016504945 -0.2073175 0.0028201048 -0.104181774 0.13896215 0.02355907 0.19975063
0.06696079 0.1707229 0.16030493 -0.19493754 0.025062747 0.19691657 -0.13930526 0.09312473
-0.031375565 -0.19829902 -0.081948444 0.17381717 0.056386814 -0.033613984 -0.08140884 0.08871382
0.114687994 -0.037441365 -0.027203048 0.13925603 0.15916933 -0.18759191 0.004404254 0.047568247
-0.19781755 0.05490687 -0.027658101 0.07756139 0.042381436 -0.027360383 0.13226837 0.17052136
0.11624821 0.072137184 0.1702989 -0.010291885 -0.16998988 0.1506074 -0.065701865 0.04848548
0.11192869 -0.18441021 -0.09320277 0.04283535 0.020352043 -0.09252293 -0.077886485 -0.071983255
0.223605 -0.13835713 -0.21512087 0.06368581 -0.15255487 -0.15420273 -0.018284436 -0.104689896
0.13796802 -0.03163239 -0.069795914 0.15699996 0.11359243 0.07733717 -0.14886816 -0.20958363
0.076306276 -0.097405806 -0.019334612 0.076334015 0.018237112 0.09061493 -0.12460594 0.1689768
0.071382865 0.16088724 0.033322908 0.14678553 -0.1679958 -0.23846963 0.07062248 -0.035880376
-0.025157344 -0.034088966 -0.13108 0.12695965 -0.21921436 -0.18787484 -0.2200889 0.0043356894
-0.16330618 0.100181565 -0.1502762 0.042426545 0.11222533 -0.050370876 -0.19260204 -0.17021482
-0.16505747 0.008709902 -0.091430135 0.009122481 -0.14483319 0.1445023 0.12341027 0.078519896
-0.13318409 0.025008999 -0.17526501 0.19564654 0.16351286 -0.100113794 0.119482905 0.15930961
-0.09808694 0.06448503 -0.18290038 0.10587262 0.14227878 -0.08104968 -0.015118777 0.056711424
-0.15286121 0.1981747 0.027451323 0.13553157 -0.1399026 -0.14486317 -0.17573407 -0.022319121
-0.24056852 -0.16637594 -0.12775503 -0.13318361 0.14506015 -0.15768263 -0.10041899 -0.17350885
0.2696943 0.19626352 -0.046097647 -0.08868454 0.055775933 0.2705538 -0.3015011 0.03954794
0.23759454 -0.068944946 0.08460445 0.12961127 0.28529346 0.24334343 0.21908404 -0.042032693
0.20448919 0.097432174 -0.23960665 -0.028400412 -0.05970452 -0.2624186 -0.11252137 0.023073126
-0.15851064 -0.034548793 -0.12132601 0.05801066 -0.096570715 -0.07276273 -0.039533027 -0.115194395
0.039850272 0.17063403 0.103897385 -0.030227967 -0.03805565 -0.22684512 0.08085496 0.14375402
-0.06906409 0.15565176 0.08040637 0.10367959 0.054574106 -0.0674484 0.019465802 0.12432913
-0.12114317 0.15306789 -0.19463676 0.16454105 -0.07407073 0.14499858 -0.072926074 -0.13184087
-0.023547499 0.026069062 0.07875679 0.08411977 0.059082985 -0.2163446 -0.18390276 -0.13690227
-0.025425693 -0.06669372 -0.17830412 -0.18842985 -0.061447397 0.16938455 0.038030736 -0.2183957
00000000: 1154 593d bf0f 40bd 2f21 123e 74f9 0a3e
00000010: 253c ecbd 0eec ed3d 86db 303e 10c6 b83d
00000020: bf26 30be a979 e9bd 7a2b ae3d 2fce f2bd
00000030: 842e 1c3e 903d 24bd 125f 953d 9227 6d3e
00000040: e495 033e e49d 83bd b111 b63d 9df5 873c
00000050: 1965 0e3e e37a 383e e3a8 dd3d b4e0 b53c
00000060: 7abe 473e 6188 ddbd ba29 5f3e 84d2 19be
00000070: 39bb 0cbc d9e6 17bc ec26 4f3c c4e6 a2bd
00000080: 3621 f4bd 75b5 023e 2424 b2bc 4306 af3d
00000090: c96b a03d a613 5f3e f854 61be f4f2 873d
000000a0: 64c6 d53d 6135 873c 0a4b 54be 82d1 383b
000000b0: 415d d5bd 184c 0e3e f3fe c03c 6e8b 4c3e
000000c0: bd22 893d fcd1 2e3e fa26 243e b59d 47be
000000d0: 6450 cd3c 7fa4 493e 0aa6 0ebe 2eb8 be3d
000000e0: aa83 00bd e60e 4bbe 96d4 a7bd 21fd 313e
000000f0: dcf5 663d d1ae 09bd aeb9 a6bd 97af b53d
00000100: 8ae1 ea3d 1e5c 19bd edd8 debc 2299 0e3e
00000110: 49fd 223e 1818 40be 8f51 903b ecd6 423d
00000120: af90 4abe 07e6 603d 3e93 e2bc 82d8 9e3d
00000130: 2898 2d3d e222 e0bc 5c71 073e 279d 2e3e
00000140: 8b13 ee3d a9bc 933d d662 2e3e 4b9f 28bc
00000150: d411 2ebe d438 1a3e b38e 86bd b698 463d
00000160: de3a e53d 08d6 3cbe 18e1 bebd 1f74 2f3d
00000170: 54b9 a63c a97c bdbd f382 9fbd f56b 93bd
00000180: b6f8 643e 7ead 0dbe a548 5cbe b56d 823d
00000190: 5837 1cbe 52e7 1dbe 3ec9 95bc a867 d6bd
000001a0: 7d47 0d3e f790 01bd 29f1 8ebd 99c4 203e
000001b0: 26a3 e83d f362 9e3d e570 18be 179d 56be
000001c0: 7746 9c3d b27c c7bd 9f63 9ebc 0255 9c3d
000001d0: ff65 953c 5294 b93d 6631 ffbd 4108 2d3e
000001e0: 2e31 923d a0bf 243e 9a7d 083d f24e 163e
000001f0: 1707 2cbe 6231 74be 85a2 903d 4df7 12bd
00000200: c616 cebc dfa0 0bbd d639 06be b601 023e
00000210: bb79 60be 4362 40be fc5e 61be 6612 8e3b
00000220: bc39 27be fe2b cd3d 01e2 19be 75c7 2d3d
00000230: 65d6 e53d b151 4ebd 7839 45be cb4c 2ebe
00000240: d304 29be fab3 0e3c b93f bbbd 7576 153c
00000250: 274f 14be 69f8 133e 86be fc3d 0acf a03d
00000260: 6961 08be acdf cc3c ac78 33be 9157 483e
00000270: ea6f 273e 7608 cdbd 74b3 f43d 0f22 233e
00000280: cee1 c8bd ba10 843d 3d4a 3bbe bfd3 d83d
00000290: 87b1 113e 60fd a5bd bfb4 77bc 3d4a 683d
000002a0: a687 1cbe 4fee 4a3e 99e1 e03c cac8 0a3e
000002b0: a142 0fbe 0357 14be a2f3 33be 97d6 b6bc
000002c0: 9857 76be 745e 2abe 37d2 02be 4961 08be
000002d0: a68a 143e 8e77 21be 79a8 cdbd 4eac 31be
000002e0: 5f15 8a3e 4ef9 483e e3d0 3cbd 3da0 b5bd
000002f0: 4e75 643d 0786 8a3e 5a5e 9abe 05fd 213d
00000300: fc4b 733e 0233 8dbd 1945 ad3d d1b8 043e
00000310: fc11 923e 052f 793e 9157 603e 792a 2cbd
00000320: 9d65 513e 858a c73d 725b 75be fba7 e8bc
00000330: ba8c 74bd bb5b 86be 9b71 e6bd da03 bd3c
00000340: 9d50 22be 0983 0dbd c579 f8bd 969c 6d3d
00000350: dec6 c5bd a004 95bd 62ed 21bd 0aeb ebbd
00000360: 0a3a 233d b0ba 2e3e 27c8 d43d a4a0 f7bc
00000370: 3ee0 1bbd 164a 68be 4997 a53d 4134 133e
00000380: 7971 8dbd 2d63 1f3e 18ac a43d f755 d43d
00000390: 1989 5f3d 6322 8abd bf76 9f3c 45a0 fe3d
000003a0: e919 f8bd d4bd 1c3e dc4e 47be 737d 283e
000003b0: 65b2 97bd 827a 143e 445a 95bd 4b01 07be
000003c0: afe6 c0bc c98e d53c 3d4b a13d fc46 ac3d
000003d0: 0001 723d 7089 5dbe 0151 3cbe 1c30 0cbe
000003e0: 8b49 d0bc b896 88bd 5b95 36be c1f3 40be
000003f0: 44b0 7bbd 2573 2d3e 1ec6 1b3d 1fa3 5fbe

embedder.rnn.weight_hh_l0 f4 [72, 24]
-0.07135821 -0.037237044 0.015384311 0.1664455 0.08986189 0.35614252 -0.26145187 0.25899526
0.078201465 0.13932759 -0.27207586 0.3171928 -0.028579317 0.24196795 0.018958295 -0.08858355
-0.17420389 -0.012656201 -0.18209526 0.14276132 -0.23331657 0.29343647 -0.028018564 0.1846788
0.23248366 -0.15190996 -0.031720374 0.042135924 -0.12667073 -0.09582112 0.15614592 -0.10239102
0.03836045 0.07673837 0.0053479825 0.04089466 0.18656561 0.11930031 -0.1463793 -0.17691207
-0.07006693 0.2175809 0.2155696 -0.13591455 -0.1512674 0.0073302696 0.1789222 0.22399402
-0.052092098 0.065315954 0.16928059 -0.28924882 0.06666188 0.3300725 -0.10836988 0.21922624
0.15800567 0.12529501 -0.10273301 0.39870417 0.05457708 -0.18416259 0.11932275 -0.2115219
0.2660671 0.0026398178 -0.09702233 -0.02751294 -0.07490217 0.08306373 0.32943302 -0.0045700013
-0.03545721 0.045768604 0.17002429 -0.012357235 0.029303094 0.26243016 -0.18168026 -0.09198399
-0.12888585 -0.20209354 -0.23052663 0.2990218 -0.076158315 0.0088683 -0.02383363 -0.2811163
-0.08549454 -0.069819435 -0.2393782 0.18451491 -0.1734723 -0.03431329 0.05698519 0.08142234
-0.16479547 0.1814868 -0.0057125953 -0.37840816 -0.025184039 0.10427954 -0.045191605 0.34015286
0.08168659 -0.37818226 -0.19471823 0.06074989 -0.055405885 -0.28050697 -0.06640953 -0.19663681
0.10444578 -0.23298076 -0.040266976 0.19963156 -0.27992234 -0.018530354 0.045970842 0.08845012
-0.20225684 0.12319122 0.05231839 -0.060314436 0.14730018 -0.13744551 0.043086763 -0.053860005
0.17564823 0.020094309 0.052633844 -0.08817803 0.024396282 0.045054194 -0.094101675 -0.10016894
0.11936083 0.14778334 -0.044714388 0.07840881 -0.07014503 -0.124902904 0.08756728 0.09170096
0.13179457 -0.053202998 0.13965085 0.048069112 0.120528236 0.13227725 0.047153186 -0.046134386
0.08247901 0.09432824 -0.29859102 0.24026658 -0.262589 0.095137544 -0.02597577 -0.10461336
0.18253939 0.0012301217 -0.04472808 0.112318225 -0.18392128 0.19045913 0.17746828 0.2306351
-0.067011096 0.30117175 0.113458104 -0.12964088 0.05998469 0.061804138 -0.22361705 0.19109616
-0.011435354 -0.10415567 0.019137241 0.30339783 0.11525377 -0.13368307 -0.051972497 -0.24919285
0.015740892 0.19438854 -0.19590273 -0.056029763 -0.3253495 0.22994745 0.026240071 0.14139107
0.14519233 -0.30796126 -0.06530794 0.31364357 -0.100779645 -0.06397147 0.14695182 -0.16867031
0.010226308 -0.05474113 0.40670338 0.038146302 0.15389276 0.2763554 0.015061599 0.07105293
0.03344427 0.14627476 0.29240587 -0.14869313 0.2572192 -0.17283845 -0.117115706 -0.09843568
0.28869197 0.28313082 0.29169673 -0.2092664 0.06183029 0.27669567 -0.017411651 -0.03194829
0.14185113 0.105977446 -0.16946793 0.3685472 0.0510779 0.039523505 -0.091005504 -0.16163723
0.0862034 0.13300033 0.038377613 0.02975865 -0.05284076 0.107924566 0.012013592 0.08618861
-0.09541417 0.33378962 0.35530585 0.06115084 0.20257561 0.32179007 0.05051793 0.13730493
-0.06481071 -0.0012552382 -0.3577103 0.090017684 -0.03282842 -0.010751001 0.14219052 -0.36795872
00000000: 4124 92bd df85 18bd 7a0e 7c3c b070 2a3e
00000010: 8309 b83d 5058 b63e 05dd 85be 079b 843e
00000020: 1728 a03d e4ab 0e3e 874d 8bbe 1867 a23e
00000030: 2c1f eabc 72c6 773e 6d4e 9b3c 4b6b b5bd
00000040: 8162 32be f45b 4fbc 2e77 3abe 0630 123e
00000050: 8aea 6ebe 4e3d 963e 3087 e5bc 701c 3d3e
00000060: 3210 6e3e 498e 1bbe 39ed 01bd b896 2c3d
00000070: f9b5 01be dd3d c4bd b7e4 1f3e 62b2 d1bd
00000080: d91f 1d3d 0229 9d3d 213e af3b 2981 273d
00000090: 0e0b 3f3e b953 f43d 75e4 15be 7028 35be
000000a0: 407f 8fbd 87cd 5e3e 47be 5c3e 2f2d 0bbe
000000b0: d7e5 1abe c232 f03b 6237 373e b05e 653e
000000c0: 865e 55bd 5fc4 853d e457 2d3e 6c18 94be
000000d0: 0686 883d 43ff a83e 07f1 ddbd d87c 603e
000000e0: 3dcc 213e 564d 003e af65 d2bd f422 cc3e
000000f0: 378c 5f3d 1e95 3cbe 7c5f f43d 3299 58be
00000100: f239 883e cb00 2d3b a5b3 c6bd d162 e1bc
00000110: 4f66 99bd 511d aa3d 72ab a83e f3bf 95bb
00000120: 943b 11bd dc77 3b3d d91a 2e3e 0076 4abc
00000130: 0b0d f03c 3f5d 863e 640a 3abe 1a62 bcbd
00000140: a7fa 03be 9cf1 4ebe 2c0f 6cbe 6319 993e
00000150: e4f8 9bbd 594c 113c bf3e c3bc 7aee 8fbe
00000160: c317 afbd 7efd 8ebd 8f1f 75be 7af1 3c3e
00000170: b9a2 31be 188c 0cbd 4d69 693d c1c0 a63d
00000180: 25c0 28be add7 393e b930 bbbb b7be c1be
00000190: c24e cebc 8390 d53d d51a 39bd 8428 ae3e
000001a0: 4d4b a73d 1ba1 c1be 3764 47be e0d4 783d
000001b0: 48f1 62bd 9c9e 8fbe b801 88bd 295b 49be
000001c0: abe7 d53d 8292 6ebe fcee 24bd 376c 4c3e
000001d0: fb51 8fbe f8cc 97bc ec4b 3c3d 5625 b53d
000001e0: 6b1c 4fbe ae4b fc3d cf4b 563d 450c 77bd
000001f0: dcd5 163e 84be 0cbe bf7b 303d 4f9c 5cbd
00000200: 21dd 333e d29c a43c 9696 573d af96 b4bd
00000210: b6da c73c bf8a 383d 61b8 c0bd 6025 cdbd
00000220: 7373 f43d 8454 173e 6f26 37bd cc94 a03d
00000230: 33a8 8fbd 18cd ffbd 7956 b33d b7cd bb3d
00000240: 28f5 063e 63eb 59bd a200 0f3e 1ee4 443d
00000250: 82d7 f63d b073 073e b323 413d 69f7 3cbd
00000260: c1ea a83d 2a2f c13d ece0 98be 7108 763e
00000270: 1172 86be 79d7 c23d 23cb d4bc 873f d6bd
00000280: 9beb 3a3e 093c a13a cb34 37bd 1907 e63d
00000290: dc55 3cbe b807 433e 3fba 353e 9c2b 6c3e
000002a0: 1d3d 89bd 2f33 9a3e b95c e83d 94c0 04be
000002b0: 82b2 753d 5626 7d3d defb 64be b6ae 433e
000002c0: 5a5b 3bbc 914f d5bd b4c5 9c3c f656 9b3e
000002d0: 2b0a ec3d 37e4 08be 1de1 54bd 692c 7fbe
000002e0: 0bf3 803c ca0d 473e ba9a 48be 777f 65bd
000002f0: 3694 a6be 5877 6b3e 6bf5 d63c d2c8 103e
00000300: 4cad 143e 19ad 9dbe 2bc0 85bd e495 a03e
00000310: 8f65 cebd 7903 83bd 8a7a 163e e9b7 2cbe
00000320: 3f8c 273c 3c38 60bd 6d3b d03e 4c3f 1c3d
00000330: 1096 1d3e 747e 8d3e edc4 763c 3384 913d
00000340: dcfc 083d 0dc9 153e 39b6 953e 0343 18be
00000350: 3cb2 833e 90fc 30be 5cda efbd a598 c9bd
00000360: 6fcf 933e 86f6 903e 4659 953e ee49 56be
00000370: c241 7d3d 0eab 8d3e e1a2 8ebc 36dc 02bd
00000380: 6c41 113e b40a d93d 0089 2dbe 38b2 bc3e
00000390: 0f37 513d 66e3 213d 1861 babd 3b84 25be
000003a0: 688b b03d 3d31 083e d831 1d3d 6ac8 f33c
000003b0: 8e6f 58bd 8e07 dd3d a8d4 443c a783 b03d
000003c0: 8168 c3bd 79e6 aa3e a6ea b53e 4e79 7a3d
000003d0: fb6f 4f3e abc1 a43e e4eb 4e3d aa99 0c3e
000003e0: 7abb 84bd ce86 a4ba ce25 b7be 315b b83d
000003f0: 1877 06bd f724 30bc 649a 113e 1665 bcbe

embedder.rnn.bias_ih_l0 f4 [72]
-0.028645823 -0.033230837 -0.017234778 0.1852216 -0.17570686 -0.14414117 0.011279453 -0.0090029165
-0.26789328 0.18382385 0.020282768 0.1750331 -0.039946076 0.027118288 0.1373858 -0.031808596
-0.027663384 -0.09814386 -0.003087091 0.15798648 0.043745067 -0.066624254 -0.026515653 -0.012777832
-0.109323665 0.16946 -0.41813973 -0.36424154 -0.08324526 -0.12332225 0.005428102 -0.04544111
-0.13089477 -0.08840843 -0.27991164 -0.09268475 -0.15484367 -0.002865183 -0.29543468 -0.018064667
-0.1248047 -0.3771472 -0.3474195 -0.40714675 0.06611812 -0.003100651 -0.0077599916 -0.12335704
0.18040015 0.05851875 0.06494426 0.18869033 0.18490848 0.14379068 -0.19142967 0.04029712
0.15452683 0.1574025 -0.09702411 0.116465375 0.13735896 0.090748645 -0.085160084 0.009523129
-0.083560295 0.12440379 -0.12412639 -0.21652348 0.009941429 0.04185675 0.036237832 0.04412028
00000000: a5aa eabc 0f1d 08bd f32f 8dbc bbaa 3d3e
00000010: 80ec 33be be99 13be 74cd 383c f880 13bc
00000020: 4f29 89be 523c 3c3e 0c28 a63c e13b 333e
00000030: 7f9e 23bd 2c27 de3c ddae 0c3e bb49 02bd
00000040: 529e e2bc a6ff c8bd cb50 4abb 35c7 213e
00000050: 072e 333d 4c72 88bd 5b37 d9bc 1d5a 51bc
00000060: 16e5 dfbd ec86 2d3e 6916 d6be de7d babe
00000070: 7e7c aabd 6090 fcbd 38de b13b 7520 3abd
00000080: 4709 06be 7b0f b5bd 9450 8fbe 81d1 bdbd
00000090: 578f 1ebe cbc5 3bbb 3743 97be 5afc 93bc
000000a0: 9b99 ffbd 7019 c1be f8e0 b1be 8a75 d0be
000000b0: f068 873d 4b34 4bbb 8747 febb 9ea2 fcbd
000000c0: d1ba 383e 5bb1 6f3d 7f01 853d 0a38 413e
000000d0: a658 3d3e dd3d 133e 2406 44be 980e 253d
000000e0: 483c 1e3e 1f2e 213e 94b4 c6bd 6685 ee3d
000000f0: d4a7 0c3e 6dda b93d 6968 aebd e606 1c3c
00000100: a921 abbd 6ac7 fe3d fa35 febd 55b8 5dbe
00000110: 60e1 223c fc71 2b3d 1f6e 143d 77b7 343d

embedder.rnn.bias_hh_l0 f4 [72]
0.12337573 0.15714289 0.06363448 -0.07866002 0.08600875 -0.15086423 0.26978034 -0.027260058
-0.049621046 0.13119893 0.12235674 0.052778054 0.22623757 0.22211507 0.20814155 -0.068878
0.22483103 -0.11936187 0.16773668 0.2222357 0.00624275 -0.08123571 0.2520726 0.15224178
-0.17739247 0.103184015 -0.41472855 -0.3368192 0.011433876 -0.058503307 -0.30519754 -0.38383183
0.08913082 -0.29980832 -0.23333521 0.17440286 -0.3363234 0.0081793545 -0.25187606 -0.1942376
-0.028365381 -0.101523735 -0.051100437 -0.12268835 0.026513295 -0.2511552 0.17550287 0.10691005
0.27292687 -0.1208955 -0.13818763 0.1029063 -0.05007924 -0.078472815 0.016784254 -0.23268662
0.03823444 0.26913875 -0.036274273 -0.013343897 0.14366649 0.03769227 0.16664992 -0.008912162
-0.0041214735 0.18372741 -0.07938139 0.13902627 -0.03150249 -0.13412307 0.112752005 0.09737637
00000000: 6aac fc3d 11ea 203e cb52 823d 8118 a1bd
00000010: 5b25 b03d 277c 1abe a620 8a3e 7c50 dfbc
00000020: 703f 4bbd 0359 063e 2c96 fa3d cd2d 583d
00000030: d2aa 673e 2272 633e 0f23 553e e90f 8dbd
00000040: 1b3a 663e ff73 f4bd 2ac3 2b3e c191 633e
00000050: fc8f cc3b e85e a6bd a90f 813e 45e5 1b3e
00000060: 5fa6 35be 2452 d33d 4d57 d4be 9173 acbe
00000070: 2755 3b3c 2aa1 6fbd da42 9cbe 9b85 c4be
00000080: 388a b63d 7a80 99be 6def 6ebe aa96 323e
00000090: 9532 acbe b302 063c e6f5 80be 39e6 46be
000000a0: 845e e8bc adeb cfbd b14e 51bd 0844 fbbd
000000b0: 6932 d93c 6a97 80be 06b7 333e a8f3 da3d
000000c0: 12bd 8b3e 0f98 f7bd 0f81 0dbe 8ac0 d23d
000000d0: e41f 4dbd 5bb6 a0bd 227f 893c 6745 6ebe
000000e0: b79b 1c3d 8ecc 893e 5594 14bd 5ca0 5abc
000000f0: 4f1d 133e 3663 1a3d 47a6 2a3e 5104 12bc
00000100: 6d0d 87bb 0a23 3c3e b692 a2bd e75c 0e3e
00000110: c108 01bd 8f57 09be 86ea e63d 436d c73d

embedder.rnn.weight_ih_l1 f4 [72, 24]
-0.024834761 0.1636037 0.054185312 -0.17004623 0.043561105 -0.21261002 -0.1072249 -0.11235099
-0.047992818 0.13329022 0.14749959 -0.098203555 -0.06201215 -0.038826324 -0.014606883 0.16312887
-0.0054775835 0.07459649 -0.14738749 0.03202727 -0.11767961 0.20536457 0.09187074 0.1056913
-0.13264242 -0.18581583 -0.24594496 -0.12568982 0.18960999 -0.25015473 0.12192825 0.08767253
0.1320869 0.1547433 0.15646511 -0.102181345 0.21380098 0.069487706 -0.13336354 0.03873199
0.119630575 -0.04106322 0.05735704 -0.18796124 0.20830525 -0.23344418 -0.090241864 -0.06625964
-0.11140008 0.052385714 0.075449705 0.039023425 0.031635366 -0.042449463 0.060639817 0.0014735594
0.07906589 0.2278651 0.077409156 -0.17312518 -0.12862033 0.17957175 0.19631825 -0.032578558
0.009472232 0.08355489 -0.04496009 0.026557952 -0.12852749 -0.025097469 -0.10607385 -0.052022938
-0.08006637 -0.16084656 -0.023320312 0.030751923 0.017536335 -0.21301822 -0.0025908763 0.053478397
-0.20124392 -0.043009426 -0.165073 -0.20512938 0.12926438 -0.18920699 -0.032574654 0.13004033
0.12133519 0.16568455 0.07536719 -0.08963864 0.1588098 -0.0063565047 -0.14480041 -0.1556769
0.0076493626 0.15391238 -0.021704294 -0.033709075 0.1783617 -0.04195288 -0.24466665 -0.19524571
0.26190853 -0.09390356 0.23529549 0.18123873 0.036211304 -0.05776839 0.101751864 0.24234074
0.050360486 0.07525724 -0.14684379 0.08299259 -0.0714184 0.15782376 0.045252852 0.068018764
0.14824283 -0.07068734 -0.056787215 -0.055784985 0.1770507 -0.047090515 0.1074497 0.11643355
0.15976287 -0.07441458 -0.18397342 -0.06027554 0.17985779 0.093378924 -0.08186834 0.10226345
-0.10780427 0.24759273 0.18120779 0.06956918 0.23232268 -0.2175479 -0.08827136 -0.111455634
-0.09468327 -0.14217147 0.1398929 -0.006988253 0.12786557 -0.04404925 0.05793498 0.1998277
-0.19506356 -0.12800066 0.1221753 0.09953963 -0.1532497 0.124762736 -0.03697713 0.03283903
-0.008354389 -0.06355527 0.14027902 0.028563019 0.11229671 0.20756371 0.10215871 0.10571356
-0.13121873 -0.15286604 -0.008984505 0.02463226 0.16837004 0.12185701 0.16378428 -0.09192946
0.06944223 -0.16100205 -0.23872651 0.19232158 -0.16497558 -0.1502034 -0.08742322 -0.11353842
0.22344068 -0.04076901 0.010084271 -0.10593853 -0.0033622563 0.07421623 0.10241461 0.14209384
-0.14344853 0.22087987 -0.09958802 -0.19287142 -0.14092948 0.11522704 -0.16326557 0.063671
0.20318559 -0.18269281 -0.08705008 0.29259488 0.0019308687 -0.15872481 -0.1481681 0.0883182
0.19534338 -0.11355591 -0.08707384 -0.17049362 -0.12717023 -0.18355851 0.045109563 0.2004363
0.21162595 0.041248232 0.19319218 0.10750969 0.013472036 -0.13971241 -0.11817081 -0.100919485
-0.18424065 0.07660378 -0.21365161 -0.04222535 -0.19244084 0.22271867 -0.15126945 -0.025027815
0.12953947 0.19568026 0.11050062 0.06341576 0.18989906 -0.10209036 0.13350394 -0.15485154
-0.07977751 0.13754344 -0.0907758 0.03081194 -0.08889322 0.07323467 -0.043121375 0.1807094
0.03300784 -0.019469244 0.10682759 0.03431162 -0.07988981 -0.005443704 -0.011782643 0.046594203
00000000: 4572 cbbc ba87 273e 6bf1 5d3d 9920 2ebe
00000010: 216d 323d 71b6 59be ba98 dbbd 4718 e6bd
00000020: 1e94 44bd 3b7d 083e 220a 173e f21e c9bd
00000030: 7400 7ebd 5a08 1fbd b551 6fbc 410b 273e
00000040: 4d7d b3bb 0bc6 983d bfec 16be 072f 033d
00000050: 0202 f1bd 174b 523e ba26 bc3d ae74 d83d
00000060: 6ad3 07be 8146 3ebe ffd8 7bbe d5b4 00be
00000070: 1f29 423e 4814 80be 85b5 f93d a88d b33d
00000080: ca41 073e 0775 1e3e 6438 203e 7444 d1bd
00000090: a5ee 5a3e 924f 8e3d 7490 08be 6fa5 1e3d
000000a0: e000 f53d e831 28bd 37ef 6a3d e978 40be
000000b0: f94d 553e fe0b 6fbe bad0 b8bd 22b3 87bd
000000c0: ba25 e4bd 6792 563d 6085 9a3d 07d7 1f3d
000000d0: 1694 013d 7ddf 2dbd 7561 783d 7324 c13a
000000e0: 4ced a13d 7855 693e b188 9e3d ba47 31be
000000f0: 0cb5 03be a8e1 373e a707 493e 1871 05bd
00000100: 6c31 1b3c d31e ab3d 1228 38bd 1090 d93c
00000110: b69c 03be 3599 cdbc 3f3d d9bd 0116 55bd
00000120: d6f9 a3bd f6b4 24be 3d0a bfbc 75eb fb3c
00000130: 5ca8 8f3c 7321 5abe b1cb 29bb 2a0c 5b3d
00000140: e312 4ebe a72a 30bd e608 29be 700d 52be
00000150: e25d 043e 7abf 41be 006d 05bd 4b29 053e
00000160: 967e f83d 36a9 293e 1d5a 9a3d 7794 b7bd
00000170: 099f 223e 3a4a d0bb 8f46 14be c469 1fbe
00000180: 81a7 fa3b 359b 1d3e 34cd b1bc 8712 0abd
00000190: 73a4 363e c8d6 2bbd e589 7abe 7eee 47be
000001a0: e018 863e 8250 c0bd 4df1 703e a596 393e
000001b0: 4e52 143d 8c9e 6cbd 4863 d03d 2c28 783e
000001c0: cc46 4e3d 7820 9a3d 385e 16be 05f8 a93d
000001d0: cf43 92bd 8d9c 213e 0e5b 393d 6c4d 8b3d
000001e0: f8cc 173e 86c4 90bd b699 68bd cc7e 64bd
000001f0: c74c 353e fce1 40bd 970e dc3d b774 ee3d
00000200: e198 233e ac66 98bd 8763 3cbe 7ce3 76bd
00000210: a42c 383e 733d bf3d 97aa a7bd 806f d13d
00000220: 7cc8 dcbd f388 7d3e 898e 393e 497a 8e3d
00000230: ffe5 6d3e e0c4 5ebe 9dc7 b4bd da42 e4bd
00000240: 4de9 c1bd 6695 11be 1640 0f3e b7fd e4bb
00000250: 31ef 023e fd6c 34bd 3b4d 6d3d a29f 4c3e
00000260: bebe 47be 9b12 03be 0b37 fa3d 6fdb cb3d
00000270: 7ded 1cbe 9b83 ff3d 5575 17bd 3882 063d
00000280: d9e0 08bc 4429 82bd 4ea5 0f3e fefc e93c
00000290: d1fb e53d 958b 543e 9638 d13d 5a80 d83d
000002a0: 345e 06be ea88 1cbe bf33 13bc 98c9 c93c
000002b0: 3269 2c3e 2b90 f93d 11b7 273e 8345 bcbd
000002c0: ba37 8e3d b9dd 24be b974 74be f3ef 443e
000002d0: 5cef 28be ecce 19be f20a b3bd d586 e8bd
000002e0: a2cd 643e 68fd 26bd 8038 253c 4df6 d8bd
000002f0: 4d59 5cbb aefe 973d c0be d13d 0c81 113e
00000300: 2ce4 12be 552e 623e cef4 cbbd 1680 45be
00000310: d14f 10be 28fc eb3d 172f 27be f165 823d
00000320: e20f 503e d313 3bbe 5047 b2bd ffce 953e
00000330: 3415 fd3a c288 22be 61b9 17be 2ce0 b43d
00000340: 1808 483e 0090 e8bd c553 b2bd e195 2ebe
00000350: ea38 02be c3f6 3bbe cec4 383d 2c3f 4d3e
00000360: 79b4 583e e8f3 283d 2cd4 453e 0a2e dc3d
00000370: d1b9 5c3c c510 0fbe 8a03 f2bd e0ae cebd
00000380: 95a9 3cbe 71e2 9c3d 7dc7 5abe 7df4 2cbd
00000390: 360f 45be 5d10 643e 61e6 1abe 2207 cdbc
000003a0: ffa5 043e 6860 483e 264e e23d 1fe0 813d
000003b0: e674 423e c014 d1bd 42b5 083e 6791 1ebe
000003c0: 6462 a3bd 30d8 0c3e aae8 b9bd 5269 fc3c
000003d0: a60d b6bd 0ffc 953d 0aa0 30bd e30b 393e
000003e0: 3b33 073d f77d 9fbc 6cc8 da3d 578a 0c3d
000003f0: 459d a3bd 1961 b2bb fd0b 41bc 90d9 3e3d

embedder.rnn.weight_hh_l1 f4 [72, 24]
0.05321116 0.17860292 -0.2211123 -0.11229953 0.011483478 0.13494508 0.16064596 -0.10090651
-0.056151118 -0.09536651 -0.18147312 -0.051062822 0.103120565 0.105384536 -0.23290628 0.22740406
0.25082758 0.06121366 0.041071456 -0.15261255 0.15364726 -0.11717297 0.1760829 0.1028986
0.050472017 -0.05043544 -0.059365172 -0.081826754 0.06360783 0.08526825 -0.08658519 -0.1200015
0.09398895 0.15436769 -0.08270738 -0.059236117 -0.1087612 0.10186099 -0.0013928494 0.16553424
0.26878983 -0.104698285 0.2456028 0.1336814 0.28340966 0.035980716 0.16788378 0.066488504
0.053311307 0.21636432 -0.2611318 -0.23451892 -0.013576572 0.23029615 -0.07726398 0.006916387
0.10421524 0.21545763 0.072482206 0.2094808 0.09718229 -0.011323561 -0.056203097 -0.03519597
0.26227784 -0.035093028 -0.03987111 -0.15549004 0.18161929 0.027995994 0.23355344 0.2278508
0.19258049 -0.001990157 -0.09468 -0.021556677 0.05781326 0.104501896 -0.08985558 0.34672073
-0.05057566 0.057346586 -0.13267499 -0.0035399278 0.105529144 -0.014365939 0.052508 0.02003293
0.040824994 -0.122756876 0.123832725 -0.13978535 0.21210283 -0.08997062 0.17437172 0.044183522
-0.12432775 -0.1293674 0.12890097 -0.13784645 0.042180818 -0.09510562 0.045244392 0.20960869
-0.08861691 0.0674107 -0.16333029 -0.08420438 -0.18511537 0.0863695 0.12393863 -0.045292735
0.04413112 -0.17164575 0.16262287 0.023262119 -0.10325035 0.116315305 -0.015118728 0.20560725
0.25019434 0.0043777446 -0.05795558 -0.15202673 -0.1908195 0.08909194 0.09674963 0.23203133
0.010719398 -0.072395876 -0.1409814 0.09198605 0.13160601 -0.027609468 -0.32798734 -0.064686745
0.12392695 0.03535312 0.12035422 -0.03294047 0.013304193 0.10098334 0.036196865 -0.09453897
-0.0034786467 0.018200193 0.078782976 0.050313853 0.1618771 -0.059038274 -0.033649158 0.020304425
0.10728179 0.10388605 -0.02875894 0.17825611 -0.027112154 -0.07601048 0.040963992 -0.093263105
-0.13055217 -0.040123336 -0.13129355 0.20267105 -0.034992386 -0.20510805 -0.042678595 -0.1349359
-0.06124295 -0.11143351 -0.12259069 0.07707864 -0.046852916 0.096441515 0.08703101 0.29571503
-0.16130477 0.17333359 -0.24345626 0.19953962 0.12816487 -0.22146147 0.09420314 0.16243452
0.089794524 -0.25446936 0.07188549 -0.1592934 0.24271795 -0.036690608 0.25689992 -0.0015467423
0.15000443 -0.18068673 0.01310674 -0.11703886 0.19390112 0.08573657 -0.2200454 -0.24704105
-0.15579222 -0.17637078 0.1344606 -0.12575382 -0.05717918 -0.025390273 -0.03754149 0.060268756
-0.24755417 0.16486318 0.10183327 0.15648043 0.02272827 0.22184387 0.0051302826 0.07883351
0.19356503 0.109894745 0.06109404 -0.13538173 -0.10379413 0.2628889 -0.086714506 0.1387785
-0.13063551 0.0038721657 -0.053905625 0.22434828 0.12616752 -0.18097472 -0.089326575 0.17040525
-0.1136219 -0.26595104 0.22892691 0.06418687 0.20826276 -0.24319005 -0.16342735 -0.094202615
0.10663428 0.030166628 -0.09226098 0.13071719 -0.17468534 0.04823153 0.1436698 0.19995508
-0.1802522 0.11846429 -0.115568146 0.11820392 -0.21361592 -0.21525177 -0.21478924 0.03349121
00000000: f2f3 593d afe3 363e 436b 62be 4cfd e5bd
00000010: 3325 3c3c 0b2f 0a3e 6080 243e 13a8 cebd
00000020: b7fe 65bd 844f c3bd 17d4 39be 4027 51bd
00000030: e030 d33d d9d3 d73d fc7e 6ebe 9cdc 683e
00000040: 796c 803e 2dbb 7a3d 8b3a 283d 7746 1cbe
00000050: b555 1d3e 62f8 efbd 134f 343e 80bc d23d
00000060: bfbb 4e3d 6495 4ebd e528 73bd c994 a7bd
00000070: d244 823d 1fa1 ae3d 9353 b1bd 59c3 f5bd
00000080: 477d c03d 9012 1e3e 7d62 a9bd 92a1 72bd
00000090: 31be debd 7f9c d03d 4590 b6ba cf81 293e
000000a0: d29e 893e 0e6c d6bd 4d7f 7b3e c7e3 083e
000000b0: 121b 913e 8460 133d bae9 2b3e 202b 883d
000000c0: f55c 5a3d 9c8e 5d3e 11b3 85be ba25 70be
000000d0: 4570 5ebc c1d2 6b3e 943c 9ebd dca2 e23b
000000e0: cd6e d53d eda0 5c3e 8d71 943d 2382 563e
000000f0: 8207 c73d 7586 39bc 3835 66bd a629 10bd
00000100: 4849 863e b5bd 0fbd e44f 23bd c838 1fbe
00000110: 68fa 393e db57 e53c a228 6f3e b851 693e
00000120: d233 453e 4b6d 02bb 96e7 c1bd a197 b0bc
00000130: 99cd 6c3d 1705 d63d 3406 b8bd 6185 b13e
00000140: 6c28 4fbd 41e4 6a3d f4db 07be 22fe 67bb
00000150: aa1f d83d 1e5f 6bbc a112 573d 191c a43c
00000160: 1c38 273d f567 fbbd 039c fd3d e423 0fbe
00000170: 7c31 593e 8442 b8bd 808e 323e c8f9 343d
00000180: 8c9f febd e378 04be 9efe 033e 9f27 0dbe
00000190: cbc5 2c3d bcc6 c2bd 2f52 393d a9a3 563e
000001a0: c87c b5bd 9f0e 8a3d 0e40 27be 5973 acbd
000001b0: e28e 3dbe 7ee2 b03d 89d3 fd3d e084 39bd
000001c0: d5c2 343d e7c3 2fbe 9c86 263e 3390 be3c
000001d0: eb74 d3bd b836 ee3d 8bb4 77bc b58a 523e
000001e0: 7919 803e 2f73 8f3b d562 6dbd e5ac 1bbe
000001f0: 3066 43be d675 b63d ac24 c63d 9f99 6d3e
00000200: 6aa0 2f3c 4a44 94bd 6e5d 10be 2f63 bc3d
00000210: bac3 063e 402d e2bc f5ed a7be 7c7a 84bd
00000220: 6acd fd3d 6fce 103d 467c f63d 96ec 06bd
00000230: d4f9 593c 5ad0 ce3d 2a43 143d a69d c1bd
00000240: 02fa 63bb 9218 953c f858 a13d e615 4e3d
00000250: 1cc3 253e 1ed2 71bd b3d3 09bd 7755 a63c
00000260: 8eb6 db3d 36c2 d43d de97 ebbc c588 363e
00000270: 4f1a debc 62ab 9bbd dcc9 273d ba00 bfbd
00000280: 78af 05be 5e58 24bd d171 06be 0089 4f3e
00000290: 2d54 0fbd d807 52be c0cf 2ebd a32c 0abe
000002a0: e3d9 7abd 4137 e4bd d410 fbbd 68db 9d3d
000002b0: d8e8 3fbd 2183 c53d 503d b23d f667 973e
000002c0: 142d 25be 5c7e 313e 994c 79be 1d54 4c3e
000002d0: a73d 033e ccc6 62be 93ed c03d 3c55 263e
000002e0: 31e6 b73d cf49 82be b338 933d cf1d 23be
000002f0: 0e8b 783e e448 16bd 6388 833e 0fbc caba
00000300: c39a 193e f105 39be a7bd 563c 12b2 efbd
00000310: 048e 463e a896 af3d 9553 61be 54f8 7cbe
00000320: ff87 1fbe 8b9a 34be 0ab0 093e 9cc5 00be
00000330: b734 6abd 43ff cfbc 1bc5 19bd 5fdc 763d
00000340: d77e 7dbe e5d1 283e f68d d03d 683c 203e
00000350: a330 ba3c 0a2b 633e ee1b a83b 7773 a13d
00000360: e935 463e 7f10 e13d be3d 7a3d 82a1 0abe
00000370: 0492 d4bd 6099 863e 6097 b1bd f31b 0e3e
00000380: 51c5 05be 29c4 7d3b 25cc 5cbd 8ebb 653e
00000390: 0f32 013e 7051 39be daf0 b6bd b77e 2e3e
000003a0: 99b2 e8bd bc2a 88be d16b 6a3e 6874 833d
000003b0: d542 553e d006 79be 8059 27be 4ded c0bd
000003c0: 1363 da3d 0120 f73c 53f3 bcbd bada 053e
000003d0: b7e0 32be 6d8e 453d 2d1e 133e 06c1 4c3e
000003e0: 0894 38be 689d f23d feae ecbd e614 f23d
000003f0: 22be 5abe f66a 5cbe b6f1 5bbe 142e 093d

embedder.rnn.bias_ih_l1 f4 [72]
0.048102673 -0.11318407 -0.1400851 -0.08978216 -0.012749374 0.09183883 0.06511535 -0.16264963
0.21549405 0.24057157 -0.13927092 -0.004686818 0.048794337 0.15518925 0.04427455 -0.021299051
-0.018140137 0.079941645 -0.073081054 -0.09946625 -0.110792145 0.1120185 0.15019225 0.016351486
-0.107903056 -0.36675346 -0.22019689 -0.18110856 0.006820923 -0.08025544 -0.18833534 -0.050294813
-0.13489178 0.018828608 -0.30032107 -0.10698722 -0.18782555 -0.11498469 -0.2095525 -0.16490194
0.08100386 -0.35529575 -0.079423234 -0.28806102 -0.15165892 -0.34642273 0.11651873 -0.061071824
-0.06597635 0.012219973 0.024034781 -0.057605863 -0.08697376 0.110217385 0.02357246 -0.046878632
0.046685603 -0.15620673 0.12915923 -0.19842468 -0.036315504 0.008692918 -0.06566681 0.07723087
-0.025148192 0.009321466 -0.17739287 0.14104214 -0.19147836 -0.17082794 -0.020316929 0.11686062
00000000: 4f07 453d 0dcd e7bd 7872 0fbe b6df b7bd
00000010: c0e2 50bc ff15 bc3d 325b 853d a08d 26be
00000020: 79aa 5c3e 6558 763e 099d 0ebe e193 99bb
00000030: 92dc 473d eee9 1e3e 3b59 353d 597b aebc
00000040: a09a 94bc 72b8 a33d 85ab 95bd f6b4 cbbd
00000050: fee6 e2bd f569 e53d ffcb 193e 8df3 853c
00000060: 47fc dcbd 1cc7 bbbe 4b7b 61be 8674 39be
00000070: 0d82 df3b f75c a4bd fbda 40be ef01 4ebd
00000080: 1221 0abe 743e 9a3c afc3 99be 1e1c dbbd
00000090: 5755 40be 187d ebbd ee94 56be 0edc 28be
000000a0: 5ae5 a53d 53e9 b5be a6a8 a2bd bc7c 93be
000000b0: 7a4c 1bbe 525e b1be 5fa1 ee3d 7326 7abd
000000c0: 9c1e 87bd 4836 483c 97e4 c43c 20f4 6bbd
000000d0: 4c1f b2bd a7b9 e13d 081b c13c cf03 40bd
000000e0: 6739 3f3d a8f4 1fbe 5142 043e d72f 4bbe
000000f0: 91bf 14bd be6c 0e3c 527c 86bd 382b 9e3d
00000100: 9503 cebc 10b9 183c 7aa6 35be 5a6d 103e
00000110: e712 44be 85ed 2ebe b06f a6bc 9f54 ef3d

embedder.rnn.bias_hh_l1 f4 [72]
-0.026594192 0.14519988 -0.00056357915 -0.037249338 -0.0042067114 -0.044386845 -0.04944367 0.11877306
0.19799659 -0.035160076 -0.020924155 0.051069215 0.012314834 0.1744523 0.21835081 0.13116893
0.058280874 -0.12319437 0.069883265 0.051279075 0.1766052 -0.10281678 -0.052626245 -0.20577852
-0.20141897 -0.45265794 -0.2234118 -0.38682777 -0.010182562 -0.28288695 -0.20452857 -0.22494629
0.047034122 -0.16058548 -0.1842124 -0.13100186 -0.18078716 -0.14948964 -0.13075916 -0.06124479
0.019851027 -0.14051877 -0.13137169 0.06286209 0.037869066 -0.18180282 0.028364733 -0.2726759
-0.1292926 0.097023055 -0.18850853 0.08767649 0.09323535 0.0731038 -0.06244373 0.12512757
0.13338281 -0.06731252 -0.035351954 -0.17261182 -0.03031547 -0.118228175 -0.009829009 -0.10515541
0.07222091 -0.18806583 0.1466389 0.20505431 -0.13782918 0.024546308 -0.18463737 -0.1520766
00000000: 10dc d9bc 47af 143e 28bd 13ba c392 18bd
00000010: 74d8 89bb fbce 35bd 7285 4abd 4a3f f33d
00000020: 9ebf 4a3e 0304 10bd 2269 abbc f42d 513d
00000030: 28c4 493c a0a3 323e 5b97 5f3e 2651 063e
00000040: edb7 6e3d 544d fcbd f51e 8f3d 020a 523d
00000050: fed7 343e 9b91 d2bd 9e8e 57bd 9bb7 52be
00000060: c640 4ebe c8c2 e7be 10c6 64be 4a0e c6be
00000070: c3d4 26bc 8fd6 90be f06f 51be 5258 66be
00000080: daa6 403d 8570 24be 2da2 3cbe 5a25 06be
00000090: 4520 39be d013 19be bbe5 05be d1db 7abd
000000a0: 9f9e a23c 27e4 0fbe 4d86 06be d7bd 803d
000000b0: 981c 1b3d 852a 3abe 285d e83c 2d9c 8bbe
000000c0: 4865 04be 06b4 c63d 6108 41be bb8f b33d
000000d0: 2df2 be3d 72b7 953d ffc4 7fbd 7121 003e
000000e0: 8195 083e 26db 89bd 36cd 10bd 27c1 30be
000000f0: 2658 f8bc 9d21 f2bd da09 21bc b85b d7bd
00000100: 8ee8 933d 5494 40be 8228 163e c2f9 513e
00000110: 1823 0dbe 5715 c93c 9411 3dbe f8b9 1bbe

embedder.rnn.weight_ih_l2 f4 [72, 24]
-0.11456144 -0.026016902 0.11619521 -0.045757495 -0.22456901 0.16117457 0.028425263 0.1713108
-0.12943052 -0.14810526 0.09024868 0.17566496 0.124027066 0.15553865 0.12161316 -0.07244507
0.20688353 -0.048713338 0.14115937 -0.041789085 -0.11378224 0.10209146 -0.021165695 0.1781979
0.16590625 -0.14503486 0.016708229 0.14037772 -0.21540445 0.05029826 -0.10089923 0.24478216
-0.38527292 0.07698297 0.018855536 -0.091614984 -0.15379763 0.060297363 -0.1361582 -0.077826194
-0.061852522 -0.122001246 0.14341626 -0.009819512 0.11280547 0.052554395 -0.14481775 -0.07084786
0.07085691 -0.1279693 0.030271983 0.11420894 -0.2599472 0.012486416 0.14303802 -0.1122963
-0.2753941 0.08348155 0.148689 -0.020753916 -0.19226605 -0.061269566 -0.0003065662 0.09342015
0.22838306 -0.10496429 0.04508624 -0.03759803 0.22465554 -0.16386326 -0.1318855 0.024253407
0.07017269 -0.07577912 -0.14427556 0.18981652 0.07587564 0.08168854 0.09424403 0.09325346
-0.07539729 -0.16853742 -0.05148805 -0.072628655 -0.04408504 0.19946909 -0.028284939 0.1860531
0.202787 -0.05697741 0.051234573 -0.09673236 0.24810725 -0.012540972 -0.13473646 0.15530421
-0.02658966 0.17009465 0.018815711 0.12941578 -0.20377198 0.17934886 -0.13828829 -0.17435808
-0.114634484 0.2600034 -0.1980201 0.0048769177 0.08453614 0.026246773 -0.120385796 0.21011138
0.20154484 -0.10745614 0.030874413 -0.21741576 0.30514666 0.110818945 0.14108764 0.15365049
-0.16782334 -0.08538049 0.11093997 0.011695444 0.019028053 -0.040966827 0.008974155 -0.081503294
0.12543689 -0.077119544 0.16790672 0.03940653 0.15589583 -0.1736581 -0.17230172 0.05961063
-0.055406645 0.06572092 0.0050484184 -0.15178199 0.07841462 0.1941609 -0.13333817 0.18721177
0.042411998 0.05687836 0.026075758 -0.15960538 0.0351302 0.12927446 -0.20310311 0.1571704
-0.11136786 0.13541697 -0.16307344 0.14050822 0.033369504 0.067419134 -0.06943918 0.104777545
-0.07301213 0.03668699 -0.1943035 -0.16407143 0.028957048 0.14757027 0.005252826 -0.07253352
0.12906025 -0.08064401 0.114457935 0.14116591 -0.14368589 0.1610923 0.14612496 0.05614186
-0.09427232 0.086976685 -0.038474016 0.05510516 0.19485939 -0.19253291 0.10758503 0.17902866
0.08835187 0.06290624 0.17218794 -0.14667165 0.03950156 0.029689424 0.04321713 0.13997202
0.15232034 0.11081088 -0.18474577 -0.18639919 -0.21806361 0.08047946 -0.12545773 -0.025297156
-0.25400877 0.15817994 -0.078232124 -0.051934816 0.024203895 0.08745447 -0.003969181 -0.024885997
-0.020419383 -0.17725624 -0.1340784 -0.040246893 0.11831136 -0.20611206 0.1664153 0.18739839
-0.085333645 0.18006623 -0.0788971 -0.0642352 0.0008956047 -0.19703062 0.19297518 0.0445845
-0.13114956 -0.2176608 0.15282983 0.12864235 0.29474202 0.19792806 -0.21147345 0.13533022
0.26884124 0.020171631 -0.05292651 -0.10428146 -0.0487427 -0.06150603 -0.23157863 0.08511493
0.19781515 -0.07483729 0.116645195 -0.22472075 -0.13810222 0.13511989 0.26045212 0.23578429
-0.07772778 0.26246494 -0.24071893 0.14727177 0.115655825 -0.19535504 0.1168181 0.09720145
00000000: 309f eabd 6621 d5bc c1f7 ed3d 366c 3bbd
00000010: 6bf5 65be f20a 253e 19dc e83c 196c 2f3e
00000020: 6f89 04be e8a8 17be 4dd4 b83d 84e1 333e
00000030: e701 fe3d 8645 1f3e 5210 f93d 155e 94bd
00000040: 47d9 533e a387 47bd 158c 103e 082b 2bbd
00000050: aa06 e9bd 5415 d13d ae63 adbc 8379 363e
00000060: 54e3 293e 0584 14be b2df 883c 2dbf 0f3e
00000070: fc92 5cbe 8c05 4e3d 41a4 cebd 2da8 7a3e
00000080: 7e42 c5be 3fa9 9d3d ed76 9a3c a3a0 bbbd
00000090: 207d 1dbe 5efa 763d 0e6d 0bbe 5763 9fbd
000000a0: 1259 7dbd cadb f9bd b6db 123e 05e2 20bc
000000b0: 8e06 e73d 4743 573d 1b4b 14be af18 91bd
000000c0: 6d1d 913d 620a 03be f3fc f73c 60e6 e93d
000000d0: cd17 85be d393 4c3c 8f78 123e 9afb e5bd
000000e0: 7500 8dbe 60f8 aa3d ee41 183e 1e04 aabc
000000f0: 64e1 44be ccf5 7abd 9eba a0b9 1053 bf3d
00000100: 40dd 693e 85f7 d6bd 59ac 383d 6400 1abd
00000110: 1a0c 663e c5cb 27be fe0c 07be 15af c63c
00000120: b3b6 8f3d 1532 9bbd f9bc 13be 435f 423e
00000130: b064 9b3d 524c a73d 0403 c13d acfb be3d
00000140: e569 9abd 1395 2cbe 22e5 52bd 55be 94bd
00000150: 8492 34bd a041 4c3e d1b5 e7bc b484 3e3e
00000160: 65a7 4f3e 2561 69bd 58db 513d 9e1b c6bd
00000170: d40f 7e3e a678 4dbc 5bf8 09be 1108 1f3e
00000180: 8fd2 d9bc 4b2d 2e3e 6823 9a3c 9285 043e
00000190: 9aa9 50be 3aa7 373e 729b 0dbe ed8a 32be
000001a0: 7cc5 eabd 2a1f 853e c8c5 4abe 8dce 9f3b
000001b0: 4921 ad3d 7903 d73c d48c f6bd 7027 573e
000001c0: c561 4e3e f711 dcbd 56ec fc3c 3da2 5ebe
000001d0: 2f3c 9c3e 0bf5 e23d 4779 103e 8e56 1d3e
000001e0: e2d9 2bbe f7db aebd 7f34 e33d 3f9e 3f3c
000001f0: b8e0 9b3c d5cc 27bd 5608 133c 33eb a6bd
00000200: 8772 003e daf0 9dbd bdef 2b3e be68 213d
00000210: 28a3 1f3e 6ed3 31be dd6f 30be 472a 743d
00000220: 14f2 62bd b198 863d 346d a53b bd6c 1bbe
00000230: d897 a03d 1dd2 463e cd89 08be 71b4 3f3e
00000240: 34b8 2d3d 49f9 683d d49c d53c 986f 23be
00000250: afe4 0f3d 8660 043e 43fa 4fbe 47f1 203e
00000260: d514 e4bd bfaa 0a3e b9fc 26be 63e1 0f3e
00000270: 76ae 083d 0b13 8a3d 2136 8ebd 9c95 d63d
00000280: 6287 95bd 1945 163d 7ff7 46be 5702 28be
00000290: 5537 ed3c a91c 173e e61f ac3b 748c 94bd
000002a0: 5f28 043e b028 a5bd ec68 ea3d cc8d 103e
000002b0: 6522 13be 61f5 243e c8a1 153e 02f5 653d
000002c0: d911 c1bd d520 b23d ee96 1dbd f3b5 613d
000002d0: 3889 473e 5927 45be 8a55 dc3d 4a53 373e
000002e0: d3f1 b43d fdd4 803d 0952 303e 1831 16be
000002f0: 63cc 213d 3c37 f33c 7204 313d d354 0f3e
00000300: ddf9 1b3e d1f0 e23d ff2d 3dbe 6edf 3ebe
00000310: 114c 5fbe 6ad2 a43d fe77 00be fb3b cfbc
00000320: 700d 82be ecf9 213e 2a38 a0bd 9ab9 54bd
00000330: 3f47 c63c 541b b33d e70f 82bb b8dd cbbc
00000340: 8d46 a7bc a982 35be d94b 09be edd9 24bd
00000350: 3a4d f23d 0a0f 53be c668 2a3e 5de5 3f3e
00000360: 68c3 aebd 4863 383e ce94 a1bd bf8d 83bd
00000370: 04c7 6a3a 65c2 49be 499b 453e 3d9e 363d
00000380: 124c 06be 79e2 5ebe 6c7f 1c3e d2ba 033e
00000390: 6de8 963e a7ad 4a3e 7f8c 58be 0194 0a3e
000003a0: 8fa5 893e fa3e a53c 78c9 58bd 8591 d5bd
000003b0: 6da6 47bd bfed 7bbd f322 6dbe bd50 ae3d
000003c0: 0e90 4a3e 4b44 99bd ade3 ee3d 321d 66be
000003d0: ab6a 0dbe de5c 0a3e fb59 853e 7071 713e
000003e0: be2f 9fbd ce61 863e 067f 76be 69ce 163e
000003f0: f6dc ec3d 270b 48be 543e ef3d 8e11 c73d

embedder.rnn.weight_hh_l2 f4 [72, 24]
-0.036984067 0.050554577 0.07954979 0.059337404 -0.108742945 0.21228033 -0.029477542 0.22244577
-0.010410412 0.12798408 0.055056088 -0.055676173 -0.14331086 0.14051537 -0.19584414 -0.17044786
0.05246633 0.035568774 -0.13862456 0.1235257 0.25009614 -0.19523463 0.24828474 0.083134085
-0.21841939 -0.26124653 -0.34063694 -0.11270047 0.097245626 0.032196574 -0.06197075 0.04840878
-0.18411401 0.19123594 -0.020177016 0.10729023 0.13909666 -0.16290942 -0.046870608 0.06877356
0.28489244 0.352942 0.07564158 -0.005524731 0.18493229 -0.032252006 0.020860793 0.043007683
0.031365104 -0.03389673 0.019211855 -0.0655682 0.020118965 0.24025379 -0.08188753 -0.008251219
0.09022851 0.17652331 0.23312922 -0.07188252 0.070854425 -0.18323223 -0.17565094 0.042238265
0.17441319 0.36999366 -0.053346593 -0.28256923 0.21780287 -0.1618815 0.15497957 0.16425657
-0.14625615 -0.08506961 0.10443317 -0.23114336 -0.09837476 0.05165053 0.023044037 -0.05995276
-0.02604653 0.085971095 -0.12654358 -0.17031963 -0.1862994 0.055707067 -0.091472216 -0.19906195
0.17612492 0.25909063 -0.13508348 -0.13207747 0.27969947 -0.14271022 0.077444546 0.2049213
-0.23160343 -0.14185253 -0.084599875 0.07905888 0.24723887 0.11102058 0.09237965 0.029311994
-0.12129861 0.13987018 0.2512534 -0.070459545 0.060192376 -0.16996197 -0.20959504 -0.21228401
-0.019351598 0.26753643 -0.12128614 -0.10458493 0.051403213 -0.023411175 0.05382478 -0.07358856
-0.22375853 -0.25051534 -0.20776904 -0.2071066 0.15683645 0.094847605 -0.08609212 0.08588266
-0.20442031 0.031270303 -0.09767279 -0.18391198 -0.13823907 -0.022615254 -0.15239841 0.009026756
0.1527799 0.072843365 -0.09008815 0.060044017 -0.07307149 -0.12268038 0.23227298 0.17089526
0.05389883 0.020859936 0.0008636755 -0.19117768 0.05479277 0.16949332 0.13090776 0.17761725
-0.033467274 0.18783626 -0.06827683 0.13818681 -0.07878262 -0.11117298 0.13285664 -0.019790772
0.1693409 0.1731249 -0.023993636 -0.23648386 0.2645159 -0.19514515 0.24319795 0.059188414
-0.13987812 0.049830567 -0.17487355 -0.22131552 0.07515259 0.17215712 -0.10965495 0.039020862
0.10982293 0.31540564 0.19370738 -0.23962061 -0.021811107 0.039313886 -0.0069296444 -0.00470842
0.22782083 0.185335 0.015051805 -0.2627583 0.19676352 -0.17336524 3.9423394e-05 0.27918223
-0.19038512 -0.11676813 0.10143045 0.02500449 -0.07966199 0.17008767 0.16016929 -0.122353904
-0.0093081575 0.04838855 0.051707953 -0.25060093 -0.10054631 -0.06489705 -0.22595525 -0.009839236
0.2145721 0.14451246 0.08935028 -0.16075169 0.35545674 -0.11527223 0.062681034 0.23458657
-0.13232993 -0.15550406 -0.2027338 0.13876493 0.081992954 -0.011815935 -0.075890206 0.036290348
0.10569966 -0.24709162 0.21260811 -0.17769806 -0.10289233 0.09755182 -0.14135443 0.066549845
-0.02215223 0.1803474 -0.08583124 -0.17536241 0.20230334 0.101635695 -0.0023440141 -0.05636932
0.05992099 -0.10111837 -0.18142664 -0.031300165 0.24642338 0.28293598 0.28321972 0.2847408
-0.06499983 0.1366336 0.3005341 0.030067798 -0.18296067 0.07374654 -0.1280368 -0.3323441
00000000: 9b7c 17bd 5112 4f3d 00eb a23d c70b 733d
00000010: 9fb4 debd 0460 593e e37a f1bc d3c8 633e
00000020: 6f90 2abc 420e 033e 7e82 613d b30c 64bd
00000030: 15c0 12be 43e3 0f3e 5e8b 48be e289 2ebe
00000040: efe6 563d 90b0 113d 99f3 0dbe 0bfb fc3d
00000050: 9a0c 803e 96eb 47be 5b3e 7e3e 3442 aa3d
00000060: 55a9 5fbe 1bc2 85be f767 aebe 81cf e6bd
00000070: b728 c73d 8ee0 033d 0bd5 7dbd 4948 463d
00000080: 6288 3cbe 5bd3 433e 454a a5bc fbba db3d
00000090: 5b6f 0e3e bad1 26be 65fb 3fbd 27d9 8c3d
000000a0: 6cdd 913e d0b4 b43e f9e9 9a3d cd08 b5bb
000000b0: e45e 3d3e ae1a 04bd 41e4 aa3c d328 303d
000000c0: b278 003d 4cd7 0abd 2e62 9d3c 9f48 86bd
000000d0: 87d0 a43c 1705 763e a6b4 a7bd 1f30 07bc
000000e0: bac9 b83d 87c2 343e 6db9 6e3e 2537 93bd
000000f0: 201c 913d 3ba1 3bbe d7dd 33be 0802 2d3d
00000100: 5f99 323e cf6f bd3e f581 5abd eaac 90be
00000110: b707 5f3e 44c4 25be f7b2 1e3e e032 283e
00000120: 2cc4 15be fa38 aebd 0fe1 d53d d8b0 6cbe
00000130: b578 c9bd 828f 533d d9c6 bc3c 0691 75bd
00000140: 885f d5bc 9d11 b03d a494 01be 4568 2ebe
00000150: 45c5 3ebe 182d 643d c955 bbbd e5d6 4bbe
00000160: 175a 343e 87a7 843e 5353 0abe 513f 07be
00000170: c534 8f3e a122 12be 3f9b 9e3d e4d6 513e
00000180: 7329 6dbe ca41 11be b342 adbd 9fe9 a13d
00000190: 302c 7d3e c25e e33d 8b31 bd3d b51f f03c
000001a0: 686b f8bd 213a 0f3e 49a4 803e 184d 90bd
000001b0: 488c 763d 830a 2ebe 15a0 56be fb60 59be
000001c0: 3e87 9ebc 89fa 883e de64 f8bd a030 d6bd
000001d0: 2d8c 523d cbc8 bfbc 5f77 5c3d 99b5 96bd
000001e0: f520 65be 8c43 80be 68c1 54be c113 54be
000001f0: bc99 203e 763f c23d 1151 b0bd 3fe3 af3d
00000200: 8f53 51be 4a15 003d ac08 c8bd 6c53 3cbe
00000210: 8b8e 0dbe a043 b9bc 540e 1cbe f5e4 133c
00000220: 5672 1c3e e72e 953d 2380 b8bd b7f0 753d
00000230: 81a6 95bd da3f fbbd f8d8 6d3e 2bff 2e3e
00000240: 05c5 5c3d 75e2 aa3c 4868 623a 15c4 43be
00000250: 626e 603d a88f 2d3e af0c 063e 4ce1 353e
00000260: fb14 09bd 2658 403e b9d4 8bbd d880 0d3e
00000270: c858 a1bd a9ae e3bd 920b 083e 4220 a2bc
00000280: b367 2d3e a747 313e 4d8e c4bc d328 72be
00000290: a16e 873e 21d4 47be e208 793e 8d6f 723d
000002a0: 363c 0fbe 231b 4c3d 0d12 33be 89a0 62be
000002b0: 9ae9 993d f549 303e c692 e0bd 57d4 1f3d
000002c0: d8ea e03d d97c a13e 3a5b 463e 1b5f 75be
000002d0: 35ad b2bc 9907 213d 1212 e3bb 1749 9abb
000002e0: dd49 693e 75c8 3d3e d99b 763c 4288 86be
000002f0: 607c 493e a886 31be 8c5a 2538 f9f0 8e3e
00000300: 51f4 42be 2124 efbd c5ba cf3d 37d6 cc3c
00000310: d325 a3bd 762b 2e3e 6b03 243e af94 fabd
00000320: 3e81 18bc 1233 463d b8cb 533d c44e 80be
00000330: 39eb cdbd bfe8 84bd d060 67be bf34 21bc
00000340: cab8 5b3e 13fb 133e 48fd b63d 179c 24be
00000350: 6dfe b53e d913 ecbd ea5e 803d 7637 703e
00000360: 7f81 07be 753c 1fbe 7399 4fbe 6518 0e3e
00000370: eceb a73d a097 41bc 536c 9bbd 30a5 143d
00000380: 1079 d83d 9605 7dbe f1b5 593e 7bf6 35be
00000390: 37b9 d2bd 40c9 c73d 37bf 10be 494b 883d
000003a0: 9878 b5bc fdac 383e 4ac8 afbd 3492 33be
000003b0: 9b28 4f3e 6026 d03d 089e 19bb 84e3 66bd
000003c0: b66f 753d 2617 cfbd e8c7 39be 9a34 00bd
000003d0: 6956 7c3e fcdc 903e 2d02 913e 8cc9 913e
000003e0: a21e 85bd aee9 0b3e 9bdf 993e be50 f63c
000003f0: 0b5a 3bbe 6d08 973d 141c 03be 0229 aabe

embedder.rnn.bias_ih_l2 f4 [72]
0.14055493 -0.092891544 -0.009707101 -0.040007424 -0.14416176 -0.18870841 -0.16455285 0.07548468
0.035709474 0.18788454 0.0034283346 -0.1354344 0.06163512 -0.16012321 -0.043575358 -0.00514141
-0.11941555 0.016276313 -0.07841939 -0.1442606 0.13363479 -0.034001034 0.055255495 -0.052757725
-0.27605456 -0.44764495 -0.2821527 -0.4825147 -0.23116553 -0.19150405 -0.3107327 -0.39277136
-0.3522044 -0.4947746 -0.5826936 -0.1700506 -0.34548512 -0.33138865 -0.18890883 -0.3038535
-0.36432803 -0.5085371 -0.20545998 -0.18420225 -0.40032193 -0.3267008 -0.4453812 -0.25246137
0.035467833 0.040636815 -0.19069585 0.11768243 -0.111975044 -0.011843526 -0.030537348 -0.1052523
-0.14883344 -0.056281745 -0.12562786 0.018758904 0.004182365 -0.2049933 0.077831805 0.17442137
0.15549408 0.04934585 0.09912462 0.09178517 0.22749205 0.12316505 0.16833343 0.3021589
00000000: a2ed 0f3e ec3d bebd 880a 1fbc d3de 23bd
00000010: 249f 13be c73c 41be 8b80 28be b697 9a3d
00000020: 1944 123d ce64 403e e9ad 603b 51af 0abe
00000030: 1c75 7c3d 57f7 23be 137c 32bd 4679 a8bb
00000040: 2490 f4bd e755 853c 589a a0bd 0db9 13be
00000050: 8fd7 083e ab44 0bbd 9653 623d 7c18 58bd
00000060: 0657 8dbe b831 e5be 5276 90be 2b0c f7be
00000070: a8b6 6cbe a319 44be 5b18 9fbe 5419 c9be
00000080: 2354 b4be 1953 fdbe 682b 15bf bf21 2ebe
00000090: 6de3 b0be c6ab a9be 5171 41be b092 9bbe
000000a0: 3489 babe 7d2f 02bf 1a64 52be 849f 3cbe
000000b0: fff6 ccbe 5445 a7be 0109 e4be 9e42 81be
000000c0: b846 113d ca72 263d c645 43be 7c03 f13d
000000d0: 2c53 e5bd 590b 42bc 7629 fabc 858e d7bd
000000e0: cb67 18be b087 66bd 97a4 00be 46ac 993c
000000f0: 380c 893b c3e9 51be 4866 9f3d 849b 323e
00000100: d739 1f3e e01e 4a3d d901 cb3d ddf9 bb3d
00000110: adf3 683e f53d fc3d 995f 2c3e 92b4 9a3e

embedder.rnn.bias_hh_l2 f4 [72]
-0.06468023 -0.1433707 0.176428 -0.040304866 0.04425582 -0.07851838 0.17015941 -0.039899934
0.15419474 0.19620249 -0.039596274 -0.099424265 -0.18983264 0.07832512 0.22970662 -0.10771865
-0.026379528 -0.067084216 -0.21756577 -0.12204516 0.025983948 -0.03127321 0.17084785 0.10635437
-0.41224262 -0.43674648 -0.5163284 -0.38712624 -0.4650281 -0.46391255 -0.26460412 -0.22692482
-0.5828703 -0.5935496 -0.28992775 -0.33333904 -0.14654623 -0.20256577 -0.42094064 -0.17833404
-0.57466775 -0.40458006 -0.20988837 -0.3075586 -0.45431435 -0.15709524 -0.5342156 -0.28787437
-0.0274399 -0.010903562 -0.022635864 -0.0014455784 -0.03280467 -0.013294624 -0.027116794 0.040596977
-0.2809134 -0.38279462 0.20342049 0.22701018 -0.11643956 0.029039571 -0.036492646 -0.19594456
0.0783726 0.077415586 0.008239362 0.15548216 -0.0085773915 0.18565856 -0.044630133 -0.039545745
00000000: 1277 84bd c5cf 12be 8ba9 343e b716 25bd
00000010: 9745 353d 3fce a0bd 453e 2e3e 1d6e 23bd
00000020: 3ae5 1d3e 4ee9 483e b42f 22bd f39e cbbd
00000030: 7d63 42be ec68 a03d 3638 6b3e 989b dcbd
00000040: e119 d8bc 7363 89bd 90c9 5ebe d0f2 f9bd
00000050: 4adc d43c 5618 00bd bdf2 2e3e 52d0 d93d
00000060: 7711 d3be 3c9d dfbe 192e 04bf 6935 c6be
00000070: 2a18 eebe f285 edbe 317a 87be fb5e 68be
00000080: fd36 15bf def2 17bf 6971 94be 6aab aabe
00000090: 3710 16be 676d 4fbe 8885 d7be 339d 36be
000000a0: 6d1d 13bf 1e25 cfbe faec 56be 5278 9dbe
000000b0: e49b e8be 93dd 20be 5bc2 08bf 4564 93be
000000c0: a4c9 e0bc dba4 32bc d96e b9bc 9079 bdba
000000d0: 315e 06bd b2d1 59bc 0a24 debc 0449 263d
000000e0: e2d3 8fbe a8fd c3be 764d 503e 5b75 683e
000000f0: dd77 eebd 65e4 ed3c 5079 15bd b1a5 48be
00000100: d081 a03d 108c 9e3d 64fe 063c b736 1f3e
00000110: 3088 0cbc 471d 3e3e 16ce 36bd b8fa 21bd
