data/augmented/timegan_class_5.pt (torch, 239069 bytes, 65 tensors)

embedder.rnn.weight_ih_l0 f4 [72, 43]
0	0xbe034864	-0.12820584
1	0xbd44e474	-0.048069432
2	0xbe018a1e	-0.12650344
3	0xbe1864ec	-0.14882249
4	0x3d27943d	0.040912855
5	0xbe3ab51b	-0.18233149
6	0x3e3ad05d	0.18243547
7	0x3e420eb2	0.18950918
8	0xbe3580e2	-0.17724946
9	0x3e163985	0.1467038
10	0xbb61f7f8	-0.0034480076
11	0xbd69e8a3	-0.057106625
12	0x3d505407	0.050861385
13	0xbbac5fc3	-0.005260439
14	0x3def022a	0.11670335
15	0xbe142290	-0.1446631
16	0x3e242d01	0.16032793
17	0x3e4698b3	0.19394188
18	0x3ddf0b8f	0.108908765
19	0x3d9ffbcd	0.07811699
20	0xbdf4ac6d	-0.1194695
21	0xbd8d04b5	-0.068856634
22	0x3d91119f	0.07083439
23	0x3e18675c	0.14883178
24	0x3dffbc21	0.124870546
25	0x3cd88301	0.026429655
26	0xbd25f1e9	-0.040513907
27	0x3a5ddd23	0.0008463433
28	0xbd587e97	-0.0528551
29	0xbd76aac7	-0.06022146
30	0xbe247fa8	-0.16064322
31	0xbd5c4919	-0.05378065
32	0xbb537b71	-0.0032269622
33	0xbddca3e2	-0.10773446
34	0x3e09b47c	0.13447756
35	0x3e105a62	0.14096978
36	0xbd318fd9	-0.043350074
37	0x3e00b328	0.12568343
38	0x3dff68d2	0.12471165
39	0xbcd6e215	-0.026230851
40	0x3e2a7df3	0.16649608
41	0xbe40efac	-0.18841428
42	0x3e193683	0.14962201
43	0x3c24d5ab	0.010060708
44	0x3e04c5e1	0.1296611
45	0x3da08b71	0.07839096
46	0xbcb21eaf	-0.021743147
47	0x3d82a548	0.06379181
48	0xbe37310a	-0.178898
49	0x3deacc2f	0.11464726
50	0x3dc17fa3	0.09448173
51	0xbd3d9729	-0.046286736
52	0x3d41b168	0.04728833
53	0xbe14511d	-0.14484067
54	0x3d5e002c	0.054199383
55	0xbe41db3b	-0.18931286
56	0x3d8a6184	0.06756881
57	0x3de7cd33	0.113184355
58	0x3d4c5676	0.049887143
59	0xbdd9eb73	-0.106406115
60	0xbdc1892b	-0.09449991
61	0xbdb78bd9	-0.08962221
62	0xbddb7f59	-0.10717649
63	0xbe4ac3f6	-0.19801316
64	0x3e30f473	0.1728075
65	0xbde26452	-0.11054291
66	0xbe0b43b5	-0.13600047
67	0xbdd3afda	-0.103362754
68	0x3e3ae2bc	0.18250555
69	0xbdb0becf	-0.08630144
70	0x3debc52d	0.11512218
71	0x3ddda31d	0.10822127
72	0x3ca283ab	0.019838175
73	0xbdec2228	-0.11529952
74	0xbe4fb1dd	-0.20282693
75	0xbdd1c635	-0.10242883
76	0x3e13b715	0.14425309
77	0xbe1af06e	-0.15130779
78	0x3d5d6c7c	0.054058537
79	0x3de9b094	0.11410633
80	0x3d9b6056	0.07586734
81	0x3e4a3f72	0.19750765
82	0xbd7c7ea5	-0.061644215
83	0xbd8ff7c4	-0.070296794
84	0x3cd247e0	0.025669038
85	0x3d7d5dd4	0.06185706
86	0x3e1fc1fc	0.15601343
87	0x3d87b037	0.06625407
88	0xbcea017d	-0.028565163
89	0x3db471d8	0.088107765
90	0x3e17006d	0.14746256
91	0x3e1dfd91	0.15428759
92	0x3db95d82	0.09051038
93	0xbde07f24	-0.1096175
94	0x3cd2fed3	0.025756275
95	0xbd437535	-0.0477192
96	0xbde4726d	-0.111546375
97	0xbcc07214	-0.023491897
98	0xbe1e890b	-0.15481965
99	0xbd24440d	-0.04010396
100	0xbd7119e3	-0.058862578
101	0xbdb05336	-0.08609621
102	0x3e029f9e	0.12756202
103	0xbe05ae4b	-0.13054769
104	0x3e2007c3	0.15627961
105	0xbe1160c5	-0.14197071
106	0xbe0f60f6	-0.14001831
107	0xbe347ae2	-0.17625001
108	0xbdaf17eb	-0.08549484
109	0xbd8b3007	-0.0679627
110	0xbdb4143e	-0.087929234
111	0x3e09d414	0.13459808
112	0x3e2fbf1f	0.1716275
113	0x3e0d05f9	0.1377181
114	0x3e325503	0.17415242
115	0xbe412bc5	-0.18864353
116	0xbe0f401a	-0.13989297
117	0xbc297a62	-0.01034412
118	0xbcb38edf	-0.021918712
119	0xbe34ca34	-0.1765526
120	0xbe09257a	-0.13393202
121	0xbdd3c902	-0.103410736
122	0xbd06f557	-0.032948818
123	0x3d6d0824	0.05786909
124	0xbe2ecc40	-0.17070103
125	0x3e4b2840	0.19839573
126	0x3da26fb3	0.07931461
127	0xbe06c7b5	-0.1316212
128	0xbd674ecf	-0.056471642
129	0x3d372118	0.044709295
130	0xbe0eff71	-0.1396463
131	0xbdcdd66f	-0.100506656
132	0xbe3ed76a	-0.18636861
133	0xbcbbb505	-0.022913465
134	0xbe3f14ad	-0.18660231
135	0xbdb10c12	-0.0864488
136	0xbda04230	-0.07825124
137	0xbe205f7f	-0.15661429
138	0x3d54e1c8	0.051973134
139	0x3e1aa5ff	0.15102385
140	0x3dcdbe76	0.10046093
141	0xbc5f39c8	-0.013624616
142	0x3e4d23b6	0.20033154
143	0x3daf93f9	0.085731454
144	0xbc41c984	-0.01182783
145	0x3dffd239	0.12491269
146	0x3e4dff88	0.20117009
147	0x3d96a0a6	0.0735486
148	0x3e3cab2b	0.1842467
149	0xbe1fbcdb	-0.15599386
150	0x3db8f370	0.09030807
151	0x3e3bcd01	0.18339922
152	0x3e0e7f66	0.13915786
153	0x3b84015e	0.0040284833
154	0x3c60961f	0.013707667
155	0x3c07cce5	0.008288597
156	0xbd854795	-0.06507794
157	0xbdf53dd4	-0.119746834
158	0x3e18b6a3	0.1491342
159	0x3e1e478d	0.15456982
160	0x3dd52d00	0.10408974
161	0x3d56cb73	0.052440118
162	0x3d823079	0.06356902
163	0x3dd26944	0.10273984
164	0x3d2c38da	0.042046405
165	0xbe1dbd5a	-0.15404263
166	0x3d52b69d	0.051443685
167	0xbd5ed638	-0.054403514
168	0xbdea8900	-0.11451912
169	0xbe401e60	-0.18761587
170	0xbd3f9cd8	-0.046780437
171	0xbe235adc	-0.15952629
172	0xbd93d645	-0.07218603
173	0x3dc04999	0.09389038
174	0xbd42159c	-0.04738389
175	0x3dd2cd66	0.10293083
176	0x3cbb8cb8	0.022894248
177	0x3e28ddbd	0.16490836
178	0xbd125f23	-0.03573526
179	0x3c49317b	0.0122798635
180	0xbe2915eb	-0.16512267
181	0xbd2cd16c	-0.042191908
182	0x3def805f	0.11694407
183	0xbe09ed81	-0.13469507
184	0xbe1a1da6	-0.15050372
185	0xbc5ffc33	-0.013670969
186	0xbce61c27	-0.028089596
187	0xbce40494	-0.027834214
188	0x3e1f36a2	0.15548185
189	0xbe1577d3	-0.1459649
190	0x3dba8086	0.09106545
191	0x3e014be9	0.12626614
192	0x3d9ba780	0.076003075
193	0xbe0520c7	-0.13000785
194	0x3d69fba7	0.05712476
195	0xbd92427f	-0.071415894
196	0x3d2476f8	0.04015252
197	0xbce94321	-0.028474392
198	0xbcdbf12a	-0.026848394
199	0xbe323cda	-0.17406026
200	0x3e125dd5	0.14293607
201	0xbe2e2ef5	-0.170101
202	0x3e186926	0.14883861
203	0x3dfbfff6	0.1230468
204	0x3dd73266	0.105076596
205	0xbda4067b	-0.080090486
206	0x3db34409	0.08753211
207	0xbd50d4df	-0.05098426
208	0xbc12f1fe	-0.008968828
209	0x3dbef2a3	0.09323623
210	0xbe04392f	-0.12912439
211	0xbd60b5e3	-0.05486096
212	0xbe35389b	-0.17697375
213	0x3c51c3bc	0.012803014
214	0x3cacd3bf	0.021097062
215	0xbd89a91e	-0.0672171
216	0x3e0edeac	0.1395213
217	0xbd87758b	-0.066142164
218	0x3e1d9bbf	0.15391444
219	0xbdbdd49a	-0.09269066
220	0xbd9a97f6	-0.075485155
221	0xbcfb35ac	-0.030665241
222	0x3c9594ed	0.01825949
223	0xbdbec516	-0.09314935
224	0xbe335bcd	-0.17515488
225	0x3d030277	0.031984773
226	0xbd01ad04	-0.03165914
227	0xbe2fc123	-0.1716352
228	0xbddd857e	-0.10816477
229	0x3dd5cef3	0.10439863
230	0xbe0f8d22	-0.14018682
231	0x3e2ed9a0	0.17075205
232	0x3e4f04d9	0.20216693
233	0x3e0b3391	0.1359389
234	0x3d162dca	0.03666476
235	0x3c6ec253	0.014572698
236	0x3e3da895	0.1852134
237	0xbe163a60	-0.14670706
238	0x3d1f652f	0.038914856
239	0x3be8dc02	0.007106305
240	0x3c1cc48b	0.009568344
241	0xbe1e716f	-0.15472959
242	0xbdeb6fc0	-0.11495924
243	0x3d3db41f	0.046314355
244	0x3d0f03cf	0.03491574
245	0x3d072a49	0.03299931
246	0xbde3028b	-0.110844694
247	0xbe41c8ee	-0.18924305
248	0x3e3a41c8	0.18189156
249	0x3e013d41	0.12621023
250	0xbdfb536f	-0.12271773
251	0x3e29106e	0.16510174
252	0xbe4f548e	-0.20247099
253	0x3db78506	0.08960919
254	0xbdb1926c	-0.08670506
255	0x3dc0f392	0.09421457

embedder.rnn.weight_hh_l0 f4 [72, 24]
0	0x3d3764fd	0.044774044
1	0xbe5042ed	-0.2033803
2	0xbdb4fa40	-0.08836794
3	0x3c904c80	0.017614603
4	0xbe0c2625	-0.13686426
5	0xbdad29f0	-0.084552646
6	0x3e400ec9	0.1875564
7	0xbe068619	-0.13137092
8	0xbe0a4544	-0.13502985
9	0xbdcae16d	-0.09906278
10	0xbce28fd6	-0.027656477
11	0x3e0c6870	0.13711715
12	0xbb09c14e	-0.002101976
13	0x3d994cc2	0.074853435
14	0xbe0dca5c	-0.13846725
15	0x3e02305c	0.1271376
16	0xbbed323e	-0.0072386554
17	0x3df2fda9	0.11864788
18	0x3d8fc8e8	0.07020742
19	0x3dac61aa	0.084170654
20	0x3e476e33	0.19475631
21	0x3ded2174	0.11578646
22	0x3dd5c085	0.10437111
23	0x3d022df9	0.031782124
24	0xbe471aae	-0.19443771
25	0xbd95b1d9	-0.073093124
26	0xbe39ccb9	-0.18144502
27	0xbdbaef95	-0.09127728
28	0xbe1160fd	-0.14197154
29	0x3e3d855d	0.18507905
30	0x3d4e096d	0.050301958
31	0x3dadcbe5	0.084861554
32	0xbce74516	-0.028231185
33	0x3e37643c	0.1790933
34	0xbcf1953b	-0.029490104
35	0x3da318e8	0.07963735
36	0xbe43d648	-0.1912471
37	0xbe381b9c	-0.17979282
38	0x3da25435	0.079262175
39	0x3df55121	0.11978365
40	0x3dcaacdd	0.09896252
41	0x3b9e1a8e	0.004824943
42	0x3e0bd311	0.13654734
43	0x3dc1b36f	0.09458052
44	0xbbaf7312	-0.0053542936
45	0x3daaa1ca	0.0833164
46	0x3e165548	0.1468097
47	0x3e1ae8be	0.15127847
48	0xbe07b344	-0.13251978
49	0x3db6d113	0.089265965
50	0xbd41f32f	-0.04735106
51	0x3e26af1a	0.16277733
52	0x3cc32b5e	0.02382439
53	0xbd9fb114	-0.07797447
54	0xbdb3799e	-0.08763431
55	0xbdf0de42	-0.11761142
56	0xbde57738	-0.1120438
57	0x3d830148	0.06396729
58	0x3d473112	0.04863078
59	0x3d962ace	0.07332383
60	0x3d2231fe	0.039598458
61	0xbe36c0e4	-0.1784702
62	0x3e314b9d	0.17314
63	0xbdfdfca6	-0.124017045
64	0x3e2ded92	0.16985157
65	0x3e4d3edd	0.20043512
66	0xbe19eb23	-0.15031104
67	0x3e35de11	0.17760493
68	0x3d92e7d5	0.07173125
69	0xbd62cb02	-0.055369385
70	0xbd98775c	-0.07444641
71	0x3d505506	0.050862335
72	0x3d9e1151	0.077181466
73	0xbb9a90db	-0.004716975
74	0x3dcf73c6	0.10129504
75	0xbe0fcfcd	-0.14044113
76	0xbe400775	-0.18752845
77	0x3e18d931	0.14926602
78	0xbde6eb12	-0.11275305
79	0x3d501366	0.05079975
80	0x3db5c6f3	0.08875837
81	0x3c82ecd4	0.01598207
82	0xbe0a25d4	-0.13490993
83	0x3dbbb226	0.091648385
84	0x3e1fcda7	0.15605794
85	0x3df075ab	0.117411934
86	0xbadb8918	-0.0016749231
87	0xbe2b7b51	-0.1674626
88	0x3c601db0	0.013678953
89	0x3db07768	0.08616525
90	0xbd5eb667	-0.05437317
91	0xbe0a3866	-0.13498077
92	0x3e2fd733	0.17171936
93	0xbe28b66b	-0.16475837
94	0x3df1affc	0.118011445
95	0xbe07eef0	-0.13274741
96	0x3d9fb132	0.07797469
97	0xbe1d2ce3	-0.15349154
98	0xbd5a00db	-0.053223472
99	0x3dad1a89	0.08452327
100	0x3e0e4ec8	0.1389724
101	0xbcc3bcb8	-0.023893699
102	0x3e3a0b12	0.18168285
103	0x3d9560cd	0.07293854
104	0x3df39d97	0.11895292
105	0xbe0e293b	-0.13882916
106	0xbc24edad	-0.010066432
107	0xbe1e971d	-0.15487333
108	0xbd9e0954	-0.07716623
109	0x3e0c3e71	0.13695695
110	0x3e50060c	0.20314807
111	0x3e1accb9	0.15117158
112	0x3e4f280c	0.2023012
113	0xbd4a3684	-0.049368396
114	0xbe24ac83	-0.16081433
115	0x3ad20cf7	0.0016025592
116	0xbd9898d8	-0.07451028
117	0xbb891386	-0.0041832356
118	0x3d798ea4	0.06092705
119	0x3dc893a8	0.09793788
120	0x3c6dd451	0.014515952
121	0xbe4d864d	-0.20070763
122	0xbd23ec9c	-0.04002057
123	0xbe4e97e9	-0.20175137
124	0x3d79d44f	0.06099349
125	0xbdd005fa	-0.1015739
126	0xbde962b5	-0.1139578
127	0x3c060493	0.0081798015
128	0x3d92d429	0.071693726
129	0x3e39c7e3	0.18142657
130	0xbcbc2c96	-0.022970479
131	0x3deab873	0.11460962
132	0x3dbafb27	0.09129935
133	0x3e27a6ac	0.16372174
134	0xbe23962a	-0.15975252
135	0xbe300cd0	-0.17192388
136	0xb94d4c41	-0.0001957873
137	0xbe2ac6cb	-0.16677396
138	0xbe236531	-0.1595657
139	0x3e261991	0.1622069
140	0xbe2d590b	-0.16928498
141	0xbe3c37c9	-0.18380655
142	0xbe330175	-0.17481025
143	0x3e21d5a8	0.1580416
144	0x3d18fec8	0.037352353
145	0xbe119dd3	-0.14220361
146	0x3ddd16a7	0.10795336
147	0x3e4e40d4	0.20141917
148	0x3d4c7162	0.049912818
149	0xbd50d628	-0.050985485
150	0xbdcb6159	-0.09930677
151	0x3c703d96	0.014663121
152	0xbe20a017	-0.1568607
153	0xbb41fe2e	-0.0029600966
154	0xbe31e28c	-0.17371577
155	0xbe1a8992	-0.15091541
156	0x3dba99c6	0.09111361
157	0xbe0d64a6	-0.13807926
158	0x3d964c58	0.0733878
159	0x3dc35884	0.095383674
160	0x3d2a7041	0.04161096
161	0x3e2f0ad7	0.17093979
162	0xbd7a83e1	-0.061160926
163	0xbd958c4a	-0.07302149
164	0xbe14ddf3	-0.14537792
165	0x3e2b0860	0.16702414
166	0x3e251c40	0.16124058
167	0x3e4818e6	0.19540748
168	0x3bd8bedd	0.0066145496
169	0x3db827ea	0.08991988
170	0xbd08d643	-0.03340746
171	0xbdd61b54	-0.10454431
172	0x3db1983d	0.08671615
173	0x3de264e1	0.110543974
174	0x3dc41fd8	0.09576386
175	0xbd8d85df	-0.069102995
176	0xbe2ef37e	-0.17085072
177	0x3d3f9e99	0.04678211
178	0x3d934452	0.071907654
179	0x3c1af995	0.009458919
180	0xbd5ef963	-0.054437052
181	0xbdb01643	-0.08597996
182	0x3e059789	0.13046087
183	0xbd9f8611	-0.07789243
184	0xbe1aa03d	-0.15100189
185	0x3d4aa83b	0.049476843
186	0xbdc4119a	-0.0957367
187	0x3d8592f9	0.065221734
188	0x3df621bd	0.12018154
189	0x3dd16a6f	0.10225379
190	0x3e3805d8	0.17970979
191	0x3e0f1817	0.13974033
192	0xbc714fd4	-0.014728505
193	0x3b18e424	0.0023329342
194	0x3e2902c9	0.16504969
195	0xbd52b89b	-0.051445585
196	0x3c856f88	0.016288534
197	0xbe0a2071	-0.13488938
198	0xbcc6bb6d	-0.024259293
199	0x3cef2f35	0.029197315
200	0xbe1c7689	-0.15279593
201	0xbe169501	-0.14705278
202	0xbe5389b8	-0.20658004
203	0xbc681848	-0.014165945
204	0x3e1487cb	0.14504926
205	0xbe1b7f67	-0.15185319
206	0xbd392bb5	-0.045207698
207	0x3a03dfd7	0.0005030608
208	0xbcfecb3b	-0.031102767
209	0x3d86e981	0.06587506
210	0xbdb8d2e9	-0.09024603
211	0xbdaae1b2	-0.08343829
212	0x3d7b8abe	0.06141161
213	0xbd879df1	-0.06621922
214	0x3e047d2e	0.12938377
215	0x3d9e84a1	0.07740141
216	0x3e13b5ae	0.14424774
217	0xbde33e40	-0.110958576
218	0x3c9efa2c	0.0194064
219	0xbe1ad61c	-0.15120739
220	0xbd2a6e5d	-0.041609157
221	0xbe476690	-0.19472718
222	0xbdc03f13	-0.093870305
223	0xbdb4a43d	-0.088203885
224	0x3dd29baf	0.102836005
225	0xbe401faf	-0.18762086
226	0xbdc15491	-0.09439958
227	0x3d933b93	0.07189097
228	0xbe3815c3	-0.17977051
229	0xbdab3d52	-0.08361305
230	0x3db1ea9e	0.08687328
231	0x3db485c2	0.08814575
232	0xbdb6bd33	-0.08922806
233	0x3bb6fa35	0.005584026
234	0xbe3aa163	-0.18225627
235	0xbe2ed215	-0.17072327
236	0x3da745c0	0.08167601
237	0xbdfb4ed4	-0.12270895
238	0xbcef8084	-0.029236086
239	0x3e22371d	0.15841337
240	0xbe3d1f8d	-0.18469067
241	0x3c10d3fd	0.008839604
242	0x3a92ed8d	0.0011209712
243	0xbb26c633	-0.0025447726
244	0xbe1387e1	-0.14407302
245	0x3de22ca8	0.11043674
246	0x3d3442bb	0.04400895
247	0xbe44d026	-0.19220027
248	0xbe4d9d39	-0.20079507
249	0xbda29eb6	-0.07940428
250	0xbe27f6c6	-0.1640273
251	0x3e065bd0	0.13120961
252	0x3c397de9	0.011321523
253	0x3d3613c7	0.044452455
254	0x39ec2bf1	0.00045046167
255	0xbe24e0d0	-0.16101384

embedder.rnn.bias_ih_l0 f4 [72]
0	0xbc6f632c	-0.014611047
1	0x3cc4cd91	0.024023803
2	0x3e270a41	0.16312505
3	0xbdf64486	-0.120247886
4	0x3e177142	0.14789298
5	0xbe0b8b95	-0.13627465
6	0x3d692bcc	0.056926534
7	0x3bd15579	0.006388363
8	0xbdbab91f	-0.0911734
9	0xbdcc7f9f	-0.09985279
10	0x3d277f16	0.040892683
11	0x3e07cdfb	0.13262169
12	0xbc429b90	-0.011877909
13	0x3deb2e4b	0.11483439
14	0xbd307723	-0.043082368
15	0x3e06bca7	0.13157903
16	0xbdab544f	-0.0836569
17	0xbdcc2e85	-0.099698104
18	0xbe53f97a	-0.20700637
19	0xbe4047a5	-0.1877733
20	0x3e133285	0.1437474
21	0xbe1223bf	-0.14271449
22	0x3bcf21f2	0.0063211853
23	0x3d475d29	0.04867283
24	0xbe2eaa6c	-0.17057198
25	0xbd6770f0	-0.05650419
26	0x3b43d94c	0.0029884158
27	0x3e1c2da5	0.15251787
28	0xbdc34e64	-0.09536436
29	0xbe395f74	-0.18102819
30	0xbe1cc94c	-0.15311164
31	0x3ddabfbd	0.106811024
32	0xbd34218f	-0.043977316
33	0x3cb5fb98	0.022214696
34	0xbe21432a	-0.15748277
35	0x3e281a58	0.164163
36	0xbddb7ed6	-0.107175514
37	0xbe3856af	-0.18001817
38	0x3e2600c1	0.16211225
39	0x3d9c4ac9	0.07631452
40	0xbba072ee	-0.004896513
41	0x3df612a4	0.12015274
42	0xbe1b3d14	-0.15160018
43	0xbda8e319	-0.082464404
44	0x3e0fdafd	0.14048381
45	0x3d611c9d	0.05495893
46	0xbb4d533f	-0.0031330136
47	0xbccc56bf	-0.024943708
48	0xbcb29c86	-0.021803152
49	0xbe0b2fdb	-0.13592474
50	0xbe15095c	-0.14554352
51	0x3d2369ff	0.039896008
52	0xbc3f1a89	-0.011664041
53	0x3dfa6658	0.12226552
54	0xbd652948	-0.055947572
55	0xbdffb1ab	-0.12485059
56	0xbd95729e	-0.07297252
57	0xbb3dd1cc	-0.002896416
58	0x3dae2cf8	0.08504671
59	0x3ddcdf7d	0.107848145
60	0x3d6eed72	0.058331914
61	0x3ce4961a	0.027903605
62	0xbe506a93	-0.20353155
63	0xbe1362a7	-0.14393102
64	0xbd25d9c6	-0.040490888
65	0x3e3a9516	0.18220934
66	0x3d61dcfe	0.055142395
67	0x3db57f9f	0.088622324
68	0xb8d620d1	-0.00010210428
69	0xbd62e2e4	-0.05539216
70	0x3e264d40	0.16240406
71	0x3dc0342e	0.093849525

embedder.rnn.bias_hh_l0 f4 [72]
0	0x3e33f28b	0.17572992
1	0xbd5b37a6	-0.053519867
2	0xbe446525	-0.19179209
3	0xbe43bc95	-0.19114907
4	0xbe01290c	-0.12613314
5	0xbc13fec5	-0.00903291
6	0xbe2fec73	-0.17180042
7	0x3dc7b273	0.09750833
8	0xbe10f70f	-0.14156745
9	0x3e297378	0.16547954
10	0x3dddf3f3	0.10837545
11	0xbd7138b6	-0.058891974
12	0xbdb80336	-0.089849874
13	0xbde81d0a	-0.11333664
14	0x3dec21ca	0.11529882
15	0x3e099be8	0.1343838
16	0x3dfebdfb	0.1243858
17	0x3e3fd7ce	0.18734667
18	0xbe01071b	-0.12600367
19	0xbd981d8b	-0.0742751
20	0xbd059935	-0.032616813
21	0x3e36b2e4	0.17841679
22	0xbe0179fe	-0.12644193
23	0xbda10ad7	-0.07863396
24	0xbd7414c0	-0.0595901
25	0x3d4de593	0.050267767
26	0x3d284984	0.041085735
27	0xbe3c1ba5	-0.1836992
28	0xbda9b0ac	-0.082856506
29	0x3e243adb	0.16038077
30	0xbdc34f2f	-0.095365874
31	0x3df5b36a	0.11997111
32	0xbdb316e4	-0.087446004
33	0xbc787be8	-0.01516626
34	0xbe501723	-0.20321326
35	0xbdbc98fd	-0.09208868
36	0x3dd0aa2a	0.10188706
37	0xbe4c56a4	-0.19954926
38	0x3d274a61	0.040842418
39	0x3df6cbfc	0.12050626
40	0x3cdd75e2	0.02703375
41	0x3da83882	0.08213903
42	0xbe1e236f	-0.15443204
43	0xbe0bc81f	-0.13650559
44	0xbe0f64cf	-0.14003299
45	0x3d8ec978	0.06972021
46	0xbd3546d3	-0.044256996
47	0x3d76ab0c	0.060221717
48	0x3d98b4dd	0.07456372
49	0xbded1a45	-0.11577276
50	0x3ca1c5f6	0.019747715
51	0xbe13ef65	-0.1444679
52	0x3e33a7e5	0.17544515
53	0x3dd8e31f	0.10590195
54	0xbd9cefff	-0.07662963
55	0x3db50c34	0.08840218
56	0xbe26daea	-0.16294447
57	0xbe066fa3	-0.13128524
58	0x3e3cf249	0.184518
59	0xbdb5780b	-0.08860787
60	0xbde63bb3	-0.112418555
61	0x3e4f08d6	0.20218214
62	0x3e259ea3	0.16173796
63	0x3e0f2756	0.13979849
64	0xbe4954ec	-0.19661301
65	0xbe020658	-0.12697732
66	0xbe23dd64	-0.16002423
67	0x3e2605cb	0.16213147
68	0x3e30eb4b	0.17277257
69	0x3d531de0	0.051542163
70	0x3d04bb6d	0.032405306
71	0x3db93225	0.090427674

embedder.rnn.weight_ih_l1 f4 [72, 24]
0	0x3d3d19ce	0.046167187
1	0x3dd43757	0.10362118
2	0xbdd5e9f6	-0.10445015
3	0x3dcab14a	0.098970965
4	0x3e26d397	0.16291653
5	0x3cb67879	0.022274243
6	0xbd3662d7	-0.044527855
7	0x3da376ea	0.079816654
8	0x3dce2ae0	0.100667715
9	0xbd8030c1	-0.06259299
10	0xbc0c06be	-0.008546529
11	0xbd99be61	-0.07507015
12	0x3de9ba92	0.114125386
13	0x3e63c33c	0.22242445
14	0xbe05a95e	-0.1305289
15	0xbc9b15b1	-0.018931242
16	0x3d91c031	0.07116736
17	0xbdbdab09	-0.09261138
18	0x3d20e62c	0.03928201
19	0x3d934e78	0.07192701
20	0x3dd9465b	0.10609122
21	0xbe43880a	-0.19094864
22	0xbd6169bf	-0.055032488
23	0x3dbf91ad	0.09353957
24	0x3e4b9032	0.19879225
25	0x3d9847c3	0.074355625
26	0xbe44717c	-0.19183916
27	0xbe451011	-0.1924441
28	0xbd91ab60	-0.07112765
29	0x3dca609a	0.098817065
30	0x3de6aa04	0.11262897
31	0x3e0997c4	0.134368
32	0xbc7cc62b	-0.015428106
33	0xbe8561d5	-0.26051202
34	0x3d8f1eb9	0.06988282
35	0x3db6b8a0	0.08921933
36	0xbcee0a88	-0.029057756
37	0xbdc960bc	-0.09832904
38	0x3b15754b	0.0022805508
39	0xbe298f67	-0.1655861
40	0xbc841206	-0.016121875
41	0x3c51dc13	0.012808817
42	0x3d5168b5	0.051125247
43	0x3e19fbda	0.1503748
44	0x3e2b3fdd	0.1672358
45	0xbdc3fdf4	-0.09569922
46	0xbe40909c	-0.18805164
47	0x3dee3067	0.11630326
48	0x3e218dc3	0.15776734
49	0xbd13b754	-0.036063507
50	0xbdce792b	-0.10081705
51	0x3e2953e0	0.16535902
52	0xbe2916f5	-0.16512664
53	0xbd6537ee	-0.05596154
54	0xbd8e695c	-0.069536895
55	0x3d38d2a4	0.045122758
56	0xbdada6c6	-0.08479075
57	0x3e817cea	0.25290614
58	0x3cbbbf35	0.022918323
59	0xbc5c3c64	-0.013442133
60	0x3db541aa	0.08850415
61	0xbc22e210	-0.009941593
62	0x3d9dda1a	0.07707615
63	0xbdd6cab5	-0.10487882
64	0xbbf84994	-0.0075771306
65	0xbe38507e	-0.17999455
66	0x3d10c01d	0.035339464
67	0x3e4333d4	0.1906274
68	0x3e575652	0.21029022
69	0xbce85a34	-0.028363325
70	0x3e2a5c87	0.16636859
71	0xbe206873	-0.15664844
72	0x3ce19560	0.027537048
73	0x3d663fcf	0.056213196
74	0xbb1c46cb	-0.0023845907
75	0xbe31dd29	-0.17369522
76	0x3dd7eeb2	0.105435744
77	0x3d27d50f	0.040974673
78	0x3cf5dc2e	0.030012216
79	0xbd61c616	-0.05512055
80	0x3cc0f093	0.023552215
81	0x3e88eeaf	0.267446
82	0x3c0951d9	0.00838133
83	0x3d1622f1	0.036654416
84	0xbdcbab3e	-0.09944771
85	0x3af5820f	0.0018730777
86	0xbd3834f7	-0.044972386
87	0x3e05aee2	0.13054994
88	0x3b9fb092	0.0048733437
89	0xbe1d2f67	-0.15350114
90	0xbe009537	-0.12556921
91	0xbe1206c5	-0.14260395
92	0x3e5c4476	0.21510491
93	0x3e095fc8	0.13415444
94	0x3bd71c06	0.00656462
95	0xbdbbef9e	-0.09176563
96	0x3db7d841	0.08976794
97	0xbe39d2b2	-0.1814678
98	0xbd94dfc3	-0.07269242
99	0x3e3d5a26	0.1849142
100	0x3de5cd3b	0.11220785
101	0x3e2cff08	0.16894162
102	0x3e089f0b	0.1334192
103	0x3cba02bc	0.022706382
104	0x3df2f3f2	0.11862935
105	0xbe2641bb	-0.16236012
106	0xbdc6ddfa	-0.097103074
107	0xbe22e87c	-0.15908998
108	0xbbea54fe	-0.007151245
109	0x3e415d86	0.18883333
110	0xbde649af	-0.11244523
111	0xbc8793c5	-0.016549954
112	0xbe522c9e	-0.20524833
113	0x3d890bdf	0.06691717
114	0x3e1986ad	0.14992781
115	0x3e014071	0.12622239
116	0x3d87eb5c	0.06636688
117	0x3dff54fd	0.12467382
118	0xbccd7d38	-0.025084123
119	0xbbce03cc	-0.0062870737
120	0x3d94cd86	0.07265763
121	0x3e06448b	0.13112085
122	0x3c2a4c42	0.010394158
123	0xbe38d788	-0.18050969
124	0x3d8d7204	0.069065124
125	0x3cb43413	0.021997487
126	0xbdb813e1	-0.089881666
127	0xbde896f8	-0.1135692
128	0xbe48b76a	-0.19601217
129	0xbcf0033f	-0.029298423
130	0xbe62a1f7	-0.22132097
131	0x3db7c5d5	0.0897328
132	0x3ddb4b7f	0.10707759
133	0xbc2795cc	-0.010228585
134	0x3ceb4573	0.02871964
135	0x3d2a0fff	0.04151916
136	0x3bce5e7f	0.006297886
137	0x3df93777	0.12168782
138	0x3e40e224	0.18836266
139	0x3dcc54c4	0.09977105
140	0xbc2e559a	-0.010640526
141	0x3e0665ad	0.13124724
142	0xbda50677	-0.08057874
143	0x3e7200ee	0.23633167
144	0x3e04f2b1	0.12983204
145	0x3c86f717	0.016475243
146	0xbd505dd8	-0.050870746
147	0x3e016a12	0.12638119
148	0x3c072a6b	0.008249859
149	0xba8c48b1	-0.0010702816
150	0xbe195b54	-0.14976245
151	0x3df75efd	0.120786645
152	0x3da4f10e	0.0805379
153	0x3ea66864	0.3250152
154	0xbd50b564	-0.050954238
155	0xbd362543	-0.04446913
156	0xbd24ecc0	-0.040264845
157	0x3dec80f8	0.11548036
158	0x3e05428b	0.13013665
159	0xbe54fd45	-0.2079974
160	0xbd86e3ce	-0.06586419
161	0xbe7cdde6	-0.24694023
162	0x3e63705e	0.22210833
163	0x3e66ed07	0.22551356
164	0x3e4be18c	0.19910258
165	0xbe629de0	-0.22130537
166	0x3da3bb10	0.07994664
167	0xbd8fc237	-0.070194654
168	0xbe4dbfa6	-0.2009264
169	0x3d7eb93a	0.062188365
170	0xbc81494d	-0.015782023
171	0x3cdc0497	0.026857657
172	0x3e1066a3	0.14101653
173	0xbd4d4316	-0.050112806
174	0x3c9923d9	0.018693851
175	0xbd40703c	-0.046982035
176	0x3dc6015d	0.09668229
177	0x3dce564d	0.10075054
178	0xbd7f44fd	-0.06232165
179	0x3da3a492	0.07990374
180	0x3e41f4a9	0.18940987
181	0xbe21e6a4	-0.15810639
182	0xbd8c92ff	-0.06863975
183	0xbd92b688	-0.07163721
184	0xbe45fcce	-0.19334719
185	0xbdce77ba	-0.1008143
186	0xbd0046c1	-0.031317476
187	0x3d5a4283	0.053286087
188	0x3e46938a	0.19392219
189	0x3dff0ebe	0.12453984
190	0x3cb60567	0.022219373
191	0x3cee5b0d	0.02909615
192	0x3e3186b1	0.17336537
193	0xbe2cd67b	-0.16878693
194	0xbd949d16	-0.07256524
195	0xbd14da06	-0.036340736
196	0xbd1cf240	-0.038316965
197	0x3e552ae5	0.20817144
198	0x3d9fa2ad	0.077947
199	0xbe51d986	-0.20493135
200	0x3da484a1	0.080331095
201	0x3d697d40	0.057004213
202	0x3ae08e38	0.0017132228
203	0x3d571f6e	0.052520208
204	0xbd188e58	-0.037245125
205	0xbc839046	-0.016060006
206	0xbc036d5f	-0.008021682
207	0xbe457c93	-0.19285803
208	0x3e5d2da5	0.21599443
209	0x3d2b7c6e	0.041866712
210	0x3e0aef2a	0.13567796
211	0x3e61ab61	0.22038032
212	0x3bac4b35	0.005257989
213	0x3da1cd40	0.079004765
214	0xbd9ca67f	-0.07648944
215	0x3da46767	0.08027535
216	0xbe3ad647	-0.18245803
217	0xbd502937	-0.050820556
218	0x3e001571	0.12508179
219	0x3e3db5e0	0.18526411
220	0x3d827763	0.063704275
221	0x3b51607b	0.0031948376
222	0xbb59aa5d	-0.0033213117
223	0x3e0849ae	0.13309357
224	0xbe4312f9	-0.19050206
225	0x3d72c8c7	0.059273507
226	0xbd32acc0	-0.04362178
227	0xbe44e6b7	-0.19228636
228	0x3e1e6775	0.15469153
229	0xbcab0f57	-0.020881338
230	0xbe430534	-0.19044954
231	0xbd84185d	-0.064499594
232	0x3df4474c	0.11927661
233	0xbe29dbcd	-0.16587754
234	0xbdf92c84	-0.12166694
235	0xbdf52d1b	-0.11971494
236	0xbe4d5aae	-0.20054123
237	0x3e33a002	0.17541507
238	0x3e478f81	0.19488336
239	0xbd50801b	-0.05090342
240	0xbe493fc5	-0.19653232
241	0x3e3bcb99	0.18339385
242	0xbc85a65a	-0.016314674
243	0x3d8e50c1	0.06948996
244	0x3d7753af	0.06038254
245	0xbe073ad1	-0.1320603
246	0x3c95d261	0.018288793
247	0xbd677c11	-0.056514803
248	0xbe0ad3bd	-0.13557334
249	0x3e61123f	0.21979617
250	0x3a4dbec1	0.0007848554
251	0x3bf7c8f9	0.0075617996
252	0x3e671474	0.22566396
253	0x3dc88b5e	0.09792207
254	0x3d62488c	0.055244967
255	0xbe4f8b51	-0.20267989

embedder.rnn.weight_hh_l1 f4 [72, 24]
0	0x3e3b4e73	0.18291645
1	0x3e4c7233	0.19965439
2	0xbdfa4db7	-0.12221854
3	0xbd151d29	-0.036404762
4	0x3de3a7e8	0.1111601
5	0x3e6de3be	0.23231408
6	0x3e07496b	0.132116
7	0x3e4a64ce	0.19765016
8	0xbd20b1d5	-0.039232094
9	0xbcc32e0b	-0.023825666
10	0xbd41c2f5	-0.047305066
11	0x3e2dbea4	0.16967255
12	0xbbd17c62	-0.0063930014
13	0xbcddacf8	-0.027060017
14	0xbd4e2d35	-0.05033608
15	0xbe1a59f1	-0.15073372
16	0xbe1ae59e	-0.15126655
17	0xbd5db06e	-0.054123335
18	0xbe5023ee	-0.20326206
19	0xbddda5c2	-0.108226314
20	0xbdd3f7b8	-0.10349983
21	0xbe4a8f6a	-0.1978127
22	0xbd9c6a5a	-0.076374725
23	0x3e4247be	0.1897268
24	0x3e43e31e	0.19129607
25	0xbe2e3b8b	-0.17014901
26	0x3ddb5d29	0.10711128
27	0x3e2de265	0.16980894
28	0xbe3ff7c5	-0.1874686
29	0x3d765e84	0.06014873
30	0xbe1e7754	-0.15475208
31	0xbd8ce6a9	-0.068799324
32	0x3e349fb3	0.17639045
33	0xbd8e45b4	-0.069468886
34	0x3e1d8065	0.1538101
35	0xbde5cdb0	-0.112208724
36	0x3db18762	0.086684
37	0x3d4651d4	0.04841788
38	0x3deeb95c	0.11656448
39	0xbd0532c7	-0.03251913
40	0x3dc5ab5a	0.09651823
41	0x3e0a6c3b	0.13517849
42	0xbdc597c9	-0.09648091
43	0x3e2db983	0.16965298
44	0x3d8d0b10	0.06886876
45	0xbd47545e	-0.048664443
46	0xbe2d033f	-0.1689577
47	0xbe3a8768	-0.18215716
48	0x3e43036c	0.19044274
49	0x3e426836	0.18985066
50	0xbe19aed5	-0.150081
51	0xbbdcc95d	-0.0067378716
52	0x3dfa60fc	0.122255296
53	0xbc3bf005	-0.011470799
54	0x3d915003	0.07095339
55	0x3e31b7b3	0.17355232
56	0x3e4da909	0.20084013
57	0xbc119956	-0.008886656
58	0x3e0da0d3	0.13830881
59	0x3c65f511	0.014035479
60	0xbdb4b05f	-0.088227026
61	0xbe2d5ac5	-0.16929157
62	0xbe04c5d1	-0.12966086
63	0xbd6904e3	-0.056889426
64	0x3d322354	0.043490723
65	0xbd34ab9b	-0.04410897
66	0xbdace578	-0.08442205
67	0x3cd49ce7	0.025953723
68	0xbdfa024a	-0.12207468
69	0xbdd1fc80	-0.10253239
70	0x3c6e6f1d	0.014552859
71	0xbe3f43e9	-0.1867825
72	0x3d1f725e	0.03892743
73	0xb857191b	-5.1283376e-05
74	0x3e46d52c	0.19417256
75	0x3d7671ae	0.060167007
76	0xbde25ed6	-0.11053245
77	0x3e1db12e	0.1539962
78	0xbd375a1f	-0.04476368
79	0xbc319e39	-0.010840946
80	0x3e37029f	0.17872094
81	0xbdb3f784	-0.08787444
82	0xbd82b922	-0.063829675
83	0xbd5608b1	-0.052254383
84	0xbd3c0b93	-0.045909476
85	0xbe07ac18	-0.13249242
86	0xbd632a05	-0.055459995
87	0xbe1442ca	-0.14478603
88	0xbde1eb4e	-0.11031209
89	0xbc756c2e	-0.014979405
90	0x3e3248da	0.17410603
91	0xbdcfdd84	-0.101496726
92	0x3e052aaf	0.13004564
93	0x3e0a5e33	0.13512497
94	0x3d29aa79	0.04142234
95	0x3d85852b	0.065195404
96	0xbe1fd9ab	-0.15610377
97	0xbdc38989	-0.09547717
98	0x3e13463d	0.14382263
99	0xbdca394c	-0.0987421
100	0x3e26eeed	0.1630208
101	0xbd431e56	-0.047636352
102	0x3db334bf	0.08750295
103	0xbda6b643	-0.081402324
104	0xbe0d52a0	-0.1380105
105	0xbd8530f8	-0.06503481
106	0x3dd0d66e	0.10197149
107	0x3d0483b2	0.032352157
108	0xbdb525bb	-0.08845087
109	0x3c4a258c	0.012338053
110	0xbe2a65f6	-0.16640458
111	0xbd5b2a8c	-0.053507373
112	0x3e2b2e9e	0.16717002
113	0x3d65d2de	0.0561093
114	0x3d37e8ba	0.04489968
115	0x3d5a61c2	0.053315885
116	0x3d02ca41	0.031931166
117	0xbe0c500b	-0.13702409
118	0x3e21adfc	0.15789026
119	0xbcb11b0e	-0.021619346
120	0xbd826818	-0.063675106
121	0x3d7dd3c4	0.061969534
122	0xbda1f31c	-0.079076976
123	0x3e80eb1a	0.25179368
124	0x3e17b0ad	0.1481349
125	0xbe82562f	-0.25456378
126	0xbe656622	-0.22402242
127	0xbd3eeb77	-0.046611276
128	0x3e8668ca	0.26251823
129	0x3be6358d	0.0070254267
130	0x3db98924	0.090593606
131	0xbe6eb0aa	-0.2330958
132	0xbe6c41a0	-0.23071909
133	0xbd8fa985	-0.07014755
134	0x3e03e140	0.12878895
135	0x3c204ee0	0.00978443
136	0xbdfc48de	-0.12318586
137	0xbdd47fca	-0.10375936
138	0xbe2d8f5b	-0.16949217
139	0x3d9911c3	0.07474091
140	0xbb8cd8cc	-0.004298305
141	0xbcc86f46	-0.024467122
142	0x3d9e5475	0.07730953
143	0x3dfbd1e9	0.122958966
144	0x3e1a41a9	0.1506411
145	0x3d306f95	0.043075163
146	0x3e3dcedf	0.18535946
147	0x3dce69fe	0.1007881
148	0xbcd6cff5	-0.026222209
149	0x3e40a79b	0.18813936
150	0x3e26e9b5	0.1630009
151	0x3e47d38d	0.19514294
152	0xbd5587ee	-0.052131586
153	0xbdc3dd14	-0.09563652
154	0x3c35e181	0.011101128
155	0xbe28f0a5	-0.16498049
156	0xbdc3dd4d	-0.09563694
157	0xbbe2010e	-0.0068970984
158	0xbd664ab7	-0.056223597
159	0xbe032066	-0.12805328
160	0x3d1bfb1b	0.03808127
161	0xbe19b7e7	-0.1501156
162	0x3e26543e	0.16243073
163	0xbdba2393	-0.090888165
164	0x3dfcad12	0.12337698
165	0x3dcbb3b6	0.099463865
166	0xbdcd935c	-0.10037872
167	0x3e029e79	0.12755765
168	0xbe16dd5d	-0.14732881
169	0xbe36022b	-0.17774265
170	0xbd949a47	-0.072559886
171	0xbe2fc68c	-0.17165583
172	0x3e34f002	0.1766968
173	0xbce2b829	-0.027675705
174	0xbdf788a8	-0.12086612
175	0x3de2898a	0.1106139
176	0x3b93fa0c	0.004515892
177	0x3d6c7f2e	0.057738476
178	0x3d28c259	0.04120097
179	0xbd684dc0	-0.056714773
180	0x3cb75888	0.022381082
181	0xbe1c12af	-0.15241502
182	0xbcef6cee	-0.029226746
183	0xbc9cf42e	-0.019159403
184	0xbe101275	-0.14069541
185	0x3d0e78c2	0.034783132
186	0x3c2b41fe	0.0104527455
187	0xbdf3de7d	-0.11907671
188	0xbe2de97d	-0.169836
189	0xbdcaa964	-0.0989559
190	0x3e0bd3ed	0.13655062
191	0x3db7cf91	0.08975137
192	0xbe28c267	-0.16480409
193	0xbd83bb5c	-0.0643222
194	0x3e1def91	0.15423419
195	0x3e03d4e3	0.12874179
196	0xbdc8348f	-0.0977565
197	0x3de02ed5	0.109464325
198	0xbdbccd1e	-0.092188105
199	0xbe01ee46	-0.1268855
200	0x3d6a2700	0.0571661
201	0x3db02a5c	0.086018294
202	0x3df1cff0	0.11807239
203	0xbe0059b9	-0.12534226
204	0x3cb38cd5	0.02191774
205	0x3e34b929	0.17648758
206	0xbcffa989	-0.03120877
207	0xbdca5254	-0.09878984
208	0x3e2d964f	0.1695187
209	0xbe3272ed	-0.17426653
210	0x3d75a936	0.059975825
211	0xbc987ca7	-0.018614126
212	0x3db26afb	0.08711811
213	0x3d701c7e	0.058620922
214	0xbd73d066	-0.059524916
215	0xbdd224b5	-0.102609076
216	0x3d2733b3	0.04082079
217	0x3c335289	0.010944971
218	0xbe1a056d	-0.15041132
219	0x3dcd5dec	0.1002768
220	0xbdf3b136	-0.11899035
221	0xbdf699f7	-0.12041085
222	0xbe45fe31	-0.19335248
223	0x3deef8b5	0.11668531
224	0xbdbf4683	-0.09339621
225	0x3db361ba	0.08758874
226	0xbe1e0f08	-0.15435421
227	0xbe0cd778	-0.1375407
228	0xbce6c211	-0.02816871
229	0x3e2b29a4	0.16715103
230	0xbe024aba	-0.12723818
231	0xbe04053c	-0.12892622
232	0xbd56363b	-0.052297812
233	0x3e52430e	0.20533392
234	0x3e60e598	0.21962583
235	0xbdd0bb08	-0.101919234
236	0xbdd7743f	-0.10520219
237	0xbd3187a6	-0.043342255
238	0xbd0e11d1	-0.03468496
239	0x3defc136	0.11706774
240	0x3cbf8ac3	0.023381596
241	0x3e502457	0.20326363
242	0xbd98908a	-0.07449444
243	0x3d2e0b77	0.042491402
244	0xbe34358c	-0.17598552
245	0xbdd2d0b3	-0.102937125
246	0x3d7e8cc0	0.06214595
247	0xbde6a654	-0.11262193
248	0x3c856b85	0.01628662
249	0xbd4f22db	-0.05057035
250	0x3d2f7189	0.042832885
251	0x3d1f783b	0.03893302
252	0x3dce650c	0.10077867
253	0xbc8e5f21	-0.017379345
254	0xbe46a4e5	-0.1939884
255	0x3cd43ef3	0.025908923

embedder.rnn.bias_ih_l1 f4 [72]
0	0x3e520fd1	0.20513846
1	0x3c169a61	0.00919208
2	0x3dd1850a	0.10230453
3	0x3dcbb4c6	0.09946589
4	0x3ce71b0a	0.028211135
5	0x3ce71f35	0.028213123
6	0x3dbf0ce3	0.0932863
7	0xbe3b4fbe	-0.18292138
8	0xbdd84975	-0.10560886
9	0x3e2982cc	0.16553801
10	0x3e700ed8	0.23443162
11	0x3e12cefb	0.1433677
12	0x3e25b26e	0.16181347
13	0x3d98d8aa	0.074632004
14	0xbdeee803	-0.116653465
15	0x3e5fecce	0.21867678
16	0xbda2f3e5	-0.079566754
17	0x3e3afa05	0.18259437
18	0xbddeab10	-0.10872471
19	0x3d175509	0.03694633
20	0x3d107a11	0.03527266
21	0xbc217fc6	-0.009857124
22	0xbdcae3f9	-0.099067636
23	0xbe071491	-0.13191439
24	0xbcb39346	-0.021920811
25	0xbe08d877	-0.13363825
26	0xbcb6fca4	-0.022337265
27	0xbe5f793c	-0.21823591
28	0xbe42c275	-0.19019492
29	0xbcb757c1	-0.022380712
30	0xbebc4862	-0.36773974
31	0x3e825653	0.25456485
32	0xbe2dd7d5	-0.16976865
33	0xbe4f2110	-0.20227456
34	0xbe788355	-0.24268849
35	0xbe4ea8b7	-0.20181547
36	0xbe3a6b37	-0.18204962
37	0xbab3a4a8	-0.0013705688
38	0xbe4b8f43	-0.19878869
39	0xbd4cc2b2	-0.049990363
40	0xbebb7bef	-0.3661799
41	0xbc9ee033	-0.019394016
42	0xbdf4c633	-0.11951866
43	0xbe95b7ee	-0.2924189
44	0xbd9edb03	-0.07756617
45	0xbdabaeaa	-0.08382924
46	0xbe6e5c6e	-0.23277447
47	0xbe0cae93	-0.1373847
48	0x3de85fc1	0.113463886
49	0x3e5266c6	0.20547017
50	0x3e07635a	0.13221493
51	0x3df16240	0.11786318
52	0xbe268e76	-0.16265282
53	0x3db61a5c	0.088917464
54	0xbdec2cf7	-0.11532014
55	0x3d4c1b63	0.049830806
56	0x3dbb7688	0.091534674
57	0xbd3907ac	-0.045173332
58	0xbda0235c	-0.07819244
59	0xbd999fb1	-0.07501162
60	0xbcd257c1	-0.02567661
61	0xbe12fa32	-0.14353254
62	0xbe88039f	-0.26565263
63	0x3e271253	0.16315584
64	0x3cc11a3a	0.023572076
65	0x3cfd712a	0.03093775
66	0x3d593b65	0.05303516
67	0x3e29e7b5	0.16592295
68	0x3e324f82	0.17413142
69	0x3e094d56	0.13408408
70	0x3d704861	0.058662776
71	0xbd69d2db	-0.057085853

embedder.rnn.bias_hh_l1 f4 [72]
0	0xbd82c36f	-0.06384932
1	0xbe070e52	-0.13189057
2	0x3da88f45	0.082304515
3	0x3dc2bfbb	0.09509226
4	0xbdbaf0b2	-0.0912794
5	0x3dcec4dd	0.100961424
6	0x3e0fd568	0.14046252
7	0xbe045d0b	-0.12926118
8	0x3d5cfd2d	0.053952385
9	0xbd8299e7	-0.06377011
10	0xbdb6209f	-0.08892941
11	0x3a4bf0b6	0.0007779704
12	0x3d4a2f0e	0.04936128
13	0xbe0c3e18	-0.13695562
14	0xbe81fb85	-0.25387207
15	0xbe353597	-0.17696224
16	0x3d1fbf6f	0.039000925
17	0xbe1076d5	-0.14107831
18	0xb949ec5a	-0.00019256902
19	0x3dc7cb02	0.097555175
20	0xbcbb991b	-0.022900155
21	0x3ca1b687	0.019740356
22	0x3db3e381	0.08783627
23	0x3dcdf6bc	0.100568265
24	0xbe16155b	-0.14656584
25	0xbeaef5bc	-0.34171855
26	0xbd73bc77	-0.059505906
27	0xbe2db7f7	-0.16964708
28	0xbe707195	-0.23480828
29	0xbde4d2fa	-0.11173053
30	0xbd8a5e11	-0.06756223
31	0x3cfd1f44	0.030898698
32	0xbe093e9b	-0.13402788
33	0xbe453209	-0.19257368
34	0xbe1353e1	-0.14387466
35	0xbe29b5b4	-0.1657322
36	0xbd8ddc01	-0.06926728
37	0xbeacd894	-0.33758986
38	0xbe6f6287	-0.23377429
39	0x3a66134f	0.0008776681
40	0xbe00b973	-0.12570743
41	0xbe247636	-0.16060719
42	0xbdd94b43	-0.10610058
43	0xbe9fc8e6	-0.3120796
44	0xbea14539	-0.31498125
45	0xbe9ab0f9	-0.30213144
46	0xbed9c7d1	-0.4253526
47	0xbea2d9d5	-0.31806818
48	0x3d1d52e7	0.03840914
49	0xbc87eb15	-0.016591588
50	0x3e0babde	0.13639781
51	0x3e5beb27	0.21476422
52	0xbccd91aa	-0.025093872
53	0x3c816f6e	0.015800204
54	0xbe2ffd84	-0.17186552
55	0x3d5a6445	0.05331828
56	0x3d4400af	0.047852214
57	0xbda80d6a	-0.082056835
58	0xbe1187ec	-0.14212006
59	0x3df82d53	0.1211802
60	0xbe365cff	-0.17808913
61	0xbe0ba3de	-0.13636729
62	0x3d8e95ec	0.06962189
63	0x3d0b8d5a	0.03407035
64	0x3d8ee5d8	0.06977433
65	0xbe596255	-0.21228917
66	0xbdf7a7e2	-0.12092568
67	0xbe6e5fad	-0.23278685
68	0xbcd5292a	-0.026020605
69	0xbddcd10f	-0.10782062
70	0x3e43c070	0.19116378
71	0xbdf26bb2	-0.118369475

embedder.rnn.weight_ih_l2 f4 [72, 24]
0	0x3e062277	0.13099085
1	0x3d4001fa	0.046876885
2	0x3d8e73a2	0.06955649
3	0x3da3d2ed	0.07999215
4	0x3de54d98	0.111964405
5	0xbe819aca	-0.25313407
6	0x3d91d18b	0.07120045
7	0x3b25c908	0.0025296826
8	0x3d849e63	0.06475522
9	0x3c57f515	0.013180991
10	0xbe31bb48	-0.17356598
11	0xbde56e54	-0.11202684
12	0xbe04d0b8	-0.12970245
13	0xbdd18106	-0.102296874
14	0x3d3e5613	0.046468806
15	0x3d2f2f4f	0.042769726
16	0xbdcefd1c	-0.101068705
17	0xbde3ca5c	-0.11122581
18	0x3db9bb19	0.09068889
19	0x3c8b79cf	0.017025856
20	0x3e0861e5	0.13318594
21	0xbc205b6d	-0.009787423
22	0xbe2918cf	-0.1651337
23	0x3dd0272e	0.10163723
24	0x3db0db83	0.086356185
25	0x3b5ce58e	0.0033706161
26	0x3deb27eb	0.11482223
27	0xbe327782	-0.17428401
28	0x3df327f4	0.11872855
29	0xbe16b715	-0.14718278
30	0x3d678783	0.05652572
31	0x3e44f298	0.19233167
32	0x3e318535	0.1733597
33	0x3d2aa6c3	0.041662943
34	0xbd505bd9	-0.050868843
35	0xbe4d1044	-0.20025736
36	0x3dee8aa6	0.11647539
37	0x3ceaa974	0.028645255
38	0x3d22b5c0	0.03972411
39	0x3e1acd78	0.15117443
40	0xbe5190ef	-0.20465444
41	0xbd966677	-0.07343762
42	0x3d38ba7e	0.045099728
43	0xbe2a6c12	-0.16642788
44	0x3c38f87b	0.011289711
45	0x3e18ae67	0.14910279
46	0x3d9ae6ea	0.075635746
47	0xbd144177	-0.036195245
48	0xbe08d57d	-0.1336269
49	0x3e48667f	0.19570349
50	0xbdd0f054	-0.10202089
51	0x3dcd4ca0	0.10024381
52	0xbd374738	-0.044745654
53	0x3e4db488	0.20088398
54	0xbe448b84	-0.19193846
55	0xbc16dba3	-0.009207639
56	0xbdc82174	-0.09772006
57	0xbe273e40	-0.1633234
58	0x3aad8e2a	0.0013241221
59	0x3ddba368	0.10724527
60	0x3e2b2dfe	0.16716763
61	0xbdd5150a	-0.104044035
62	0xbe015df8	-0.12633502
63	0xbd972651	-0.07380355
64	0xbd2b7020	-0.041854978
65	0xbc049188	-0.008091338
66	0xbdaad373	-0.08341112
67	0xbd8cd1cc	-0.06875953
68	0x3e28876f	0.16457914
69	0x3e4e094e	0.20120737
70	0xbc329d52	-0.010901766
71	0xbc861570	-0.016367644
72	0x3e5deaf4	0.21671659
73	0x3e5a39d2	0.21311119
74	0x3e6c133e	0.23054215
75	0xbe2e5991	-0.17026354
76	0x3abe62a0	0.0014525242
77	0x3d8c43d8	0.06848878
78	0x3e00244c	0.12513846
79	0x3e2f71a5	0.17133196
80	0x3e211b71	0.15733124
81	0x3cfd5cba	0.030928005
82	0xbe318a98	-0.17338026
83	0xbe07f718	-0.13277853
84	0xbe81a638	-0.25322127
85	0xbbcf00eb	-0.006317248
86	0xbda16562	-0.07880665
87	0x3e6fdf39	0.23424996
88	0xbd83762f	-0.06419026
89	0xbd573746	-0.052542947
90	0xbe29cd8d	-0.16582318
91	0xbe3c56a9	-0.18392433
92	0xbd9b4399	-0.075812526
93	0xbddbc391	-0.10730661
94	0xbdc76b95	-0.097373165
95	0xbd85cbdd	-0.065330245
96	0x3d8997c3	0.067183994
97	0x3b90462c	0.0044028964
98	0x3d1340f4	0.035950616
99	0x3db414c2	0.08793022
100	0xbd918b0a	-0.07106598
101	0xbd693866	-0.05693855
102	0xbe1b33c1	-0.15156461
103	0x3d752e4a	0.059858598
104	0x3e83fc72	0.25778538
105	0x3e0a90d5	0.13531812
106	0x3c214f73	0.009845602
107	0xbcc933ea	-0.024560887
108	0xbe3dbe0a	-0.18529525
109	0x3d2918d3	0.04128344
110	0x3cebbff1	0.028778048
111	0x3e12d69a	0.14339676
112	0xbe2cf961	-0.16892006
113	0xbd634d71	-0.055493776
114	0x3d2af955	0.041741688
115	0xbe487750	-0.19576764
116	0xbe3a51bb	-0.1819524
117	0x3e027e22	0.12743428
118	0xbd091c78	-0.033474416
119	0xbe221d87	-0.15831576
120	0xbdd5031d	-0.104009844
121	0xbdfbac94	-0.12288776
122	0x3d2020c6	0.039093755
123	0xbe0114b4	-0.12605554
124	0x3d014011	0.03155524
125	0x3e42737f	0.18989371
126	0x3e4c271b	0.19936793
127	0xbd200362	-0.039065726
128	0xbe02412b	-0.12720172
129	0xbe1d1b08	-0.15342343
130	0x3d19c651	0.037542645
131	0x3d6604b4	0.05615683
132	0x3cfccbf3	0.03085897
133	0x3b74e3aa	0.0037367144
134	0x3e0cc5eb	0.13747375
135	0xbcdaeed8	-0.026725218
136	0xbda02794	-0.07820049
137	0xbcde1f5e	-0.027114566
138	0x3d59f387	0.05321076
139	0x3dfa7d82	0.1223097
140	0xbe01ed0b	-0.12688081
141	0x3ddd6f52	0.10812248
142	0x3d668394	0.056277826
143	0xbca8a9f3	-0.02058885
144	0xbddbf95a	-0.107409194
145	0x3e55e85c	0.2088942
146	0x3e298265	0.16553648
147	0x3e700891	0.23440768
148	0x3dd5aed7	0.10433739
149	0xbe3d4783	-0.18484311
150	0xbda6b50c	-0.08140001
151	0xbdb4989c	-0.088181704
152	0x3d999072	0.07498254
153	0xbc00d7f1	-0.007863984
154	0x3d8ac75a	0.067763045
155	0x3d1c0f7d	0.03810071
156	0xbe13f721	-0.14449741
157	0x3cfeac32	0.031087968
158	0xbe7f56f6	-0.24935517
159	0x3dbe9b5f	0.093069784
160	0xbd57f260	-0.05272138
161	0x3d9102c0	0.07080603
162	0x3d09cc6a	0.03364221
163	0xbc54f885	-0.012998705
164	0xbce0c10c	-0.027435802
165	0xbd4d8a50	-0.050180733
166	0xbd5c3146	-0.05375793
167	0x3e0b0d7a	0.1357936
168	0xbd8cec32	-0.06880988
169	0x3da402e5	0.080083646
170	0x3d477117	0.048691835
171	0x3dfd081a	0.12355061
172	0xbcf20a72	-0.029545996
173	0x3d781a4f	0.060571965
174	0xbe521480	-0.20515633
175	0x3d8d4d5d	0.068995215
176	0xbe23823e	-0.15967652
177	0xbe37e726	-0.1795927
178	0xbdbafc71	-0.091301806
179	0x3e2ffd37	0.17186438
180	0x3d810830	0.0630039
181	0xbd6a8a09	-0.057260547
182	0xbe554cbd	-0.20830055
183	0x3ba3ebdd	0.0050024823
184	0xbc6e697f	-0.014551519
185	0x3d866952	0.06563057
186	0x3c6b32c5	0.014355366
187	0xbe59a2ae	-0.21253464
188	0x3e088429	0.13331665
189	0x3be29813	0.0069151013
190	0xbde00499	-0.10938377
191	0x3d18c617	0.03729829
192	0xbdd5ad1b	-0.10433408
193	0x3e589fce	0.2115471
194	0xbe21bf3d	-0.15795608
195	0xbb01a5b0	-0.0019782595
196	0x3e28ef5c	0.16497558
197	0x3d99ed14	0.07515922
198	0xbe28f2c7	-0.16498862
199	0x3d9d2d9e	0.076747164
200	0x3cdd1e68	0.026992038
201	0xbd8da3d5	-0.06916014
202	0xbd85d12b	-0.06534036
203	0x3d930055	0.07177798
204	0x3e379aed	0.17930193
205	0x3d33944c	0.0438426
206	0x3db0b7b6	0.0862879
207	0xbe18a66b	-0.14907233
208	0xbd376afe	-0.04477977
209	0x3e070191	0.13184191
210	0xbe2d4900	-0.16922379
211	0xbd730721	-0.05933297
212	0x3cabcd71	0.020971986
213	0x3d59aa95	0.053141195
214	0x3e13e50b	0.14442842
215	0x3da5e2cf	0.08099901
216	0xbd26fdc2	-0.040769346
217	0x3dab9d59	0.08379621
218	0xbda5059d	-0.08057711
219	0x3e11b86f	0.14230512
220	0xbd1f2455	-0.03885301
221	0x3df53ba0	0.11974263
222	0xbdd0af15	-0.10189644
223	0xbddb3b2b	-0.10704645
224	0xbe817161	-0.25281814
225	0xbd27a7da	-0.04093156
226	0x3deaa1a4	0.11456612
227	0x3e6d5bc7	0.23179542
228	0x3e14947a	0.14509764
229	0x3e0cdeee	0.13756916
230	0x3d85deef	0.06536662
231	0xbbc6e5e6	-0.0060698865
232	0x3dfab80a	0.12242134
233	0x3bfe64e5	0.0077634924
234	0xbd6f32e8	-0.058398157
235	0x3e21a5b3	0.15785865
236	0xbd491ac8	-0.049097806
237	0x3bedde80	0.00725919
238	0xba0df862	-0.0005415735
239	0x3e35189b	0.17685167
240	0xbd9d5098	-0.07681388
241	0xbdfcc915	-0.12343041
242	0xbc90aff0	-0.017662019
243	0xbe6634e5	-0.22481115
244	0x3c3b4999	0.011431121
245	0xbca90861	-0.020633878
246	0x3bb0f675	0.0054004737
247	0xbe2b1f0a	-0.16711059
248	0x3c8f0a5c	0.017460994
249	0x3d194f1d	0.037428964
250	0xbdcf176b	-0.101118885
251	0xbe1be2d5	-0.15223248
252	0x3e4321d1	0.19055869
253	0xbe18264e	-0.14858362
254	0xbcd2f598	-0.025751874
255	0xbe5e5893	-0.21713476

embedder.rnn.weight_hh_l2 f4 [72, 24]
0	0x3dbec8c1	0.093156345
1	0xbddbaba5	-0.10726098
2	0xbe26e458	-0.16298044
3	0xbe1932d4	-0.14960796
4	0x3e31c580	0.17360497
5	0xbe3de2f6	-0.1854361
6	0x3e143afe	0.14475629
7	0xbe2f2b2b	-0.17106311
8	0xbc58a792	-0.013223546
9	0x3db41e85	0.08794884
10	0xbe3eb8d1	-0.1862519
11	0x3db9a9fe	0.090656266
12	0xbc87142b	-0.016489109
13	0xbccf24bb	-0.02528607
14	0xbe43b315	-0.19111283
15	0x3b4bdb26	0.0031105964
16	0x3da5e580	0.08100414
17	0x3dd3c029	0.10339386
18	0x3e0c2799	0.1368698
19	0xbe364857	-0.17801033
20	0xbcdfbd71	-0.027312012
21	0xbe147a4d	-0.14499779
22	0xbe31af7c	-0.17352098
23	0xbe2c127a	-0.16803923
24	0x3cd59146	0.026070248
25	0x3c8c7985	0.017147789
26	0x3d1eecc3	0.038800012
27	0xbe08bb7a	-0.13352767
28	0x3e1274ae	0.14302322
29	0x3d1c14b1	0.03810567
30	0x3decc703	0.11561396
31	0xbe611847	-0.21981917
32	0x3dc7778f	0.09739601
33	0x3e34f048	0.17669785
34	0xbd5899c0	-0.052881002
35	0xbe0cbbfc	-0.13743585
36	0xbda3d903	-0.08000376
37	0xbdec459e	-0.11536716
38	0x3dbb9489	0.0915919
39	0x3da42d49	0.0801645
40	0xbd5d5446	-0.054035448
41	0xbe748ff3	-0.23883037
42	0xbe24cb58	-0.16093194
43	0xbccbbcbd	-0.02487027
44	0x3e3a83e3	0.18214373
45	0x3dd1f587	0.10251909
46	0x3d80585a	0.06266852
47	0x3d5019c4	0.050805822
48	0xbdd416ec	-0.103559345
49	0xbda48fb3	-0.08035221
50	0x3e288e49	0.16460527
51	0x3e454867	0.192659
52	0xbc58599f	-0.013204961
53	0xbde701ae	-0.11279617
54	0xbdb24300	-0.087041855
55	0x3e1c6cf4	0.15275937
56	0xbd53d933	-0.05172081
57	0xbe6709d8	-0.22562349
58	0x3dbe0865	0.09278945
59	0x3ddde1cc	0.10834083
60	0x3e14029d	0.14454122
61	0x3e4e581a	0.20150796
62	0x3e37660f	0.17910026
63	0x3e1c43fc	0.15260309
64	0x3df6c8a1	0.12049986
65	0xbdf29eb8	-0.118466794
66	0xbdb6b802	-0.089218155
67	0xbdfe445b	-0.124153815
68	0x3d5ffcf5	0.054684598
69	0x3e002e87	0.12517749
70	0xbd93331b	-0.07187482
71	0xbe0583de	-0.13038585
72	0xbe36313b	-0.17792217
73	0xbcb791dc	-0.022408418
74	0xbe2d9013	-0.16949491
75	0xbe6495c5	-0.22322758
76	0x3dfca58c	0.12336263
77	0xbe1e1823	-0.15438895
78	0x3cad0a83	0.021123176
79	0x3c484868	0.012224294
80	0xbe64a1c8	-0.2232734
81	0x3e3b58a3	0.18295531
82	0x3e372e66	0.17888793
83	0xbe4f2416	-0.2022861
84	0xbd6a61a1	-0.057222012
85	0xbe337a41	-0.17527105
86	0x3e20c701	0.15700914
87	0x3cd64754	0.026157059
88	0xbd26d1a2	-0.040727265
89	0x3c0fde36	0.008781007
90	0xbd3cc356	-0.046084724
91	0xbe3059f2	-0.17221811
92	0xbddcf5fc	-0.10789105
93	0xbe251395	-0.16120751
94	0xbe01c3ad	-0.126723
95	0xbe30fa8c	-0.17283076
96	0xbe329e88	-0.17443287
97	0x3b264bfa	0.0025374875
98	0x3e39950a	0.1812326
99	0xbe4e528f	-0.20148681
100	0x3dfb67b9	0.12275643
101	0xbc9aa2a0	-0.018876374
102	0x3d0c4e64	0.034254447
103	0x3d016b9a	0.031596757
104	0xbb460286	-0.0030213906
105	0x3e5d1597	0.21590267
106	0xbe5fafce	-0.21844408
107	0xbda2dfe4	-0.0795286
108	0x3e3dd3e9	0.18537869
109	0xbd8ed818	-0.0697481
110	0x3db27e93	0.08715548
111	0xbc573f8c	-0.013137709
112	0x3e548551	0.20753981
113	0xbc6784bb	-0.0141307665
114	0x3da69a31	0.081348784
115	0xbdecbcca	-0.11559446
116	0xbd699c34	-0.057033733
117	0xbe5f1bac	-0.217879
118	0x3e0ce39b	0.137587
119	0x3d982070	0.07428062
120	0xbd9ae9cf	-0.07564127
121	0x3dd7479a	0.10511704
122	0xbd58357c	-0.05278538
123	0x3d78d0c0	0.060745955
124	0xbd94e28e	-0.072697744
125	0xbe075532	-0.13216093
126	0xbb9dac52	-0.004811802
127	0xbdef4b08	-0.11684233
128	0x3e2f696d	0.1713006
129	0x3c9d04fb	0.019167414
130	0xbd060fa0	-0.032729745
131	0xbe019594	-0.12654716
132	0xbdcc5b5a	-0.099783614
133	0xbe425702	-0.18978503
134	0xbd427c9a	-0.04748211
135	0x3dc35492	0.09537615
136	0xbca8711f	-0.020561753
137	0xbd71d9fb	-0.059045773
138	0x3e2626f4	0.16225797
139	0x3de7b75d	0.11314271
140	0xbcd66cba	-0.026174892
141	0x3db7046a	0.08936389
142	0xbe2e8123	-0.17041449
143	0x3e4517ea	0.19247404
144	0x3e54daa1	0.20786525
145	0x3e2d10bf	0.1690092
146	0xbdb369f3	-0.087604426
147	0xbe093b70	-0.1340158
148	0xbd9cf023	-0.0766299
149	0x3e01c77f	0.12673758
150	0xbe39c761	-0.18142463
151	0xbe1ce79c	-0.15322727
152	0xbd7b1bc9	-0.061305795
153	0x3e461e6a	0.1934754
154	0x3e5ada96	0.21372446
155	0xbdff57cc	-0.12467918
156	0xbcd54899	-0.026035594
157	0x3d036cb1	0.032086078
158	0xbe29f182	-0.16596034
159	0x3e13f901	0.14450456
160	0x3e20673a	0.15664378
161	0x3dc472c5	0.09592203
162	0x3e522f60	0.20525885
163	0xbd53f30e	-0.051745467
164	0x3d85936f	0.06522261
165	0x3e36ffdb	0.17871039
166	0xbe347b16	-0.17625079
167	0x3e3082df	0.17237423
168	0xbe0c4687	-0.13698779
169	0x3e38652f	0.18007348
170	0x3d8705bd	0.06592891
171	0x3e6e72fe	0.23286054
172	0x3d81bac8	0.06334454
173	0xbbf2735c	-0.007399006
174	0x3debfe03	0.11523058
175	0x3d4f3194	0.05058439
176	0x3e09d557	0.13460289
177	0xbe042bb7	-0.12907301
178	0x3ca29935	0.019848445
179	0xbdc82441	-0.0977254
180	0xbe5dc896	-0.21658549
181	0x3e5532f3	0.20820217
182	0xbd2bfa76	-0.041986905
183	0xbd00daf1	-0.0314588
184	0xbd433d5a	-0.04766593
185	0x3c8d802c	0.017273031
186	0x3d43cfde	0.04780566
187	0x3e529924	0.20566231
188	0xbc6156a9	-0.013753572
189	0x3e27916d	0.1636407
190	0x3d7d6956	0.061868034
191	0xbe040589	-0.12892736
192	0xbc964a80	-0.018346071
193	0x3d0bae2d	0.034101654
194	0x3e190f0d	0.14947148
195	0x3d5e0e21	0.054212693
196	0x3d5f3b79	0.054500077
197	0x3dcef6a3	0.10105636
198	0xbe381f1c	-0.17980617
199	0x3e2bac8c	0.1676504
200	0xbdd03749	-0.10166795
201	0xbe211e29	-0.15734161
202	0x3e2fa646	0.17153272
203	0xbbbb16d8	-0.0057095103
204	0xbe1d5fbd	-0.15368553
205	0xbe2caefa	-0.16863623
206	0xbdfc712b	-0.123262726
207	0x3cdfd29e	0.02732211
208	0xbe181844	-0.14853007
209	0xbdc74ab7	-0.097310476
210	0xbe3f79f1	-0.1869886
211	0xbe497925	-0.19675119
212	0x3ccdcfe1	0.025123538
213	0xbd3834b3	-0.044972133
214	0xbde83e36	-0.11339991
215	0x3e11b330	0.14228511
216	0xbe76fcf3	-0.2411993
217	0x3d39497c	0.045236096
218	0x3e16fc89	0.14744772
219	0xbd0e5671	-0.034750406
220	0xbe165125	-0.14679392
221	0xbdf60fad	-0.12014709
222	0xbc984532	-0.018587682
223	0x3da227af	0.07917725
224	0xbbc71ed5	-0.0060766735
225	0x3e3162a0	0.17322779
226	0x3cb79974	0.02241204
227	0x3ddc65d4	0.1076161
228	0x3e189b39	0.14902963
229	0x3d8abf27	0.06774741
230	0xbe721f99	-0.23644866
231	0xbe57bdab	-0.21068446
232	0xbd164a03	-0.036691677
233	0xbd9009f5	-0.07033149
234	0x3bac308d	0.005254811
235	0x3e0b627f	0.13611792
236	0xbdcf639f	-0.10126423
237	0xbd8324b7	-0.06403487
238	0x3d8caf33	0.06869354
239	0x3da9c92e	0.08290325
240	0xbd59796a	-0.053094305
241	0xbd8ca93d	-0.06868217
242	0x3e031bf0	0.12803626
243	0x3e3baae4	0.18326908
244	0x3d8ef484	0.069802314
245	0x3c3f7779	0.011686199
246	0xbe0ee65d	-0.13955064
247	0x3e463e0a	0.19359604
248	0x3e0a633a	0.13514414
249	0x3db0b0a2	0.0862744
250	0x3c3f04e0	0.011658877
251	0x3e306c75	0.17228873
252	0xbdcc0484	-0.09961799
253	0xbe2b735d	-0.16743226
254	0x3e26d8e6	0.16293678
255	0xbe49c651	-0.19704558

embedder.rnn.bias_ih_l2 f4 [72]
0	0x3dcd8c42	0.10036518
1	0xbc8cff32	-0.01721153
2	0x3e43f9d7	0.19138275
3	0x3de266a5	0.11054734
4	0x3e200c13	0.15629606
5	0x3e0f0cab	0.13969676
6	0x3e489f0a	0.19591919
7	0x3e271bd4	0.1631921
8	0x3e533380	0.20625114
9	0xbdd8b608	-0.10581595
10	0x3df712ed	0.12064157
11	0xbd662d59	-0.05619559
12	0xbce9fffd	-0.028564448
13	0xbd09b961	-0.033624057
14	0x3d185c11	0.037197176
15	0x3e14cb53	0.14530687
16	0x3da84de7	0.08217984
17	0xbc9797f3	-0.018505072
18	0x3bfc62d6	0.007702212
19	0x3e28a94d	0.16470833
20	0xbc4a1a8d	-0.012335432
21	0x3dc6a489	0.09699351
22	0x3e25ac30	0.16178966
23	0x3e2b4640	0.16726017
24	0xbd9aff82	-0.075682655
25	0xbe61e70e	-0.22060797
26	0xbe32b4ee	-0.17451832
27	0xbea5b2f6	-0.323631
28	0xbe855781	-0.26043323
29	0xbe8fcefe	-0.2808761
30	0xbdbbae87	-0.09164148
31	0xbe1aa040	-0.15100193
32	0xbe641785	-0.22274597
33	0x3ed24ed2	0.4107576
34	0xbd858557	-0.06519573
35	0x3ddd5a81	0.10808278
36	0xbdceb53a	-0.1009316
37	0xbe6e0c14	-0.23246795
38	0xbe387fae	-0.18017456
39	0x3c409b37	0.011755756
40	0xbe45e2f1	-0.19324853
41	0x3c49d40f	0.012318625
42	0xbe2a522e	-0.16632912
43	0xbd8f935d	-0.07010529
44	0x3d049a6f	0.03237384
45	0xbe5f120a	-0.21784225
46	0xbea2af85	-0.31774536
47	0xbe9aa0bd	-0.3020076
48	0x3e0a7778	0.13522136
49	0xbe3a5817	-0.18197666
50	0x3dc0937e	0.09403132
51	0xbdbd2b4c	-0.09236774
52	0x3b058114	0.0020371126
53	0xbdf55c3b	-0.11980482
54	0xbe7ac12c	-0.24487752
55	0xbda82d0c	-0.08211717
56	0xbd1e9c1a	-0.03872309
57	0x3daf2094	0.08551136
58	0x3e422147	0.18958007
59	0xbddfb1db	-0.10922595
60	0xbd5239f1	-0.05132479
61	0x3e572271	0.21009232
62	0x3dd67759	0.104719825
63	0xbc18d0ec	-0.009327155
64	0xbe18bf42	-0.14916709
65	0xbe29a740	-0.16567707
66	0xbcd7a73b	-0.026324859
67	0xbd948199	-0.07251281
68	0x3e287a83	0.16452985
69	0x3e006d71	0.12541749
70	0x3db6c8d2	0.08925022
71	0xbd7eb0ad	-0.06218021
