data/augmented/timegan_class_2.pt (torch, 239069 bytes, 65 tensors)

embedder.rnn.weight_ih_l0 f4 [72, 43]
000000 ab 27 3a 3e 80 c6 1e be 72 e5 32 bd d8 13 98 3d
       0.18179195 -0.15505409 -0.043675847 0.0742566
000010 83 f1 95 bd b9 a4 0a 3e 07 23 87 3d 27 a9 21 bd
       -0.07321455 0.13539399 0.06598478 -0.039467957
000020 73 1e 18 3e f3 88 48 3e 86 6a 29 bd fb 5e 2b 3e
       0.14855365 0.19583492 -0.041361354 0.16735451
000030 15 30 44 3b e1 e9 41 3c de bb 75 3e 92 79 1d be
       0.0029935886 0.011835546 0.23997447 -0.15378407
000040 42 df 1a 3e 23 d4 3b 3e 8c d0 3c be e8 50 b6 bd
       0.15124229 0.18342642 -0.1843893 -0.089021504
000050 bc 53 6e bd 4d 6a 83 bd 0f d0 f1 3d b4 a5 05 be
       -0.058185324 -0.0641676 0.11807262 -0.13051492
000060 59 4b 69 3e e0 52 9a 3d 72 1f f4 3d 67 62 48 3e
       0.22782649 0.075353384 0.1192006 0.19568788
000070 ce 79 05 3e c1 c1 40 3e c3 e0 29 3e 1e 4f 2d be
       0.13034746 0.18823911 0.16589646 -0.16924712
000080 d8 e0 1b bd 54 23 61 3d 0a 3e 14 bc a6 c1 65 be
       -0.038056225 0.054965332 -0.009047994 -0.22437152
000090 75 ce 34 bd 4a 2d d9 3d eb bf 43 be 30 58 23 3e
       -0.044142205 0.10604341 -0.1911618 0.1595161
0000a0 d0 c3 ce bd 85 04 5a 3e 69 16 71 3c a6 f8 1c 3e
       -0.10095942 0.21290787 0.014714816 0.15329227
0000b0 48 75 32 3d 95 e1 93 bd 14 70 18 be 81 7c 38 bd
       0.04356888 -0.07220761 -0.14886504 -0.04504061
0000c0 4b ef a1 3d 35 86 49 3e d6 68 2d be f8 71 bf bd
       0.0790697 0.19680102 -0.16934523 -0.0934791
0000d0 6c c5 a0 bd 51 75 20 bc 37 5c 57 be 33 dc 83 3d
       -0.07850155 -0.009793595 -0.21031271 0.06438484
0000e0 3c 48 e2 bd ee 31 c3 bd 78 30 0c 3e 9e ad 50 bd
       -0.11048934 -0.09531008 0.13690364 -0.050946824
0000f0 54 f5 3f be 67 2b 5b bd 07 5b 76 ba 26 6b 48 3e
       -0.18745929 -0.05350819 -0.00093977194 0.19572124
000100 4a 9b 75 3d 1e e0 b4 3d c0 98 cd 3d 23 02 3c 3e
       0.05996255 0.088318095 0.100389004 0.1836019
000110 7f 2c de 3d 60 30 ed 3d 05 2e 47 3d 22 e8 2e bd
       0.10848331 0.115814924 0.048627872 -0.042701848
000120 8e 1f c2 bc 85 b8 17 3e 11 ed 92 bd 78 bc f6 3c
       -0.023696687 0.14816482 -0.07174123 0.030119166
000130 8f ad 3d be 89 14 a2 3c ed ea 9e 3b f8 d4 4c 3e
       -0.18523239 0.019785183 0.0048497827 0.20003116
000140 7e 59 fb 3d 64 3e 02 be d4 09 70 3e 46 42 85 bd
       0.12272929 -0.12719113 0.23441249 -0.06506781
000150 52 3d 18 be 19 bf 0c be 8b 53 39 bc 42 99 99 3c
       -0.14867142 -0.13744773 -0.011311422 0.018749837
000160 5f 57 91 3d f7 fd f5 3c bb 61 b4 3d 05 55 0b be
       0.07096743 0.030028326 0.08807703 -0.13606651
000170 04 5a 82 bd af a3 5d be 54 f5 aa bd 34 88 8d bd
       -0.06364825 -0.21644472 -0.08347574 -0.06910744
000180 c5 4e 98 bd 5f 87 e4 bb e3 a9 4c be 6c ab fd bd
       -0.07436899 -0.0069741453 -0.19986682 -0.12386212
000190 6d d2 22 be 78 80 4d bd 5b 54 fa 3d cb 85 07 3e
       -0.15900584 -0.050171345 0.12223121 0.13234632
0001a0 10 b0 fe 3d 56 12 3d bd c5 80 f0 3d 05 37 68 3d
       0.12435925 -0.046160065 0.11743311 0.056693096
0001b0 01 46 d0 3d 0d 99 19 3e 87 ed 4f 3d a7 53 52 be
       0.10169602 0.1499979 0.050763633 -0.20539723
0001c0 fd 75 e1 bc f0 53 7b be ec df ae 3d c0 fa 38 be
       -0.027522082 -0.24543738 0.085388035 -0.18064404
0001d0 8f 0f f8 3d 4f f1 77 bd 05 36 f3 bd d5 bc 4b bd
       0.121123426 -0.060532864 -0.11875538 -0.04974063
0001e0 28 3f b9 bd cd 15 7d 3d 52 55 bc bd c8 07 85 bd
       -0.09045249 0.06178837 -0.09195961 -0.06495625
0001f0 2d 25 c2 bd f4 82 10 be b3 4b 05 be 54 cc d6 3d
       -0.09479747 -0.14112455 -0.13017158 0.10488191
000200 2e ef 0e be aa b2 ea 3d 5f cb 16 be 26 5c d5 bd
       -0.13958427 0.11459859 -0.14726017 -0.104179665
000210 e3 5d 0b 3d 41 54 10 be af c1 1d be 2c 10 d5 bd
       0.034025084 -0.1409464 -0.15405916 -0.10403475
000220 67 26 c1 3d db e8 c3 bd 8e 7c 1d 3d 66 4d 4a 3e
       0.09431153 -0.09565898 0.038448863 0.19756088
000230 99 06 74 3c 74 75 e3 3d 06 c0 a5 bd 44 c4 17 3e
       0.014894151 0.11106387 -0.08093266 0.14820963
000240 93 a1 60 bd 8f 6f 15 3e e8 4a b0 3d 5a 49 eb 3d
       -0.05484159 0.14593337 0.08608037 0.114886
000250 10 a9 dc 3d dd c3 8b 3d 87 b0 0c be 81 29 24 be
       0.107744336 0.06824467 -0.13739215 -0.16031457
000260 08 2d 41 be 56 ca 13 3e d4 d3 dc 3d 89 9c d4 3d
       -0.18864834 0.14432654 0.107825905 0.10381419
000270 7c 32 57 bd 7d 5e 6c bd 79 78 2f be ee c6 33 3e
       -0.05253838 -0.0577073 -0.171358 0.17556354
000280 91 68 36 be 6f 30 13 3d d0 30 c9 bd f6 54 47 3d
       -0.17813326 0.03593486 -0.09823763 0.04866501
000290 be 65 83 bd b4 05 31 bc f7 51 2e bc 37 0f 2b be
       -0.0641589 -0.010804582 -0.010639659 -0.16705023
0002a0 75 a3 a1 bc b0 d5 93 bc 7a 8a 39 3d 85 87 54 3e
       -0.019731263 -0.01804623 0.045298077 0.20754822
0002b0 26 01 2f 3d de d7 8c bc 14 74 e9 3d ee 2e 4c be
       0.042725705 -0.017192777 0.11399093 -0.19939777
0002c0 e5 e2 28 be 47 4b 2e bc 58 c2 8b 3c ba b7 42 3e
       -0.16492803 -0.010638065 0.017060444 0.19015399
0002d0 29 17 59 bc 2f 7a d1 bd ce f6 38 3e 39 cd 28 3e
       -0.013250151 -0.10228383 0.18062899 0.16484536
0002e0 8f c4 2a be ef 4a e1 bd df 55 46 3e 6b 97 3d 3e
       -0.16676544 -0.110006206 0.19368695 0.18514793
0002f0 67 ff db 3b 38 b1 d4 3d 30 12 01 3e 1d fe f8 3d
       0.006713796 0.10385364 0.12604594 0.12157843
000300 2a d0 3c 3e e8 17 94 3d 36 2f 17 3e d2 fd d9 3d
       0.18438783 0.07231122 0.14764103 0.106441155
000310 42 7f d7 bd ad 0b 41 3e 6f 0a 87 3d 16 6a d2 bd
       -0.105223194 0.1885211 0.06593787 -0.102741405
000320 54 b3 44 3e 84 a9 e3 bd 7d 50 80 bd a1 fa 44 bc
       0.19209033 -0.11116317 -0.06265352 -0.012022645
000330 79 f5 32 be 24 96 81 bd da cf 1f be a6 86 29 3d
       -0.17476453 -0.06327465 -0.15606633 0.041388176
000340 74 9d 63 3e 99 f9 4e 3e 33 14 ce bd 5a 84 11 bd
       0.22228032 0.20212401 -0.100624464 -0.03552661
000350 85 ab fd 3d ba 5b 11 3e 81 66 c4 bd 71 89 41 3e
       0.123862304 0.14195147 -0.095898636 0.18900086
000360 e1 42 47 3e 77 88 db bd 92 f6 99 bd c7 8a 3b be
       0.19459106 -0.10719388 -0.07517733 -0.18314658
000370 68 1b 34 bd 88 0b 2f be cc 2a 7f 3d 89 2c 09 be
       -0.04397145 -0.17094243 0.062296674 -0.13395895
000380 01 fc 25 3b 30 b5 46 3e 9d bb 08 be 30 f0 39 3d
       0.0025327208 0.19405055 -0.13352819 0.045395076
000390 19 88 50 bc c2 3f 22 3e 58 8c 39 be ef af 31 3e
       -0.012727761 0.15844634 -0.18119943 0.1735227
0003a0 bf a1 f4 3d 97 74 aa 3c 83 00 a1 3d 56 9c c8 3c
       0.11944913 0.020807547 0.07861426 0.02448861
0003b0 d3 6c 89 bd ee 54 a4 bd 73 5d 33 be 32 73 4a be
       -0.0671021 -0.080240116 -0.17516117 -0.19770506
0003c0 14 26 ed bc 48 f4 e5 bc 3a 37 04 bd 9c 44 0c be
       -0.028948821 -0.028070584 -0.03227923 -0.13698047
0003d0 ec ac 14 3e 07 4d c4 bc b4 11 02 3e b9 c5 d6 bd
       0.1451909 -0.02396251 0.12702066 -0.10486931
0003e0 97 aa c7 3d ec bb e0 bd 8c 87 36 3e 1c 02 83 bd
       0.09749334 -0.10973343 0.17825145 -0.06396887
0003f0 2f bd 49 be 9c e7 19 be b8 57 25 3d 83 11 a6 3b
       -0.19701074 -0.15029758 0.04036686 0.0050680055

embedder.rnn.weight_hh_l0 f4 [72, 24]
000000 43 29 5c bd ba dd 8b bd fd 2c 87 3d e1 97 2a 3e
       -0.053750288 -0.068294 0.06600378 0.166595
000010 65 f1 3a 3e c2 cd 48 be 63 0d 51 3e 62 96 73 3c
       0.18256147 -0.1960974 0.20415263 0.014867397
000020 6e fa 9f bd 1e e2 1b 3e eb 7b 29 3d bc 00 37 3e
       -0.078114375 0.15222976 0.041377943 0.17871374
000030 9d fd d4 bc 70 10 63 bd 6e 51 2d 3e c8 51 16 be
       -0.025999838 -0.055435598 0.16925594 -0.14679635
000040 f2 14 26 3e 4f 6a 58 bd b0 0b 75 bd af f8 7a 3d
       0.16218928 -0.05283576 -0.0598256 0.06127232
000050 fa 8b 67 be e4 28 bf bd 44 83 70 3d 43 ad 37 be
       -0.2261199 -0.09333971 0.058718935 -0.17937188
000060 42 2f 5d bc 05 54 17 be 1d df 38 3b 0f a7 23 be
       -0.013500037 -0.14778145 0.0028209158 -0.15981697
000070 b8 17 79 bb 52 ef c8 bd 03 3a 9c bc 61 af 14 be
       -0.0038008522 -0.09811272 -0.01907063 -0.14520027
000080 db 34 1b 3e 59 59 48 3e 7f 6c 25 3e 83 82 2a 3e
       0.15156882 0.19565333 0.16154669 0.16651349
000090 fd b9 c1 3c 8a 35 a8 3d 37 ba 8c 3d b4 9f ab 3b
       0.023648256 0.08213337 0.06871455 0.005237544
0000a0 39 a0 ec 3c 2d 89 85 bd 3b 9f e1 bd 7a 5c 12 be
       0.028884994 -0.06520305 -0.11016699 -0.1429309
0000b0 b9 f3 eb bc 0e 0e d5 bd bb d7 3a 3e 1c ce a7 3c
       -0.02880274 -0.10403071 0.18246357 0.020484023
0000c0 8f d0 b9 bc 77 a6 d1 bc 42 6f 83 bd 2a 3e 8d 3b
       -0.022682456 -0.025592072 -0.06417705 0.004310389
0000d0 78 e5 e8 3d a0 0f 0d 3e 8b c2 21 3e 12 5d 69 3d
       0.11371893 0.13775492 0.15796869 0.056973524
0000e0 c0 49 1c bc ca 32 2e be 23 91 be bd 06 a5 03 be
       -0.009539068 -0.17011562 -0.093050264 -0.1285592
0000f0 a8 c0 58 bd 34 b4 62 be 95 08 ae 3d 9f 5f 06 bd
       -0.052918106 -0.22139055 0.08497731 -0.032806035
000100 91 e6 4f be d1 b1 0e be fe c7 27 be f8 52 62 be
       -0.20302798 -0.13935019 -0.16384885 -0.22101963
000110 7f 5b f3 3d 84 7c f4 3d fb ea 31 3e bb bd 50 bc
       0.11882686 0.11937812 0.17374794 -0.012740548
000120 bc a4 a8 3d 7d c5 c6 bd 9c 4d 09 be 33 63 06 be
       0.082345456 -0.09705637 -0.13408512 -0.13123779
000130 5c 06 6c be f2 83 3f 3c a1 e1 eb 3d 67 c7 0c 3d
       -0.23049301 0.011689173 0.11517645 0.034369852
000140 a1 f6 3a be c1 da c6 3d e9 a1 0d be 9d 74 cd bd
       -0.18258144 0.09709693 -0.13831295 -0.10032008
000150 91 c4 86 bd 84 41 32 bd 8d 62 3f 3d db 89 51 3e
       -0.06580461 -0.04351951 0.046724845 0.20462744
000160 44 09 2d 3e 65 72 a0 3d 97 6a 1d be 10 e8 2b bd
       0.16898066 0.07834319 -0.15372692 -0.04196936
000170 26 d1 57 3d fd b3 13 3e c6 cd ea bb 34 a6 d7 3d
       0.052689694 0.14424129 -0.0071656434 0.105297476
000180 eb 41 09 3e 1a b7 25 3e a0 73 8b 3d fd 11 14 bd
       0.13404052 0.16183129 0.06809163 -0.036149967
000190 be 8f 3c be 5e 6e 49 bd ee 17 fd 3d 5d f9 45 3e
       -0.18414208 -0.04917752 0.1235808 0.19333406
0001a0 1f ba 18 3e 40 f2 99 bd 1d 33 b1 3d a5 38 2a be
       0.1491475 -0.07516909 0.08652327 -0.1662317
0001b0 70 78 52 3e a5 42 51 be 56 03 2c be 29 68 52 be
       0.20553756 -0.20435579 -0.16798148 -0.20547546
0001c0 69 6e 52 3e 40 45 1a 3e a8 84 09 be 73 d6 85 bd
       0.2054993 0.1506548 -0.1342951 -0.065350436
0001d0 31 34 07 bd 69 94 1e 3e 63 11 0f be 6f 13 8d 3c
       -0.033008758 0.15486301 -0.13971476 0.01722118
0001e0 5f 51 0e be 25 5d 1a 3e f5 92 fd bc e8 a9 5b bd
       -0.13898228 0.15074594 -0.030953864 -0.053628832
0001f0 de 17 33 be 39 74 13 be c7 df 27 3d af ab b5 bd
       -0.17489573 -0.14399804 0.040984895 -0.08870637
000200 a6 85 13 be 00 ce 3e bd f5 30 0e 3e 7f 40 50 3d
       -0.14406452 -0.046583176 0.13885863 0.05084276
000210 cd 72 e8 bc 88 71 c9 3d 0d ec cb bd 80 0c 30 3c
       -0.028375054 0.098361075 -0.099571325 0.010745168
000220 95 d6 42 bd 80 e6 b1 3d 24 fb 03 bc c4 c8 a5 3d
       -0.047567923 0.086865425 -0.008055482 0.08094934
000230 f5 d8 14 be d4 d1 ee 3c ca a1 2b bc 04 66 48 3e
       -0.14535888 0.029152788 -0.010475585 0.19570166
000240 8c a9 23 bd a6 ac 97 bd f1 38 25 be ad 29 fb bd
       -0.039956614 -0.07405977 -0.16135003 -0.122638084
000250 3e d1 55 be 8b 12 d0 bd 0e af c1 bc f5 2d 18 be
       -0.20880601 -0.10159787 -0.023643043 -0.14861281
000260 e0 a0 a6 3d 7f da 51 be 67 0b 02 be 26 d5 20 3e
       0.08136153 -0.20493506 -0.12699662 0.1570631
000270 0d 7e 00 3e 3c 6c c0 bc f5 a7 e1 3c cf 77 6f bd
       0.12548085 -0.02348911 0.027545908 -0.058463868
000280 2d fe f3 3d 71 9e c6 bd b6 a0 99 bd 5c 94 b6 3d
       0.119137146 -0.09698189 -0.07501356 0.08915016
000290 58 cd 12 be c8 1b 61 bd 2e fb ca bc f7 66 2a 3e
       -0.14336145 -0.054958135 -0.024777975 0.1664084
0002a0 81 f2 64 be 8c d8 56 3d c4 05 5c be da a5 83 bd
       -0.22358133 0.05245261 -0.21486574 -0.06428118
0002b0 9e 38 87 3d 0e d8 58 3d a6 dc 94 3d 79 96 14 be
       0.06602596 0.05294042 0.07268648 -0.14510526
0002c0 47 d7 56 be a3 d8 7a 3d 19 53 f9 bd 4e 30 1b 3e
       -0.2098056 0.061241757 -0.12174053 0.15155146
0002d0 78 0a 0d bc f5 57 22 be 2e c9 18 3e c3 75 87 bc
       -0.008608453 -0.15853865 0.14920494 -0.016535645
0002e0 47 1f 0c 3e 11 8a 21 3e e4 c1 c8 bc 45 40 11 3d
       0.13683806 0.15775324 -0.024506517 0.035461683
0002f0 90 8d be bc 79 e7 f0 ba 99 90 d2 bc b6 1d 32 be
       -0.023260862 -0.0018379531 -0.025703715 -0.17394146
000300 49 6e 05 bd f6 51 cf 3b 9a 34 4e 3e 87 83 df bd
       -0.03257588 0.006326909 0.20137253 -0.10913759
000310 d3 cd f6 3d 59 34 1c be f8 1b e7 bd 03 79 06 bd
       0.120509766 -0.15254344 -0.112846315 -0.03283025
000320 35 e4 f5 bd 72 67 c4 3d a1 57 09 bd 8e 1a d7 3d
       -0.12006418 0.09590043 -0.033530835 0.10503112
000330 70 46 61 be a2 2f ae bd b2 05 76 bd 3d 30 0f 3e
       -0.21999526 -0.08505179 -0.060064025 0.13983245
000340 c4 d3 a5 bd 78 05 e6 bd b8 7d d6 3d f1 07 6b bd
       -0.08097032 -0.11231512 0.10473198 -0.05738062
000350 b0 1e 7c 3e 88 58 2f be 79 df b0 3c a3 fc 03 be
       0.24621081 -0.17123616 0.021590935 -0.12889342
000360 59 7f 0c be 37 fc fc 3c 23 3f 6b 3d a4 b3 0b 3d
       -0.13720454 0.030881984 0.05743326 0.034106866
000370 4a 2c 48 3e 09 29 22 3e 2e 5f ae bd 6c a4 3e ba
       0.19548145 0.15835966 -0.08514248 -0.00072724256
000380 34 6a 00 be 7a ee 1b be 35 ee af bd c3 b9 87 ba
       -0.12540513 -0.1522769 -0.08590356 -0.0010355044
000390 bf 97 cd bd 0d a7 2e be ed 7c a4 bd ce 82 0b 3e
       -0.10038709 -0.17055912 -0.0803164 0.13624117
0003a0 99 29 dd 3d db 75 40 be e0 9b 7c bd 14 76 f9 3b
       0.1079895 -0.18794958 -0.06167209 0.007612953
0003b0 53 07 29 be 9f 6c 1d be 08 6b 50 3d a5 bc 7a bd
       -0.165067 -0.15373467 0.050883323 -0.06121506
0003c0 4f dd 3a be 42 16 22 be b5 3a 7e bd 72 ab 4c 3e
       -0.18248485 -0.15828803 -0.062067706 0.19987276
0003d0 87 90 55 3e 8d 36 11 3d 18 8e 6d bd 77 b9 3d 3d
       0.20855914 0.035452414 -0.05799684 0.04631945
0003e0 a1 4b 62 be c4 6d 26 3e b8 45 a6 bd 0b 00 19 bb
       -0.22099163 0.1625281 -0.081187665 -0.0023345973
0003f0 e4 0e ab bd f7 4e 45 3e 21 9f d0 bc 3a 5d 00 bd
       -0.083524495 0.19268404 -0.025466504 -0.031338908

embedder.rnn.bias_ih_l0 f4 [72]
000000 e0 5f a7 3d a8 ce f9 3d e0 1b 30 be 22 16 62 3d
       0.081725836 0.1219762 -0.17198133 0.05519689
000010 c2 5a b5 3c 1d dd 30 be f3 cc 0c bb 9d 06 1d 3e
       0.022138003 -0.17271848 -0.0021484464 0.15334554
000020 ab e5 79 be 05 b9 8e 3d 0a 2e 97 bc 5e ee a7 3d
       -0.24404018 0.069688834 -0.01845457 0.08199762
000030 99 45 2b 3e c6 7c 53 bd 3f 98 19 be c5 c1 0c be
       0.16725768 -0.051632665 -0.14999484 -0.13745792
000040 77 d3 8a bd 14 3f f6 3c 89 af 34 be a5 68 e7 3d
       -0.06778615 0.030059375 -0.17645086 0.11299256
000050 86 bf d8 bd 50 26 08 3e 29 dd 50 3e 37 1d 9f bd
       -0.10583405 0.13295865 0.20396866 -0.07769244
000060 8f a7 4c bd 34 8d 93 3b 94 84 bb 3c ba cd 18 bd
       -0.049964484 0.0045029167 0.022890367 -0.03730557
000070 c0 00 d0 bd c8 30 e0 3d ed ce 8f be f7 5e 79 bd
       -0.10156393 0.10946804 -0.2808756 -0.06088158
000080 0f d5 90 3d ab b6 c2 ba d2 87 11 be 68 40 50 bd
       0.07071888 -0.0014855465 -0.14211968 -0.050842673
000090 64 b3 95 3c 8b f0 f6 bd f5 7e c3 bd 54 12 a3 3d
       0.018274017 -0.12057599 -0.095456995 0.0796248
0000a0 ab 49 aa 3d a2 b0 c7 3b b6 fd 8b 3c e1 98 37 be
       0.08314832 0.0060940543 0.017088752 -0.17929412
0000b0 68 ee 97 3d 19 a2 33 3e f7 71 77 be d0 6f 68 3d
       0.07418519 0.17542304 -0.24164568 0.056747258
0000c0 3c ec 16 bd e4 38 c3 bc 84 db 5f be bf 18 02 be
       -0.036846384 -0.023830839 -0.21861082 -0.12704752
0000d0 60 e3 d1 3d ff f3 27 bd 63 d0 98 3d 95 5c 5c bc
       0.102484465 -0.041004177 0.074616216 -0.013449808
0000e0 fa d8 87 3d e9 fe c9 3d d2 ea f5 3d 7a 03 2a 3c
       0.06633182 0.098630734 0.12007679 0.010376805
0000f0 2b b4 c7 3c 1f 44 16 3e fd cd f1 bb ee b5 2b be
       0.024377903 0.14674424 -0.007379292 -0.1676862
000100 d7 16 17 3d 73 6d 09 bd 81 22 1e be 5b 5d ed 3c
       0.036887016 -0.033551645 -0.1544285 0.02897518
000110 c0 30 3c b9 39 e8 34 be 95 5e 2c be ac 3f 01 be
       -0.00017947238 -0.17666711 -0.16832955 -0.12621945

embedder.rnn.bias_hh_l0 f4 [72]
000000 20 9e bf 3d 1f 88 7a bd 8a e0 2b 3e 22 b3 d1 3d
       0.09356332 -0.06116497 0.16784874 0.10239245
000010 35 a4 2e 3d af 43 34 3e 10 eb 0b 3e 09 64 68 3d
       0.04263707 0.17603944 0.13663888 0.056736026
000020 69 cd 74 bc 24 67 cb 3c 32 73 1e 3e 64 a4 62 be
       -0.014941552 0.024829455 0.15473631 -0.22133023
000030 d5 c2 6b bd a7 f9 fe bd 14 a5 35 be 89 8f 84 3d
       -0.057558853 -0.12449961 -0.17738754 0.0647269
000040 15 95 0a 3e 5a de 8a 3c fe 8b 63 be de 0a 42 3e
       0.13533433 0.016951729 -0.22221372 0.18949458
000050 26 59 18 be bf 70 b5 bd 08 0f ee 3d d2 13 bd 3d
       -0.14877757 -0.08859395 0.11623961 0.09232296
000060 f3 a6 54 be 7f 58 eb bc 09 b4 fb 3d e3 bf 0b 3c
       -0.20766811 -0.028728722 0.12290198 0.008529636
000070 f2 77 54 3d 69 8e 05 3e cd 5f 71 be 85 48 84 3d
       0.0518722 0.13042606 -0.23571701 0.064591445
000080 4d 93 8c 3d 6e 9f b9 bd 51 9b b1 be e9 a2 98 3d
       0.06864033 -0.09063612 -0.3468881 0.07452948
000090 20 63 8a bd 2c 13 95 3d 8b 56 49 bd 3b 59 36 be
       -0.06757188 0.07279047 -0.0491548 -0.17807476
0000a0 b3 1c e1 3c 0a c3 23 bd 2e 69 e0 bd 00 63 2d 3e
       0.027479505 -0.039980926 -0.109575614 0.16932297
0000b0 2f 97 db 3c 85 14 b8 3c b4 fd 98 bc a4 1b a0 bd
       0.026805488 0.022470722 -0.018675663 -0.07817772
0000c0 f6 a5 5b be 61 6f 76 3d 7b 12 e2 3d 3b 6c cf 3d
       -0.21450028 0.060164813 0.11038681 0.10128065
0000d0 39 69 d3 3d c7 8f f2 3c df 39 f7 bc b9 19 c2 bd
       0.10322804 0.029609574 -0.030178962 -0.094775625
0000e0 dd c4 03 3e 3c 98 b9 bd 91 eb 7a bd 40 ce 8e bd
       0.12868066 -0.090622395 -0.06125981 -0.06972933
0000f0 ca a3 28 3e 1c a3 65 bd e1 10 df bc 14 61 1b 3e
       0.1646873 -0.056063756 -0.027229728 0.15173751
000100 4e e0 52 be 92 e0 f2 3d 86 51 16 be db 1e fe bc
       -0.20593378 0.1185924 -0.14679536 -0.031020572
000110 84 9e 2a be 6e 29 08 be dd 54 3e be a1 5b 19 be
       -0.16662031 -0.13297054 -0.1858706 -0.1497636

embedder.rnn.weight_ih_l1 f4 [72, 24]
000000 4f 03 1f 3d 32 d1 c9 bd 1e c7 ff bd fa e5 0f be
       0.038821515 -0.09854354 -0.124891505 -0.14052573
000010 bf 23 05 3e bc b8 35 be f1 5a d1 bd 40 bd 96 3d
       0.13001917 -0.17746252 -0.10222424 0.07360315
000020 3c 1f 12 3e 66 40 00 3d 59 f9 60 bd 47 59 0a bc
       0.14269727 0.031311415 -0.054925296 -0.008444137
000030 ba d3 e0 bd 45 a3 de 3d d8 f6 41 bd 59 32 a3 3d
       -0.10977884 0.10870985 -0.04735455 0.079685874
000040 c3 93 1a 3e c5 cf 19 3d 2e 06 36 3d ed 33 29 be
       0.15095429 0.03755166 0.044439487 -0.16523714
000050 9c 5c 6f 3b a6 a4 74 3d a4 07 89 3d 10 96 32 bd
       0.0036523705 0.059727333 0.066909105 -0.043600142
000060 bf 8c 5d be 05 46 39 be 16 6b 96 bd d1 04 8e bd
       -0.21635722 -0.18093117 -0.07344644 -0.069345124
000070 b0 9a d2 3d e1 01 52 3d 28 7c ad 3d b3 45 f5 3d
       0.102834105 0.051271323 0.084709466 0.11976185
000080 4c 1a 37 be e5 97 59 3d f3 bf 68 3d 13 9d 31 bd
       -0.17881125 0.053123374 0.056823682 -0.04336269
000090 b8 fb 5f 3e fb ae 10 3c 8f 7c d1 bd 5c 01 49 3e
       0.21873367 0.008830781 -0.10228836 0.19629425
0000a0 74 37 62 be 51 c3 f7 bd 1e a6 26 3e 51 22 8b 3d
       -0.22091466 -0.120978005 0.16274306 0.06793655
0000b0 8d 46 62 bd 14 e0 05 be ea 52 0b 3e 00 b1 33 3e
       -0.055243064 -0.1307376 0.13605848 0.17547989
0000c0 b1 f2 3e be 13 d6 35 be 11 fd ea bc 74 a3 7c 3d
       -0.18647267 -0.17757444 -0.028685125 0.06167932
0000d0 fa a5 3b 3d 7e 92 a9 3d 4c c9 86 3d 79 eb 12 be
       0.045812584 0.08279894 0.06581363 -0.14347638
0000e0 4d 17 fb bd fc 25 10 be 69 22 53 3d 13 ce f1 bd
       -0.12260304 -0.1407699 0.051546488 -0.11806884
0000f0 7f df c1 3d 33 9d da 3d 24 07 d6 bd 67 16 9a 3c
       0.094664566 0.106745146 -0.10450581 0.01880951
000100 37 2e b2 bd 0e b7 c4 3d 92 82 ce 3d 43 94 34 bb
       -0.08700221 0.096052274 0.10083498 -0.0027554191
000110 35 52 34 be 3e ba 7e 3c ea bb 5c bb c0 6f af 3d
       -0.17609484 0.015547333 -0.0033681341 0.085662365
000120 2c ec 03 3d 12 0c 1c be 6f 06 39 be 78 7c 4c 3e
       0.032207653 -0.1523898 -0.1806886 0.19969356
000130 0c 2d 0a be 85 1c 00 3e 8d 34 13 be 4a 96 67 bd
       -0.13493747 0.1251088 -0.14375515 -0.05653981
000140 52 21 d2 3d 2c ba ee bd 90 3f 04 be 4e d7 05 be
       0.102602616 -0.11656603 -0.12914872 -0.13070413
000150 81 9f 54 bd 21 a3 01 be f4 1e 15 3e 51 b2 44 3d
       -0.051909927 -0.12659885 0.14562589 0.04802162
000160 45 71 ac 3d e1 a9 05 3e 64 e2 0f be 52 57 03 bd
       0.08420042 0.13053085 -0.14051205 -0.032065697
000170 f6 be 1c be 35 f1 50 3e 71 cf 80 bd 6a ef af bd
       -0.15307221 0.20404513 -0.06289566 -0.085905865
000180 20 ed 1e bd 41 de 39 be c7 b3 c4 3d 7f 5a d7 3d
       -0.03880036 -0.1815119 0.09604602 0.10515308
000190 9b cc 61 3d 98 03 18 3d 55 6b e0 bd 48 ed 46 be
       0.055126768 0.037112802 -0.10957972 -0.19426453
0001a0 9b 0f a3 3c 51 20 3c be 2d 7c 0e be a7 99 2a 3e
       0.019904902 -0.18371703 -0.13914557 0.16660176
0001b0 dc 19 c8 3b 5d fd 2a bd 0b f8 b0 3d 3c e8 6f 3e
       0.0061065983 -0.041745532 0.086410604 0.23428434
0001c0 ae 4a 04 3d b1 45 b6 bd 5e 24 6a bc 84 f3 07 be
       0.032297783 -0.08900011 -0.014290897 -0.13276488
0001d0 40 a7 d9 bd c7 4c 8f 3d 13 7e 76 3e aa fd 05 3e
       -0.106276035 0.06997066 0.24071531 0.13085046
0001e0 0f 6f 11 3e a0 21 de bd 4c 89 13 3d d1 0d 3b 3d
       0.14202522 -0.10846257 0.03601961 0.045667473
0001f0 9b 5c 31 3e 1e 6f 89 3d cb e3 28 3e 6f ae 0c 3e
       0.17320482 0.06710647 0.16493146 0.13738416
000200 c6 f4 24 3e 5f 13 6a 3d 62 fa b2 bc ca 19 93 3d
       0.16108999 0.05714738 -0.021847907 0.07182653
000210 6a c3 d1 3d 33 91 f9 bd 68 1b e8 bd 9c 79 15 3e
       0.102423504 -0.12185898 -0.11333352 0.14597172
000220 87 34 5b 3e 50 8a 2e 3e 50 90 98 3d 49 cd 95 be
       0.21406756 0.1704495 0.074494004 -0.29258183
000230 8e 23 f2 3c a7 43 52 3e ca 80 b4 bd f4 ed 6a 3c
       0.02955797 0.2053362 -0.08813627 0.014338959
000240 77 1d 61 3d ed 22 65 3e 0f 29 59 bb a1 f6 91 3d
       0.05495974 0.22376604 -0.0033136045 0.07127119
000250 48 d2 95 ba dc 3d d7 bd 6a 8c 31 be 48 8f db 3d
       -0.0011430467 -0.105098456 -0.1733872 0.10720688
000260 15 48 0d be 8e 22 5a be 11 be f6 3d 8c fe 14 be
       -0.13797028 -0.21302244 0.12047971 -0.14550227
000270 ef eb 08 3e ba 65 4e 3e d6 4d 0f be d9 d4 77 3d
       0.13371252 0.20155993 -0.13994536 0.06050572
000280 ca 78 85 bd 5c 16 e8 bd e2 03 b7 3d 6c 29 2a 3e
       -0.06517179 -0.1133239 0.089362875 0.16617364
000290 a0 62 17 bd 16 16 ee bd f9 6f bf bd 68 07 f6 3c
       -0.03695929 -0.11625306 -0.09347529 0.030032828
0002a0 a7 44 07 be d9 d4 0a 3d f4 f4 47 3c 69 f3 66 3d
       -0.13209783 0.033894394 0.0122043975 0.056384478
0002b0 7e 29 e6 bd 6e e7 f4 bc d4 bd 19 be 6a a9 15 3e
       -0.11238383 -0.02989551 -0.1501382 0.14615408
0002c0 a9 8c 07 3d 01 1f 99 3c 18 d7 3f be c5 fd 40 3d
       0.03309313 0.018691542 -0.18734396 0.047117013
0002d0 88 d1 0c 3d a3 5d 5f 3d 8c a4 8f bb e4 e0 3a be
       0.034379512 0.05453266 -0.004383629 -0.18249851
0002e0 bb be 6c be cc bd 28 be d7 a6 8b 3d 17 23 d6 3d
       -0.23119633 -0.16478652 0.068189315 0.104559116
0002f0 a5 6f 7a be 31 4e 9a bd 03 c1 27 3e 2c a7 29 3e
       -0.24456652 -0.07534445 0.16382222 0.16567677
000300 01 9e 40 3d 85 2a d6 3d 7b 2b 5a be d6 22 a7 bc
       0.047025684 0.10457329 -0.21305649 -0.020402353
000310 1a 03 e9 3d 10 7c 31 be a6 86 cd 3d b7 82 d2 bc
       0.11377545 -0.17332482 0.10035448 -0.025697095
000320 74 a9 0d be 1b 9a eb 3d 61 d6 cb 3d 6d 25 4a 3e
       -0.13834172 0.11504003 0.09952999 0.1974084
000330 b1 54 74 3e 00 9a f9 bd 1b e7 1f 3e 07 6a 36 3e
       0.23860432 -0.12187576 0.15615503 0.17813884
000340 e2 16 23 3e 28 91 4c be 2f f7 66 be f4 54 79 be
       0.15926698 -0.19977248 -0.2255523 -0.24348813
000350 1f 29 b3 bc ec 34 f4 bd 05 95 14 3d c7 c8 15 3d
       -0.021870194 -0.119241565 0.03627493 0.03656843
000360 34 50 a8 bd ae c1 03 be fa 74 e4 3d 74 49 48 3e
       -0.082184225 -0.12866852 0.11155124 0.1955927
000370 81 5f 01 be a2 24 55 be 53 a9 5b 3e 19 e6 16 be
       -0.12634088 -0.20814756 0.21451311 -0.14736213
000380 1b 2f 27 3d 62 f5 94 bd 72 67 e1 3d d4 96 26 3c
       0.040816408 -0.072733656 0.11006059 0.010167796
000390 d3 b0 db 3d fc c1 91 3c 86 bb d7 bd e7 93 19 3e
       0.10727086 0.017792694 -0.10533814 0.14997827
0003a0 86 ba 4e bd 82 86 51 be 53 42 34 bc 28 d4 4c 3d
       -0.05047085 -0.20461467 -0.011002141 0.050007015
0003b0 44 85 24 be 22 28 53 3d b0 e1 f3 bb 46 1b 8e 3c
       -0.16066462 0.051551946 -0.0074426755 0.01734699
0003c0 95 64 1e 3b a0 39 fb 3d 12 05 6a be aa ee 4e 3e
       0.0024168838 0.122668505 -0.22853497 0.2020823
0003d0 bd 4f f9 bc 1e 94 5b be 1e f0 10 bd ca 0b 0a be
       -0.03043353 -0.21443221 -0.035385244 -0.1348106
0003e0 f0 b8 17 3e 02 ee 3a bd c9 fc 99 bc 01 92 a9 bd
       0.14816642 -0.04563714 -0.018797295 -0.08279801
0003f0 79 ce 6b 3e 3d 6a c8 3d fe f1 80 bd 31 f9 fb bd
       0.23027982 0.09785888 -0.06296156 -0.12303389

embedder.rnn.weight_hh_l1 f4 [72, 24]
000000 a8 40 17 be c9 5d 21 3e 85 1e 2f bb b7 f2 1f 3e
       -0.14770758 0.15758432 -0.0026721072 0.15619932
000010 ee cd d0 3d 3e 9b a4 3c 68 54 2a 3e 61 98 57 3e
       0.10195528 0.020093556 0.16633761 0.21054222
000020 42 c7 0e be 9d 12 47 be 94 32 bf 3d b7 d8 28 be
       -0.13943198 -0.19440694 0.09335819 -0.1648892
000030 71 f6 e0 bd c8 5c a8 bd f9 e2 2e be df 3d ae 3d
       -0.10984505 -0.082208216 -0.1707877 0.08507895
000040 9e 41 92 3d a5 40 5b 3e 7c 3b e3 3d e3 37 38 bb
       0.07141422 0.21411379 0.1109533 -0.0028109483
000050 68 14 b3 3d e5 f7 4c be 4a 72 00 bd 05 74 2b be
       0.087441266 -0.2001644 -0.031358995 -0.16743477
000060 58 33 6a be 2b 94 6d be 9e d8 3a be 5c 41 3d be
       -0.22871149 -0.23201053 -0.18246695 -0.18481964
000070 8f 1a ad 3d b3 11 90 3c d8 f5 1e 3e b0 85 77 bd
       0.08452331 0.017586565 0.1552347 -0.06043023
000080 9f ee c0 3c 99 4f fc 3c bf be 5f 3e 45 e7 54 3e
       0.023551283 0.030799674 0.21850108 0.20791347
000090 ba ea d2 bd 97 bb 3c 3e 8f e2 2a bd ce 8d 06 3d
       -0.10298677 0.18430935 -0.04171997 0.03285008
0000a0 8a 8f 2c 3e 34 dd b6 3d df 4d 5e 3e 25 36 ef 3d
       0.16851631 0.0892891 0.21709393 0.11680249
0000b0 cf b5 c5 bd b9 3a 4f 3e 18 76 59 3e 27 30 b9 3d
       -0.09653818 0.20237245 0.21236455 0.090423875
0000c0 4c ce a3 bd ae 76 bb 3d 6f 47 a9 3c 7a 7a e6 3d
       -0.079983324 0.09153496 0.020663945 0.11253829
0000d0 0a 2a 80 3c d4 de 78 3c 78 f9 52 bb 28 db 06 3e
       0.015645046 0.015189845 -0.0032192152 0.13169539
0000e0 5b 74 1b be a8 a5 34 3c a0 19 00 be 16 9f 82 3d
       -0.15181105 0.011025824 -0.12509775 0.063779995
0000f0 58 70 9d bd 4d a3 ff 3d 94 d8 00 be 88 e7 b0 3d
       -0.076874435 0.12482319 -0.12582618 0.08637911
000100 e4 1d 22 be 0b 42 cc bd 23 ca 81 3d 99 53 28 be
       -0.15831715 -0.09973534 0.06337383 -0.1643814
000110 e0 3b 0d 3e 95 31 e3 bd ac c5 ed bd 67 52 b7 3d
       0.13792372 -0.110934414 -0.116099685 0.08951264
000120 8a 68 c8 bb 5c 48 16 be eb 09 97 3d 32 00 d3 bd
       -0.0061159777 -0.1467604 0.073749386 -0.10302772
000130 c8 89 8b bd b7 eb 50 3e d3 52 6c bd 34 bb 4b 3d
       -0.06813389 0.20402418 -0.057696175 0.049739078
000140 8e f5 01 3e cb ce 20 3d a1 7c ba 3d 6c 7b 92 bc
       0.12691328 0.039259713 0.09105802 -0.017881118
000150 5e b7 3a 3e f1 01 98 bd 64 41 f3 3d 00 36 3d be
       0.18234012 -0.07422245 0.11877707 -0.1847763
000160 b7 b6 bd bb 1a 46 2d 3d bc ef 6c 3e f8 8e 5a bd
       -0.0057896036 0.042303182 0.23138326 -0.053359002
000170 04 7d f3 3d 12 c0 bd bd 72 1e 39 3e ac 01 23 bd
       0.11889079 -0.0926515 0.1807802 -0.039796516
000180 36 e4 3b 3e 31 74 63 3d 07 72 d7 bc cd e3 e1 bd
       0.18348774 0.05553073 -0.02629949 -0.11029778
000190 7e 4e 8d bd 10 b2 de bc 62 ac db bd d0 c6 0b 3e
       -0.06899737 -0.027184516 -0.10726239 0.1365006
0001a0 39 d2 8b bd 21 72 18 bd 12 af 1b bc 9d f9 a9 bc
       -0.06827206 -0.037218217 -0.009502189 -0.020748908
0001b0 c9 55 11 be 73 14 0e be 88 24 5f bd 6a 32 59 bd
       -0.1419288 -0.13874988 -0.0544782 -0.053026594
0001c0 47 3d 29 be 32 b1 06 3e 01 3d 21 3e 6d 30 da 3d
       -0.16527282 0.13153532 0.15745927 0.10653768
0001d0 09 6c c6 bc fc e6 39 be 7d 89 d6 bd a4 d5 2f be
       -0.024221437 -0.1815452 -0.104754426 -0.17171341
0001e0 3e 57 45 3d a6 35 83 bd c0 c4 93 3d 73 d3 9f 3b
       0.048178904 -0.06406717 0.072152615 0.0048775016
0001f0 35 04 07 3e 29 6d 09 3e 9d c3 af bc 50 f7 13 3e
       0.13185199 0.13420548 -0.02145558 0.14449811
000200 34 67 59 3e 6e cf 81 bd 7a d5 3f bd 4c 7e 30 3e
       0.21230775 -0.06338392 -0.046834446 0.17235678
000210 4a 8b c3 3d 73 76 f0 bd 47 fd 30 be 58 e7 92 3a
       0.09548052 -0.117413424 -0.17284118 0.0011207862
000220 3b 1d d8 3c 24 74 e1 bd d3 19 2f be 80 80 2a 3d
       0.026381126 -0.1100848 -0.17099695 0.041626453
000230 8a 1d 13 bd 54 05 48 be 6b 4e e2 bd 97 75 03 3e
       -0.035916843 -0.19533283 -0.11050113 0.12837826
000240 b9 37 06 3e 6e 7d 12 3e 70 8b ed bd a1 ee 13 3e
       0.13107194 0.1430566 -0.11598861 0.14446498
000250 04 52 64 3e a1 39 3b bc 79 3e e6 3d 65 3b 47 be
       0.22296911 -0.011427314 0.112423845 -0.19456251
000260 2f fb 32 be 06 56 bf bc 8f d6 8b bd 9f 4e 01 3e
       -0.17478631 -0.023356449 -0.06828033 0.12627648
000270 61 1a 42 3e d6 fd 31 be 5b 24 fe 3d a7 a0 db bc
       0.18955375 -0.17381987 0.12409278 -0.026810003
000280 d7 a3 e5 bd 99 6e dd 3d 78 1e 6a 3d ab 1b 42 3e
       -0.112128906 0.108121105 0.057157964 0.18955867
000290 fe 8c eb bd 7c f3 3c bb 1e 4b 9c 3d 96 1b be bd
       -0.115015015 -0.0028831651 0.07631515 -0.09282605
0002a0 47 0f 08 bd fa 7b f7 3d 4f 9f db bd ce 04 07 3e
       -0.033217695 0.120841935 -0.10723745 0.13185427
0002b0 c4 84 59 bd c2 4d 9a 3d ed f3 26 be ff de f1 bc
       -0.05310513 0.075343624 -0.16303988 -0.029525278
0002c0 82 23 b3 bd 45 ce 08 3e 78 dc 8d 3d df bb 0d be
       -0.08747007 0.13359936 0.06926817 -0.13841198
0002d0 d9 b0 ca 3d 11 c0 0d be 11 bb 7d 3d 9f 1b 05 be
       0.09897012 -0.13842799 0.06194598 -0.12998818
0002e0 14 f2 2a bd 53 95 17 be 38 0d db 3d a7 a3 3e 3e
       -0.04173477 -0.14803056 0.10695881 0.18617116
0002f0 38 f7 76 bd 85 43 a4 bd 98 6c 1e 3e ca 2a be bd
       -0.06029436 -0.08020691 0.15471113 -0.09285505
000300 a2 a8 d6 3d ea 1f 04 be fd a2 ac bd 03 dd 4a bd
       0.10481383 -0.12902799 -0.08429525 -0.04952718
000310 f1 9c 67 3d b7 f3 41 be 28 3b 59 bd 83 1a 27 be
       0.056546155 -0.18940626 -0.05303493 -0.16318707
000320 d9 a8 18 3c ad 9a fe bd 2b bd 03 bd d8 a6 b3 bd
       0.0093176 -0.12431846 -0.032162827 -0.08772057
000330 da ab 8c 3d 3f 2c cb bd c8 36 25 3e 28 51 bf 3c
       0.068687156 -0.09920549 0.16134179 0.023354128
000340 9b 9b 8f 3d 97 35 ca 3d 38 53 10 3c 30 9f b0 bc
       0.07012101 0.09873503 0.008808903 -0.021560282
000350 5e 69 b7 bd 72 a7 c2 bd 4a 94 97 3d 27 60 7f 3d
       -0.08955644 -0.09504594 0.07401331 0.062347557
000360 cb 32 eb 3b 48 3d da 3d e1 02 52 3e 53 36 f0 bb
       0.007177686 0.1065622 0.2050891 -0.0073306947
000370 df 85 8b 3d a0 de 2a 3e b6 8d 32 bb 46 c1 9d bd
       0.06812643 0.16686487 -0.002724511 -0.077028796
000380 58 ed 14 3e 2f d3 42 be 1f 64 10 be a8 a9 18 be
       0.14543664 -0.19025873 -0.14100693 -0.14908469
000390 41 57 53 3e e3 33 2e 3e e1 5b 3d be 0d 59 d1 bd
       0.20638753 0.1701198 -0.1849208 -0.10222063
0003a0 a6 d8 bd bc d1 74 86 3d ca 33 21 be 29 42 24 be
       -0.023174595 0.0656525 -0.15742412 -0.16040863
0003b0 5c a3 15 3e d5 b0 8b bd 8c fa 02 bd a1 bb 15 be
       0.14613098 -0.068208374 -0.03197722 -0.14622356
0003c0 cf 5d 17 3e 1c 8c 23 3e 7b b8 78 be bf 2a b4 bd
       0.14781879 0.15971416 -0.24289124 -0.08797216
0003d0 12 9f 23 3e 2b b2 f8 3d 57 cc 40 3d 0a 34 c9 bc
       0.1597865 0.12143358 0.047069874 -0.024560947
0003e0 94 94 be 3d 43 89 db 3d fd 60 d7 bd 4f fe 48 3c
       0.09305683 0.1071954 -0.10516546 0.012267663
0003f0 9b 31 a0 bd d8 31 82 3e c8 45 ce 3d a8 17 8d bc
       -0.078219615 0.25428653 0.100719035 -0.017223194

embedder.rnn.bias_ih_l1 f4 [72]
000000 65 29 87 3d ed fe 44 be 00 03 07 3d ab 1f e5 3c
       0.06599692 -0.19237871 0.032961845 0.027969202
000010 cc 30 14 bd 7f 6c 51 3d 80 39 3d 3e ab 80 44 be
       -0.03617935 0.05112886 0.18478966 -0.19189708
000020 4f ac 2d bd d9 f6 29 bd 52 83 56 3e b6 f5 f5 3d
       -0.042400654 -0.041495178 0.20948532 0.12009756
000030 e5 ae 48 3e 06 8d 9d 3c 43 1e a8 bd f4 87 97 bd
       0.19597967 0.019232284 -0.08208897 -0.07398978
000040 43 d6 f3 bd 24 80 f0 bd f0 8c 1d be 10 ea 05 be
       -0.119061016 -0.11743191 -0.15385795 -0.13077569
000050 71 e5 bd bd 38 8a cf 3d 87 d5 96 bd 74 eb a4 bd
       -0.09272278 0.10133785 -0.07364946 -0.080527216
000060 af d0 ad be 39 91 47 be 68 2c c5 bd 9e 29 8c be
       -0.33948275 -0.19488992 -0.096276104 -0.273755
000070 01 1a ad be bd 1f 98 be fd c4 97 be b1 3a d8 bd
       -0.33808902 -0.29711714 -0.29642478 -0.105580695
000080 e0 3b bf bc 52 7b bc bd 3b 4f ae be ff ad a4 be
       -0.02334398 -0.09203209 -0.34044823 -0.32163998
000090 5d d1 17 be 8e 67 19 be 1c bd b0 bb 45 8d 39 be
       -0.1482596 -0.14980909 -0.0053936373 -0.18120296
0000a0 a2 ce 82 be 0e ab f1 bd d1 23 83 be 72 7b ad be
       -0.25548273 -0.11800204 -0.25613263 -0.33883244
0000b0 45 92 83 3d 3c c9 a0 bd dc d3 19 be d3 47 16 be
       0.06424383 -0.078508824 -0.15022224 -0.14675836
0000c0 51 6a 0b 3e 2a da c9 3d 47 16 fd 3d bb 56 93 be
       0.13614775 0.098560646 0.12357765 -0.28777108
0000d0 60 8c 93 bd 92 38 81 bd 9c ab a8 3d 1b 94 03 3e
       -0.07204509 -0.06309618 0.08235857 0.12849467
0000e0 0b 2f 11 be 7a f1 b7 bd 13 7f 2b bd fe 72 70 bd
       -0.14178102 -0.08981605 -0.041869234 -0.058703415
0000f0 03 d2 3b be 12 70 69 3e 88 2d a4 3d a0 6c 41 3e
       -0.18341832 0.22796658 0.08016497 0.18889093
000100 8e f8 2d bd 84 5f 25 3e f0 b0 31 3c 24 2d 16 3e
       -0.04247337 0.16149718 0.010845408 0.14665657
000110 22 f8 3f 3e 9f 7c 32 be c6 b2 7b 3d 68 59 0e 3e
       0.18746999 -0.17430352 0.06144979 0.13901293

embedder.rnn.bias_hh_l1 f4 [72]
000000 0c 3d 05 be b9 3b 76 bd a3 10 ac bd 49 ba 29 3d
       -0.13011569 -0.06011555 -0.08401611 0.04143742
000010 b2 25 06 be 27 1f 8c 3d 27 43 e5 bd 0e 02 69 3d
       -0.13100317 0.06841879 -0.11194449 0.056886725
000020 cc b2 80 3e 58 85 11 be b9 db 52 3e 98 37 94 bd
       0.2513641 -0.14211023 0.2059163 -0.07237166
000030 29 f7 17 be 02 1e 49 3e eb 25 5e 3b c4 81 1c bd
       -0.14840378 0.19640353 0.0033897113 -0.03820969
000040 b0 c0 0f 3e 68 3b 2c 3e 0f 03 79 bd 3c 87 c6 bc
       0.14038348 0.16819537 -0.060793933 -0.024234407
000050 56 cf 35 3e 58 8b 35 3e 2c 03 0c 3d 99 5d 50 bd
       0.17754874 0.17728937 0.034182712 -0.05087051
000060 49 1f 4a be 31 ed aa be 45 12 5f bd 02 20 80 be
       -0.19738497 -0.33384088 -0.054460783 -0.2502442
000070 16 14 6b be 84 d5 2a bd ba 2b 03 ba 06 e0 38 bd
       -0.22956881 -0.04170753 -0.0005003769 -0.04513552
000080 22 9f 94 be f9 a9 21 be a0 98 91 bc cd c7 45 be
       -0.2902766 -0.15787496 -0.017772973 -0.19314499
000090 e8 89 ab be 70 36 cd be fe 27 e3 bd d7 be 25 be
       -0.33503652 -0.40080595 -0.11091612 -0.16186081
0000a0 4e 96 86 be a7 b8 81 be 97 6a 97 bd 43 24 28 3c
       -0.26286548 -0.2533619 -0.07393377 0.010262552
0000b0 89 38 14 3d 90 ac 0c be 78 b7 67 be bb 5c 33 be
       0.03618673 -0.13737702 -0.22628582 -0.17515843
0000c0 5b 1d f2 bc b1 e6 82 3d 98 7a 36 be b2 98 59 be
       -0.029555013 0.06391657 -0.17820203 -0.21249655
0000d0 d0 3a c0 bd ee 35 0d be f6 40 55 3e 05 b7 33 3e
       -0.093862176 -0.13790104 0.20825562 0.17550285
0000e0 97 1e 3f 3e b3 9d 6d bd af 2d ae bd 6f ba bb 3d
       0.18664013 -0.05801172 -0.08504807 0.09166419
0000f0 84 9d 29 3e ee 26 65 3e de 16 a6 bd 05 13 e1 bd
       0.16563994 0.22378132 -0.0810983 -0.10989956
000100 40 b8 09 3e 05 64 81 bd 77 9f 54 bd 00 b8 b7 bd
       0.13449192 -0.06317905 -0.05190989 -0.08970642
000110 5c 14 49 be a5 d0 d6 3d 6b e5 d1 3c f8 e1 19 be
       -0.19636673 0.104890145 0.02562209 -0.15027606

embedder.rnn.weight_ih_l2 f4 [72, 24]
000000 6a 48 82 bd 29 6e 7b 3b d3 12 87 be d6 c0 5f be
       -0.06361468 0.003836522 -0.2638155 -0.21850905
000010 46 10 f8 bd 88 cf f7 bd ea f6 92 be d7 d6 83 bd
       -0.12112479 -0.1210013 -0.28704005 -0.06437462
000020 25 8d 08 3e 9a bb 03 3e 97 fb 20 3e 53 39 26 3e
       0.13335092 0.12864533 0.15720974 0.16232805
000030 11 0b b2 bd 60 ec e4 3c 3c e8 e8 3d 74 6c 9a 3d
       -0.08693517 0.027944744 0.1137242 0.07540217
000040 03 5a 31 3e fe 74 57 3e 3a 8d c8 bc f9 40 c6 3c
       0.17319493 0.21040723 -0.024481405 0.024200903
000050 54 80 20 be e0 bb 26 bd f6 96 83 3d 64 80 c4 3d
       -0.15673953 -0.040706515 0.06425278 0.09594801
000060 0f 53 8b bd 43 28 cc bd 7e fe 2b bd 1e e8 63 bc
       -0.068029515 -0.09968617 -0.04199075 -0.0139103215
000070 27 6f 61 3e 9f f4 4f 3e a6 8a 24 3e 3f 65 10 bc
       0.22015058 0.2030816 0.16068515 -0.008813201
000080 40 01 f2 3d e1 82 0a 3d 6f f5 31 be 06 21 45 3d
       0.11816645 0.033816222 -0.17378782 0.048127197
000090 1b bc 07 3e 63 89 e1 3d dc c6 29 3c 8f 17 2f be
       0.1325535 0.110125326 0.010362353 -0.1709883
0000a0 d3 fc 09 be 1e 70 9d 3d c3 1b 21 be e4 f9 14 be
       -0.13475351 0.076874 -0.15733247 -0.1454845
0000b0 fe a4 84 3a 90 ef c7 bd 42 59 59 be 85 45 a6 3c
       0.0010119972 -0.0976249 -0.21225455 0.020296821
0000c0 4d 6c e7 3b 54 e8 28 3e c9 08 c0 bd d4 23 ee 3d
       0.007062471 0.16494876 -0.09376676 0.116279274
0000d0 fc 21 14 3e 9d 2c a8 3c 91 89 57 3c e0 2c 60 3e
       0.14466089 0.020529086 0.013155357 0.21892118
0000e0 72 9d 5e be 8e b6 62 3e a2 8a d8 3d 9b 52 18 bd
       -0.21739748 0.22139952 0.10573317 -0.037188154
0000f0 ed 7a e3 3c b2 87 0b 3e 11 ca ae 3d b7 87 b7 bd
       0.027768577 0.13625982 0.08534635 -0.089614324
000100 0a 05 09 3d 08 5c 34 ba f8 fe 10 bd 2d 94 65 be
       0.03345207 -0.0006880169 -0.035399407 -0.22419806
000110 63 02 71 be b9 28 22 bc 8c 76 2c 3e 52 e4 28 be
       -0.23536067 -0.009897404 0.16842097 -0.16493347
000120 18 ef 38 be db ef 7b bd 9c 44 62 3c 57 3a 7b 3d
       -0.18059957 -0.06150804 0.013810303 0.061334934
000130 2f 79 13 3d 92 44 81 bd e8 f2 86 be 9c 0c c8 3d
       0.03600424 -0.06311907 -0.26357198 0.0976803
000140 71 31 53 be d7 65 88 3d 43 35 74 3e cc c7 bd bd
       -0.20624329 0.066600494 0.23848443 -0.09266624
000150 c4 93 58 be 32 e8 7c 3e 92 12 a2 bd f5 15 4e bc
       -0.21150118 0.2469795 -0.07913698 -0.012578477
000160 42 50 ba 3d 06 8a 07 3e b7 11 5b 3e 50 1e 2c 3e
       0.09097339 0.13236246 0.21393476 0.16808438
000170 a2 cf 20 3e c5 d3 7e be 0c 14 29 3e e1 ed 87 bc
       0.15704206 -0.24885471 0.16511554 -0.016592922
000180 66 3d 00 be 9c e7 4d bd bb 2b 10 be b4 f9 75 3d
       -0.12523422 -0.050269708 -0.14079182 0.06005259
000190 01 1e c3 3d 39 43 6c 3d 4e cc 47 be 2f 99 64 3e
       0.09527207 0.057681296 -0.1951153 0.2232406
0001a0 b7 fe 76 bd d8 36 94 3d 47 1e 22 3e 6b 2a af bd
       -0.06030151 0.07237023 0.15831862 -0.085530125
0001b0 b3 10 50 be b0 ad 31 3e a4 c4 c6 bd 99 bc b8 3d
       -0.2031887 0.17351413 -0.09705475 0.09020347
0001c0 43 3e eb 3d dc 1f d6 3d 8e fb 3c 3e d7 4a 1b bd
       0.11486485 0.104552954 0.18455335 -0.03791317
0001d0 06 a2 35 3d b1 67 fc bd 9b b4 36 3e fc 99 45 3d
       0.04434397 -0.12324465 0.17842333 0.048242554
0001e0 53 8a f1 3d df ff 18 bd 02 f4 85 3d 78 84 0d be
       0.117939614 -0.037353393 0.065406814 -0.13820064
0001f0 a0 14 5f bd 2d 41 de 3d 26 3f 6a be 14 a6 0f 3e
       -0.05446303 0.10852275 -0.22875652 0.14028198
000200 6d 1d c6 3d 26 66 3e 3e c8 f8 69 3d 57 e2 e9 bc
       0.09673581 0.18593654 0.057122022 -0.02855031
000210 c8 39 c2 bd 01 ae ff 3c ee 44 88 3e e2 c1 ae bd
       -0.09483677 0.031210901 0.2661509 -0.08533074
000220 cd d5 ba bd 1e 89 97 bc 9e 76 68 bc 78 d5 b0 bd
       -0.091228105 -0.018498 -0.014188437 -0.08634466
000230 ca e6 27 be 0e 9c ef 3b ac 47 70 3e d6 52 38 be
       -0.16396633 0.0073123043 0.2346484 -0.1800035
000240 76 0c a5 bb 36 2a dd bd 5b 84 ef bd e3 2f 19 3d
       -0.005036886 -0.10799067 -0.11695167 0.037399184
000250 de 5e 02 3e 7e 0e 5c 3e 43 69 c8 3c df 00 22 3e
       0.12731501 0.21489903 0.024464255 0.15820645
000260 e3 db d5 bd f0 18 3a 3e 27 af 74 3e da aa 7c 3e
       -0.10442331 0.18173575 0.2389494 0.2467455
000270 17 fc 44 3c d6 c2 02 be af 1a 0b be 7a 8a 3e 3d
       0.0120229935 -0.12769637 -0.13584398 0.04651878
000280 fb 2f 2f 3e ad 48 53 3c 60 68 8b 3e c2 1d 02 3e
       0.17108147 0.012895745 0.2722807 0.12706664
000290 bb 5b 86 be 62 04 8b bd b7 91 88 3e 95 ff 65 3d
       -0.2624186 -0.06787945 0.26673672 0.056151945
0002a0 b5 a9 39 3e cb 94 81 3d 27 f1 9e bd cd 14 25 3e
       0.18131144 0.06327208 -0.0776084 0.16121216
0002b0 72 0f 68 3e b7 d6 1c 3e 1a 2b 46 be 57 e4 2b be
       0.22662142 0.15316282 -0.1935238 -0.16786323
0002c0 1a b0 60 be 90 d6 cd bd 2a 4d a8 3d 69 02 e8 3d
       -0.21942177 -0.1005069 0.08217843 0.11328585
0002d0 8c 8a 43 bd 36 2a db bc fa 83 21 3d b3 af f2 3d
       -0.04773955 -0.026753526 0.039432503 0.11849918
0002e0 98 b5 38 3d dc 3a af 3d a9 0b 5a 3e 45 b8 20 3c
       0.045095056 0.085561484 0.2129351 0.009809558
0002f0 67 3e d3 bd ff d2 86 be 92 f5 f6 3d fc 55 13 be
       -0.10314637 -0.26332852 0.120585576 -0.14388269
000300 1d d7 ac 3d 0a 3b 51 3e a1 be 4f be 0a ec 94 bd
       0.08439467 0.20432678 -0.20287563 -0.072715834
000310 81 c1 22 3e eb 90 94 3d 79 91 c7 3d 9f 9d 1f 3e
       0.15894128 0.072542034 0.097445436 0.15587471
000320 dc 38 c6 bd 09 f2 9d bd 6a 30 1c be c0 77 a6 3d
       -0.09678814 -0.0771218 -0.15252843 0.08128309
000330 ab 69 85 3d 47 56 bf 3d b4 2e 45 be 50 b8 3d 3e
       0.06514295 0.09342628 -0.19256097 0.18527341
000340 d9 1a 12 3e f8 d9 04 be af ed 86 3d ae af d1 bd
       0.14268054 -0.12973773 0.06588303 -0.10238586
000350 9b e6 4b 3e 43 2f 63 be 25 0d de 3d 38 e5 43 be
       0.19912188 -0.22185998 0.10842351 -0.19130409
000360 47 27 cb 3d 50 be 63 3e de c1 49 be ff 82 e8 3d
       0.09919601 0.22240567 -0.1970286 0.113531105
000370 ac e1 75 3e c5 14 38 bd 0a 7a 11 be 9e 82 7f 3d
       0.24011868 -0.044941682 -0.1420671 0.062380426
000380 ae 75 fd bd 8c 23 2e be 94 66 07 3d 52 3f 45 be
       -0.12375961 -0.17005748 0.03305681 -0.19262436
000390 4f 2b 49 3e ab ca 22 3e 80 21 24 be d3 9d c4 bd
       0.19645427 0.15897624 -0.16028404 -0.09600415
0003a0 a6 9b fd 3d ca 74 1c 3e 6f 66 41 3e 71 c0 2f be
       0.12383203 0.15278926 0.18886732 -0.17163254
0003b0 5e 95 07 3d 9c 29 a5 be cf 4b 21 3e f8 93 4a 3d
       0.033101432 -0.32258308 0.15751575 0.04945752
0003c0 89 1d 61 be 4c 5e fb 3d de af 02 3e 2e 05 35 3d
       -0.21983923 0.12273845 0.127624 0.044194393
0003d0 13 fb 1a bb 32 04 9a 3d 3b 41 28 3d df ff a3 bd
       -0.0023648187 0.075203314 0.041077834 -0.08007788
0003e0 d5 21 84 be 00 0b 01 be 17 8c 2e 3e 29 b5 e4 bd
       -0.25807062 -0.12601852 0.17045628 -0.11167366
0003f0 d8 73 f5 3d b6 8f d9 bd 35 05 6b bd d3 cf 91 be
       0.11984986 -0.10623114 -0.057378013 -0.2847887

embedder.rnn.weight_hh_l2 f4 [72, 24]
000000 23 f3 83 3d 5d be 46 bd 5f aa 51 3c 26 a6 3d be
       0.06442859 -0.04852139 0.012796967 -0.18520412
000010 32 73 2c bd bc 56 66 3e ac 25 9b bc 16 f7 50 3c
       -0.042102046 0.22494024 -0.018938862 0.012754222
000020 fe 34 38 3e 2a 8f c8 bd 2b 03 0a be 5f 87 4d be
       0.17988965 -0.097929314 -0.13477771 -0.20071171
000030 bf 36 23 bd 7a 53 f4 3d 27 91 97 bd 1c a3 3f 3e
       -0.03984713 0.119299844 -0.074007325 0.18714565
000040 76 a8 e9 bd b5 a5 be 3d 5a 8a 0a 3e 89 8c fe bd
       -0.114090845 0.0930895 0.1352934 -0.12429149
000050 22 04 1d bd ad 83 68 be 4c 19 28 bd 57 49 38 bc
       -0.03833402 -0.2270648 -0.04103975 -0.011247954
000060 82 b9 46 be 29 d3 42 3d 29 98 5f bd 29 92 5e 3e
       -0.19406703 0.04756466 -0.05458847 0.21735443
000070 1a f3 17 be 7e 8c 61 be ac cf 1a 3e 81 f2 bc bd
       -0.1483883 -0.2202625 0.15118283 -0.092259414
000080 22 8b 50 be de b3 4f bd 59 08 e4 3d 9d c3 a7 bb
       -0.20365575 -0.050708644 0.11134405 -0.0051197545
000090 56 b2 38 3e 8e ff 4a 3e 6f 13 13 be 61 92 8a bc
       0.1803678 0.19824049 -0.14362882 -0.016915502
0000a0 e4 36 98 3d c1 61 53 3d a0 ba 02 3e 1a 81 d6 3d
       0.074323446 0.051606897 0.12766504 0.10473843
0000b0 07 b5 c2 3d d3 13 c9 3c a7 62 d4 bc 1a 30 59 be
       0.095071845 0.024545586 -0.025925947 -0.21209756
0000c0 cd 23 b8 3d 39 d1 3d 3e 80 0f 81 3d 82 fb 35 be
       0.089912035 0.18536843 0.063017845 -0.17771724
0000d0 66 44 94 3c 19 1d e5 3d b6 81 6e bd 01 77 16 be
       0.018099021 0.111871906 -0.05822917 -0.14693834
0000e0 0e 48 13 3e 5e 31 cc 3c 8e 3c dd bd 4d 1e 18 3a
       0.14382955 0.024925884 -0.108025655 0.0005802855
0000f0 7c f8 2b bd a2 9a 4c be b3 d2 55 bd 2e 2a 3d 3e
       -0.04198502 -0.19980863 -0.05220289 0.18473122
000100 f6 3d b6 bd 27 92 0c 3e e1 bb b5 bd c4 e4 25 be
       -0.08898537 0.13727628 -0.08873726 -0.16200548
000110 a2 49 40 3e 06 df da bd e4 01 88 bc 0f a3 5c 3e
       0.18778089 -0.106870696 -0.016602464 0.21546577
000120 5c 66 76 3e f3 f2 d9 3c e3 54 b8 bd ec a9 26 3e
       0.24062485 0.026605105 -0.09000566 0.16275758
000130 65 6e 4a bc 8e af 4b 3e 92 59 e3 bd f3 23 1f be
       -0.012355422 0.19891188 -0.111010686 -0.15541057
000140 94 95 b5 3d 52 0e 07 3e 9f 9e 61 3e 3e 7b 00 be
       0.088664204 0.13189057 0.22033165 -0.12547013
000150 3d e6 c8 3d 23 e3 08 3e 49 95 2f 39 8a 22 ad bd
       0.098095395 0.13367896 0.00016744914 -0.084538534
000160 a4 38 31 3d cc 1f 02 3e 1a d0 06 3e e2 0c cc 3d
       0.043266907 0.12707442 0.13165322 0.09963395
000170 3d c5 80 3d 45 13 73 be 16 86 52 bd 79 26 21 bd
       0.0628762 -0.2373782 -0.051397406 -0.03934333
000180 91 8b af bd 7d 81 4b 3e 69 39 a9 bd cd 82 b9 bd
       -0.08571542 0.19873615 -0.08262903 -0.090581514
000190 cc b2 d4 bd cc be 2f bd 8f b9 54 be 29 f6 d8 3c
       -0.10385665 -0.042906567 -0.2077391 0.026484566
0001a0 8a 68 88 bd 50 16 dc 3d 68 bb 21 3e e9 cb d6 3d
       -0.06660564 0.10746443 0.15794146 0.104881115
0001b0 37 2b 78 bd 4b ec 00 be 0f c7 c2 3d e6 db 76 3d
       -0.060588088 -0.12590139 0.09510624 0.060268305
0001c0 2d b9 00 3d 21 a9 eb bc 49 43 2b be c1 1a 60 3d
       0.031426597 -0.02876717 -0.16724886 0.054713015
0001d0 ec 4b 0b be c9 05 43 3e 82 0d df 3c c1 a0 01 3e
       -0.1360318 0.19045176 0.02722812 0.12658979
0001e0 81 01 8b 3e 01 d1 da bd d7 96 9f 3b 66 db bd 3c
       0.27149585 -0.106843956 0.0048702764 0.023175906
0001f0 02 c2 91 3e 79 a5 34 3e 8a 11 7f be 4e ca 97 bd
       0.2846833 0.17641248 -0.24909034 -0.074116334
000200 aa 29 63 3e 24 4d b7 bd f3 35 57 3e b4 bf ce 3d
       0.22183862 -0.0895026 0.21016674 0.10095158
000210 7d 08 e4 bd 2f ab f6 bc 1f 2f 5d 3d 61 58 26 3e
       -0.111344315 -0.030110924 0.054000016 0.16244651
000220 80 3e 05 3e e1 e7 93 bd 65 fb 53 3e 3a 8e 05 3c
       0.13012123 -0.07221962 0.20701368 0.008151585
000230 f6 c1 a6 3d dc c7 ea 3d 18 ef fb 3d 02 d5 37 bd
       0.08142464 0.114639014 0.12301463 -0.044880874
000240 bb ec 21 3e b4 52 23 3e 25 c7 33 3d 1a b7 e3 bd
       0.15812962 0.15949517 0.04389109 -0.11118908
000250 9e 0f 70 3e 38 e0 4a 3e 4a 9a a9 bd 2e e7 0c 3d
       0.23443457 0.19812095 -0.082813814 0.034400158
000260 c8 cd ca 3c c3 da da 3d 50 b2 dd bd 07 10 78 be
       0.024756327 0.10686257 -0.10825026 -0.24224864
000270 8d eb 12 be 85 1a d9 3d 6f f5 cf bd 73 1c e3 bc
       -0.14347668 0.10600761 -0.101542346 -0.027723527
000280 0b 03 84 bd 9a f2 c4 3d a6 77 c5 bc 54 0d 15 3e
       -0.06445893 0.09616585 -0.024104904 0.14555866
000290 d5 b7 63 be fd 22 01 be 37 1b 96 3d ad ee 92 bc
       -0.22238095 -0.12611003 0.073294096 -0.017936075
0002a0 80 ca 26 be a8 61 c9 3d 57 e1 25 3d 86 6d d1 bd
       -0.16288185 0.098330796 0.040498104 -0.10225968
0002b0 ec 0f ed bd 57 23 d3 3d d0 2b 5b 3e 4c 42 8b 3d
       -0.115753025 0.10309475 0.21403432 0.067997545
0002c0 29 7a 47 3e 92 f0 4f be b9 c8 34 3e a0 41 14 bd
       0.19480194 -0.20306614 0.17654695 -0.036195397
0002d0 da 92 c0 3d f1 93 ff bd 79 e7 cd bd eb bb 85 3d
       0.0940301 -0.124793895 -0.100539155 0.06529983
0002e0 51 7a 17 be f4 b4 42 bc 88 18 25 be 82 59 07 3e
       -0.14792754 -0.011883963 -0.16122639 0.13217738
0002f0 b6 6e 11 3c 6d 9c 3d 3b 4b 30 8e 3d fe 53 0e be
       0.008876493 0.0028932348 0.06942805 -0.13899228
000300 36 14 cd 3c 35 04 53 be a3 c0 36 3e 8f a3 1c bd
       0.025034051 -0.20607074 0.17846923 -0.03824192
000310 e4 c0 f1 bd 08 a8 10 bc c9 d8 40 3e d4 54 4b 3d
       -0.11804369 -0.008829124 0.18832697 0.049641445
000320 f2 a2 4b be b7 1e 02 be 65 8a de bd 67 8d b4 3d
       -0.19886377 -0.1270703 -0.108662404 0.08816033
000330 b4 73 c5 3d e4 05 94 3d 27 ff be 3c e0 78 87 3d
       0.09641209 0.07227686 0.023315025 0.06614852
000340 06 41 35 3e a9 6d 09 be ed 65 88 3d 2a cf 66 bc
       0.17700586 -0.13420738 0.06660066 -0.014087478
000350 7c a8 1b 3d 77 24 0e 3e cf 50 8f bd 2e 81 e6 3d
       0.038002476 0.13881098 -0.06997835 0.11255108
000360 31 9c d5 3d 0c 01 38 be 7f 03 9c bd cb 94 6f 3e
       0.10430182 -0.1796915 -0.07617854 0.23396604
000370 c7 d2 73 bc 6d 06 4c 3d 0c c5 08 3e 76 94 dd 3d
       -0.014881796 0.049810816 0.13356417 0.10819332
000380 33 2e 46 3d 69 a8 e2 3c e4 46 54 be c2 c4 25 bd
       0.048383903 0.027668195 -0.20730168 -0.040470846
000390 b6 d0 8f 3d ca cb cd 3d 15 b4 4d 3d e7 65 21 be
       0.0702223 0.10048635 0.050220568 -0.15761529
0003a0 44 8d 14 3e eb 76 13 3d 59 d7 95 bd c1 da 4b be
       0.14507014 0.03600208 -0.07316465 -0.19907667
0003b0 3b 93 bc bd 62 1a 54 be a4 bc ed bd 7d ba 03 be
       -0.092077695 -0.20713189 -0.11608246 -0.12864108
0003c0 29 66 5e 3d fa 66 1b 3e 97 f9 12 3e 76 e2 62 3d
       0.054296646 0.15176001 0.14353023 0.05539175
0003d0 0b 37 b5 bd 70 d7 c3 bd ee ea d1 3d 5a ae 85 3d
       -0.08848389 -0.09562576 0.102498874 0.065273955
0003e0 8a 3d 16 3e a2 fa ad bc 09 9f d9 bd 5f 6f e7 bc
       0.14671913 -0.021237675 -0.10626037 -0.028251348
0003f0 18 3c 29 3e d6 1f 92 3d c5 13 cf bd 17 3f 37 3e
       0.1652683 0.071349785 -0.101111926 0.1789516
